backend: tensorflow
class_name: Model
config:
  input_layers:
  - [data_freq_time, 0, 0]
  - [data_dm_time, 0, 0]
  layers:
  - class_name: InputLayer
    config:
      batch_input_shape: !!python/tuple [null, 256, 256, 1]
      dtype: float32
      name: data_freq_time
      sparse: false
    inbound_nodes: []
    name: data_freq_time
  - class_name: InputLayer
    config:
      batch_input_shape: !!python/tuple [null, 256, 256, 1]
      dtype: float32
      name: data_dm_time
      sparse: false
    inbound_nodes: []
    name: data_dm_time
  - class_name: Conv2D
    config:
      activation: relu
      activity_regularizer: null
      bias_constraint: null
      bias_initializer:
        class_name: Zeros
        config: {}
      bias_regularizer: null
      data_format: channels_last
      dilation_rate: &id001 !!python/tuple [1, 1]
      filters: 3
      kernel_constraint: null
      kernel_initializer:
        class_name: VarianceScaling
        config: {distribution: uniform, mode: fan_avg, scale: 1.0, seed: null}
      kernel_regularizer: null
      kernel_size: &id002 !!python/tuple [2, 2]
      name: conv2d_1__0
      padding: valid
      strides: &id003 !!python/tuple [1, 1]
      trainable: true
      use_bias: true
    inbound_nodes:
    - - - data_freq_time
        - 0
        - 0
        - {}
    name: conv2d_1__0
  - class_name: Conv2D
    config:
      activation: relu
      activity_regularizer: null
      bias_constraint: null
      bias_initializer:
        class_name: Zeros
        config: {}
      bias_regularizer: null
      data_format: channels_last
      dilation_rate: *id001
      filters: 3
      kernel_constraint: null
      kernel_initializer:
        class_name: VarianceScaling
        config: {distribution: uniform, mode: fan_avg, scale: 1.0, seed: null}
      kernel_regularizer: null
      kernel_size: *id002
      name: conv2d_2__1
      padding: valid
      strides: *id003
      trainable: true
      use_bias: true
    inbound_nodes:
    - - - data_dm_time
        - 0
        - 0
        - {}
    name: conv2d_2__1
  - class_name: Model
    config:
      input_layers:
      - [input_2, 0, 0]
      layers:
      - class_name: InputLayer
        config:
          batch_input_shape: !!python/tuple [null, null, null, 3]
          dtype: float32
          name: input_2
          sparse: false
        inbound_nodes: []
        name: input_2
      - class_name: ZeroPadding2D
        config:
          data_format: channels_last
          name: zero_padding2d_1
          padding: !!python/tuple
          - !!python/tuple [3, 3]
          - !!python/tuple [3, 3]
          trainable: &id004 !!python/object/apply:numpy.core.multiarray.scalar
          - &id063 !!python/object/apply:numpy.dtype
            args: [b1, 0, 1]
            state: !!python/tuple [3, '|', null, null, null, -1, -1, 0]
          - !!binary |
            AA==
        inbound_nodes:
        - - - input_2
            - 0
            - 0
            - {}
        name: zero_padding2d_1
      - class_name: Conv2D
        config:
          activation: linear
          activity_regularizer: null
          bias_constraint: null
          bias_initializer:
            class_name: Zeros
            config: {}
          bias_regularizer: null
          data_format: channels_last
          dilation_rate: *id001
          filters: 64
          kernel_constraint: null
          kernel_initializer:
            class_name: VarianceScaling
            config: {distribution: uniform, mode: fan_avg, scale: 1.0, seed: null}
          kernel_regularizer: null
          kernel_size: !!python/tuple [7, 7]
          name: conv1/conv
          padding: valid
          strides: !!python/tuple [2, 2]
          trainable: *id004
          use_bias: false
        inbound_nodes:
        - - - zero_padding2d_1
            - 0
            - 0
            - {}
        name: conv1/conv
      - class_name: BatchNormalization
        config:
          axis: 3
          beta_constraint: null
          beta_initializer:
            class_name: Zeros
            config: {}
          beta_regularizer: null
          center: true
          epsilon: 1.001e-05
          gamma_constraint: null
          gamma_initializer:
            class_name: Ones
            config: {}
          gamma_regularizer: null
          momentum: 0.99
          moving_mean_initializer:
            class_name: Zeros
            config: {}
          moving_variance_initializer:
            class_name: Ones
            config: {}
          name: conv1/bn
          scale: true
          trainable: *id004
        inbound_nodes:
        - - - conv1/conv
            - 0
            - 0
            - {}
        name: conv1/bn
      - class_name: Activation
        config:
          activation: relu
          name: conv1/relu
          trainable: *id004
        inbound_nodes:
        - - - conv1/bn
            - 0
            - 0
            - {}
        name: conv1/relu
      - class_name: ZeroPadding2D
        config:
          data_format: channels_last
          name: zero_padding2d_2
          padding: !!python/tuple
          - !!python/tuple [1, 1]
          - !!python/tuple [1, 1]
          trainable: *id004
        inbound_nodes:
        - - - conv1/relu
            - 0
            - 0
            - {}
        name: zero_padding2d_2
      - class_name: MaxPooling2D
        config:
          data_format: channels_last
          name: pool1
          padding: valid
          pool_size: !!python/tuple [3, 3]
          strides: !!python/tuple [2, 2]
          trainable: *id004
        inbound_nodes:
        - - - zero_padding2d_2
            - 0
            - 0
            - {}
        name: pool1
      - class_name: BatchNormalization
        config:
          axis: 3
          beta_constraint: null
          beta_initializer:
            class_name: Zeros
            config: {}
          beta_regularizer: null
          center: true
          epsilon: 1.001e-05
          gamma_constraint: null
          gamma_initializer:
            class_name: Ones
            config: {}
          gamma_regularizer: null
          momentum: 0.99
          moving_mean_initializer:
            class_name: Zeros
            config: {}
          moving_variance_initializer:
            class_name: Ones
            config: {}
          name: conv2_block1_0_bn
          scale: true
          trainable: *id004
        inbound_nodes:
        - - - pool1
            - 0
            - 0
            - {}
        name: conv2_block1_0_bn
      - class_name: Activation
        config:
          activation: relu
          name: conv2_block1_0_relu
          trainable: *id004
        inbound_nodes:
        - - - conv2_block1_0_bn
            - 0
            - 0
            - {}
        name: conv2_block1_0_relu
      - class_name: Conv2D
        config:
          activation: linear
          activity_regularizer: null
          bias_constraint: null
          bias_initializer:
            class_name: Zeros
            config: {}
          bias_regularizer: null
          data_format: channels_last
          dilation_rate: *id001
          filters: 128
          kernel_constraint: null
          kernel_initializer:
            class_name: VarianceScaling
            config: {distribution: uniform, mode: fan_avg, scale: 1.0, seed: null}
          kernel_regularizer: null
          kernel_size: !!python/tuple [1, 1]
          name: conv2_block1_1_conv
          padding: valid
          strides: &id005 !!python/tuple [1, 1]
          trainable: *id004
          use_bias: false
        inbound_nodes:
        - - - conv2_block1_0_relu
            - 0
            - 0
            - {}
        name: conv2_block1_1_conv
      - class_name: BatchNormalization
        config:
          axis: 3
          beta_constraint: null
          beta_initializer:
            class_name: Zeros
            config: {}
          beta_regularizer: null
          center: true
          epsilon: 1.001e-05
          gamma_constraint: null
          gamma_initializer:
            class_name: Ones
            config: {}
          gamma_regularizer: null
          momentum: 0.99
          moving_mean_initializer:
            class_name: Zeros
            config: {}
          moving_variance_initializer:
            class_name: Ones
            config: {}
          name: conv2_block1_1_bn
          scale: true
          trainable: *id004
        inbound_nodes:
        - - - conv2_block1_1_conv
            - 0
            - 0
            - {}
        name: conv2_block1_1_bn
      - class_name: Activation
        config:
          activation: relu
          name: conv2_block1_1_relu
          trainable: *id004
        inbound_nodes:
        - - - conv2_block1_1_bn
            - 0
            - 0
            - {}
        name: conv2_block1_1_relu
      - class_name: Conv2D
        config:
          activation: linear
          activity_regularizer: null
          bias_constraint: null
          bias_initializer:
            class_name: Zeros
            config: {}
          bias_regularizer: null
          data_format: channels_last
          dilation_rate: *id001
          filters: 32
          kernel_constraint: null
          kernel_initializer:
            class_name: VarianceScaling
            config: {distribution: uniform, mode: fan_avg, scale: 1.0, seed: null}
          kernel_regularizer: null
          kernel_size: !!python/tuple [3, 3]
          name: conv2_block1_2_conv
          padding: same
          strides: *id005
          trainable: *id004
          use_bias: false
        inbound_nodes:
        - - - conv2_block1_1_relu
            - 0
            - 0
            - {}
        name: conv2_block1_2_conv
      - class_name: Concatenate
        config:
          axis: 3
          name: conv2_block1_concat
          trainable: *id004
        inbound_nodes:
        - - - pool1
            - 0
            - 0
            - &id006 {}
          - - conv2_block1_2_conv
            - 0
            - 0
            - *id006
        name: conv2_block1_concat
      - class_name: BatchNormalization
        config:
          axis: 3
          beta_constraint: null
          beta_initializer:
            class_name: Zeros
            config: {}
          beta_regularizer: null
          center: true
          epsilon: 1.001e-05
          gamma_constraint: null
          gamma_initializer:
            class_name: Ones
            config: {}
          gamma_regularizer: null
          momentum: 0.99
          moving_mean_initializer:
            class_name: Zeros
            config: {}
          moving_variance_initializer:
            class_name: Ones
            config: {}
          name: conv2_block2_0_bn
          scale: true
          trainable: *id004
        inbound_nodes:
        - - - conv2_block1_concat
            - 0
            - 0
            - {}
        name: conv2_block2_0_bn
      - class_name: Activation
        config:
          activation: relu
          name: conv2_block2_0_relu
          trainable: *id004
        inbound_nodes:
        - - - conv2_block2_0_bn
            - 0
            - 0
            - {}
        name: conv2_block2_0_relu
      - class_name: Conv2D
        config:
          activation: linear
          activity_regularizer: null
          bias_constraint: null
          bias_initializer:
            class_name: Zeros
            config: {}
          bias_regularizer: null
          data_format: channels_last
          dilation_rate: *id001
          filters: 128
          kernel_constraint: null
          kernel_initializer:
            class_name: VarianceScaling
            config: {distribution: uniform, mode: fan_avg, scale: 1.0, seed: null}
          kernel_regularizer: null
          kernel_size: !!python/tuple [1, 1]
          name: conv2_block2_1_conv
          padding: valid
          strides: *id005
          trainable: *id004
          use_bias: false
        inbound_nodes:
        - - - conv2_block2_0_relu
            - 0
            - 0
            - {}
        name: conv2_block2_1_conv
      - class_name: BatchNormalization
        config:
          axis: 3
          beta_constraint: null
          beta_initializer:
            class_name: Zeros
            config: {}
          beta_regularizer: null
          center: true
          epsilon: 1.001e-05
          gamma_constraint: null
          gamma_initializer:
            class_name: Ones
            config: {}
          gamma_regularizer: null
          momentum: 0.99
          moving_mean_initializer:
            class_name: Zeros
            config: {}
          moving_variance_initializer:
            class_name: Ones
            config: {}
          name: conv2_block2_1_bn
          scale: true
          trainable: *id004
        inbound_nodes:
        - - - conv2_block2_1_conv
            - 0
            - 0
            - {}
        name: conv2_block2_1_bn
      - class_name: Activation
        config:
          activation: relu
          name: conv2_block2_1_relu
          trainable: *id004
        inbound_nodes:
        - - - conv2_block2_1_bn
            - 0
            - 0
            - {}
        name: conv2_block2_1_relu
      - class_name: Conv2D
        config:
          activation: linear
          activity_regularizer: null
          bias_constraint: null
          bias_initializer:
            class_name: Zeros
            config: {}
          bias_regularizer: null
          data_format: channels_last
          dilation_rate: *id001
          filters: 32
          kernel_constraint: null
          kernel_initializer:
            class_name: VarianceScaling
            config: {distribution: uniform, mode: fan_avg, scale: 1.0, seed: null}
          kernel_regularizer: null
          kernel_size: !!python/tuple [3, 3]
          name: conv2_block2_2_conv
          padding: same
          strides: *id005
          trainable: *id004
          use_bias: false
        inbound_nodes:
        - - - conv2_block2_1_relu
            - 0
            - 0
            - {}
        name: conv2_block2_2_conv
      - class_name: Concatenate
        config:
          axis: 3
          name: conv2_block2_concat
          trainable: *id004
        inbound_nodes:
        - - - conv2_block1_concat
            - 0
            - 0
            - &id007 {}
          - - conv2_block2_2_conv
            - 0
            - 0
            - *id007
        name: conv2_block2_concat
      - class_name: BatchNormalization
        config:
          axis: 3
          beta_constraint: null
          beta_initializer:
            class_name: Zeros
            config: {}
          beta_regularizer: null
          center: true
          epsilon: 1.001e-05
          gamma_constraint: null
          gamma_initializer:
            class_name: Ones
            config: {}
          gamma_regularizer: null
          momentum: 0.99
          moving_mean_initializer:
            class_name: Zeros
            config: {}
          moving_variance_initializer:
            class_name: Ones
            config: {}
          name: conv2_block3_0_bn
          scale: true
          trainable: *id004
        inbound_nodes:
        - - - conv2_block2_concat
            - 0
            - 0
            - {}
        name: conv2_block3_0_bn
      - class_name: Activation
        config:
          activation: relu
          name: conv2_block3_0_relu
          trainable: *id004
        inbound_nodes:
        - - - conv2_block3_0_bn
            - 0
            - 0
            - {}
        name: conv2_block3_0_relu
      - class_name: Conv2D
        config:
          activation: linear
          activity_regularizer: null
          bias_constraint: null
          bias_initializer:
            class_name: Zeros
            config: {}
          bias_regularizer: null
          data_format: channels_last
          dilation_rate: *id001
          filters: 128
          kernel_constraint: null
          kernel_initializer:
            class_name: VarianceScaling
            config: {distribution: uniform, mode: fan_avg, scale: 1.0, seed: null}
          kernel_regularizer: null
          kernel_size: !!python/tuple [1, 1]
          name: conv2_block3_1_conv
          padding: valid
          strides: *id005
          trainable: *id004
          use_bias: false
        inbound_nodes:
        - - - conv2_block3_0_relu
            - 0
            - 0
            - {}
        name: conv2_block3_1_conv
      - class_name: BatchNormalization
        config:
          axis: 3
          beta_constraint: null
          beta_initializer:
            class_name: Zeros
            config: {}
          beta_regularizer: null
          center: true
          epsilon: 1.001e-05
          gamma_constraint: null
          gamma_initializer:
            class_name: Ones
            config: {}
          gamma_regularizer: null
          momentum: 0.99
          moving_mean_initializer:
            class_name: Zeros
            config: {}
          moving_variance_initializer:
            class_name: Ones
            config: {}
          name: conv2_block3_1_bn
          scale: true
          trainable: *id004
        inbound_nodes:
        - - - conv2_block3_1_conv
            - 0
            - 0
            - {}
        name: conv2_block3_1_bn
      - class_name: Activation
        config:
          activation: relu
          name: conv2_block3_1_relu
          trainable: *id004
        inbound_nodes:
        - - - conv2_block3_1_bn
            - 0
            - 0
            - {}
        name: conv2_block3_1_relu
      - class_name: Conv2D
        config:
          activation: linear
          activity_regularizer: null
          bias_constraint: null
          bias_initializer:
            class_name: Zeros
            config: {}
          bias_regularizer: null
          data_format: channels_last
          dilation_rate: *id001
          filters: 32
          kernel_constraint: null
          kernel_initializer:
            class_name: VarianceScaling
            config: {distribution: uniform, mode: fan_avg, scale: 1.0, seed: null}
          kernel_regularizer: null
          kernel_size: !!python/tuple [3, 3]
          name: conv2_block3_2_conv
          padding: same
          strides: *id005
          trainable: *id004
          use_bias: false
        inbound_nodes:
        - - - conv2_block3_1_relu
            - 0
            - 0
            - {}
        name: conv2_block3_2_conv
      - class_name: Concatenate
        config:
          axis: 3
          name: conv2_block3_concat
          trainable: *id004
        inbound_nodes:
        - - - conv2_block2_concat
            - 0
            - 0
            - &id008 {}
          - - conv2_block3_2_conv
            - 0
            - 0
            - *id008
        name: conv2_block3_concat
      - class_name: BatchNormalization
        config:
          axis: 3
          beta_constraint: null
          beta_initializer:
            class_name: Zeros
            config: {}
          beta_regularizer: null
          center: true
          epsilon: 1.001e-05
          gamma_constraint: null
          gamma_initializer:
            class_name: Ones
            config: {}
          gamma_regularizer: null
          momentum: 0.99
          moving_mean_initializer:
            class_name: Zeros
            config: {}
          moving_variance_initializer:
            class_name: Ones
            config: {}
          name: conv2_block4_0_bn
          scale: true
          trainable: *id004
        inbound_nodes:
        - - - conv2_block3_concat
            - 0
            - 0
            - {}
        name: conv2_block4_0_bn
      - class_name: Activation
        config:
          activation: relu
          name: conv2_block4_0_relu
          trainable: *id004
        inbound_nodes:
        - - - conv2_block4_0_bn
            - 0
            - 0
            - {}
        name: conv2_block4_0_relu
      - class_name: Conv2D
        config:
          activation: linear
          activity_regularizer: null
          bias_constraint: null
          bias_initializer:
            class_name: Zeros
            config: {}
          bias_regularizer: null
          data_format: channels_last
          dilation_rate: *id001
          filters: 128
          kernel_constraint: null
          kernel_initializer:
            class_name: VarianceScaling
            config: {distribution: uniform, mode: fan_avg, scale: 1.0, seed: null}
          kernel_regularizer: null
          kernel_size: !!python/tuple [1, 1]
          name: conv2_block4_1_conv
          padding: valid
          strides: *id005
          trainable: *id004
          use_bias: false
        inbound_nodes:
        - - - conv2_block4_0_relu
            - 0
            - 0
            - {}
        name: conv2_block4_1_conv
      - class_name: BatchNormalization
        config:
          axis: 3
          beta_constraint: null
          beta_initializer:
            class_name: Zeros
            config: {}
          beta_regularizer: null
          center: true
          epsilon: 1.001e-05
          gamma_constraint: null
          gamma_initializer:
            class_name: Ones
            config: {}
          gamma_regularizer: null
          momentum: 0.99
          moving_mean_initializer:
            class_name: Zeros
            config: {}
          moving_variance_initializer:
            class_name: Ones
            config: {}
          name: conv2_block4_1_bn
          scale: true
          trainable: *id004
        inbound_nodes:
        - - - conv2_block4_1_conv
            - 0
            - 0
            - {}
        name: conv2_block4_1_bn
      - class_name: Activation
        config:
          activation: relu
          name: conv2_block4_1_relu
          trainable: *id004
        inbound_nodes:
        - - - conv2_block4_1_bn
            - 0
            - 0
            - {}
        name: conv2_block4_1_relu
      - class_name: Conv2D
        config:
          activation: linear
          activity_regularizer: null
          bias_constraint: null
          bias_initializer:
            class_name: Zeros
            config: {}
          bias_regularizer: null
          data_format: channels_last
          dilation_rate: *id001
          filters: 32
          kernel_constraint: null
          kernel_initializer:
            class_name: VarianceScaling
            config: {distribution: uniform, mode: fan_avg, scale: 1.0, seed: null}
          kernel_regularizer: null
          kernel_size: !!python/tuple [3, 3]
          name: conv2_block4_2_conv
          padding: same
          strides: *id005
          trainable: *id004
          use_bias: false
        inbound_nodes:
        - - - conv2_block4_1_relu
            - 0
            - 0
            - {}
        name: conv2_block4_2_conv
      - class_name: Concatenate
        config:
          axis: 3
          name: conv2_block4_concat
          trainable: *id004
        inbound_nodes:
        - - - conv2_block3_concat
            - 0
            - 0
            - &id009 {}
          - - conv2_block4_2_conv
            - 0
            - 0
            - *id009
        name: conv2_block4_concat
      - class_name: BatchNormalization
        config:
          axis: 3
          beta_constraint: null
          beta_initializer:
            class_name: Zeros
            config: {}
          beta_regularizer: null
          center: true
          epsilon: 1.001e-05
          gamma_constraint: null
          gamma_initializer:
            class_name: Ones
            config: {}
          gamma_regularizer: null
          momentum: 0.99
          moving_mean_initializer:
            class_name: Zeros
            config: {}
          moving_variance_initializer:
            class_name: Ones
            config: {}
          name: conv2_block5_0_bn
          scale: true
          trainable: *id004
        inbound_nodes:
        - - - conv2_block4_concat
            - 0
            - 0
            - {}
        name: conv2_block5_0_bn
      - class_name: Activation
        config:
          activation: relu
          name: conv2_block5_0_relu
          trainable: *id004
        inbound_nodes:
        - - - conv2_block5_0_bn
            - 0
            - 0
            - {}
        name: conv2_block5_0_relu
      - class_name: Conv2D
        config:
          activation: linear
          activity_regularizer: null
          bias_constraint: null
          bias_initializer:
            class_name: Zeros
            config: {}
          bias_regularizer: null
          data_format: channels_last
          dilation_rate: *id001
          filters: 128
          kernel_constraint: null
          kernel_initializer:
            class_name: VarianceScaling
            config: {distribution: uniform, mode: fan_avg, scale: 1.0, seed: null}
          kernel_regularizer: null
          kernel_size: !!python/tuple [1, 1]
          name: conv2_block5_1_conv
          padding: valid
          strides: *id005
          trainable: *id004
          use_bias: false
        inbound_nodes:
        - - - conv2_block5_0_relu
            - 0
            - 0
            - {}
        name: conv2_block5_1_conv
      - class_name: BatchNormalization
        config:
          axis: 3
          beta_constraint: null
          beta_initializer:
            class_name: Zeros
            config: {}
          beta_regularizer: null
          center: true
          epsilon: 1.001e-05
          gamma_constraint: null
          gamma_initializer:
            class_name: Ones
            config: {}
          gamma_regularizer: null
          momentum: 0.99
          moving_mean_initializer:
            class_name: Zeros
            config: {}
          moving_variance_initializer:
            class_name: Ones
            config: {}
          name: conv2_block5_1_bn
          scale: true
          trainable: *id004
        inbound_nodes:
        - - - conv2_block5_1_conv
            - 0
            - 0
            - {}
        name: conv2_block5_1_bn
      - class_name: Activation
        config:
          activation: relu
          name: conv2_block5_1_relu
          trainable: *id004
        inbound_nodes:
        - - - conv2_block5_1_bn
            - 0
            - 0
            - {}
        name: conv2_block5_1_relu
      - class_name: Conv2D
        config:
          activation: linear
          activity_regularizer: null
          bias_constraint: null
          bias_initializer:
            class_name: Zeros
            config: {}
          bias_regularizer: null
          data_format: channels_last
          dilation_rate: *id001
          filters: 32
          kernel_constraint: null
          kernel_initializer:
            class_name: VarianceScaling
            config: {distribution: uniform, mode: fan_avg, scale: 1.0, seed: null}
          kernel_regularizer: null
          kernel_size: !!python/tuple [3, 3]
          name: conv2_block5_2_conv
          padding: same
          strides: *id005
          trainable: *id004
          use_bias: false
        inbound_nodes:
        - - - conv2_block5_1_relu
            - 0
            - 0
            - {}
        name: conv2_block5_2_conv
      - class_name: Concatenate
        config:
          axis: 3
          name: conv2_block5_concat
          trainable: *id004
        inbound_nodes:
        - - - conv2_block4_concat
            - 0
            - 0
            - &id010 {}
          - - conv2_block5_2_conv
            - 0
            - 0
            - *id010
        name: conv2_block5_concat
      - class_name: BatchNormalization
        config:
          axis: 3
          beta_constraint: null
          beta_initializer:
            class_name: Zeros
            config: {}
          beta_regularizer: null
          center: true
          epsilon: 1.001e-05
          gamma_constraint: null
          gamma_initializer:
            class_name: Ones
            config: {}
          gamma_regularizer: null
          momentum: 0.99
          moving_mean_initializer:
            class_name: Zeros
            config: {}
          moving_variance_initializer:
            class_name: Ones
            config: {}
          name: conv2_block6_0_bn
          scale: true
          trainable: *id004
        inbound_nodes:
        - - - conv2_block5_concat
            - 0
            - 0
            - {}
        name: conv2_block6_0_bn
      - class_name: Activation
        config:
          activation: relu
          name: conv2_block6_0_relu
          trainable: *id004
        inbound_nodes:
        - - - conv2_block6_0_bn
            - 0
            - 0
            - {}
        name: conv2_block6_0_relu
      - class_name: Conv2D
        config:
          activation: linear
          activity_regularizer: null
          bias_constraint: null
          bias_initializer:
            class_name: Zeros
            config: {}
          bias_regularizer: null
          data_format: channels_last
          dilation_rate: *id001
          filters: 128
          kernel_constraint: null
          kernel_initializer:
            class_name: VarianceScaling
            config: {distribution: uniform, mode: fan_avg, scale: 1.0, seed: null}
          kernel_regularizer: null
          kernel_size: !!python/tuple [1, 1]
          name: conv2_block6_1_conv
          padding: valid
          strides: *id005
          trainable: *id004
          use_bias: false
        inbound_nodes:
        - - - conv2_block6_0_relu
            - 0
            - 0
            - {}
        name: conv2_block6_1_conv
      - class_name: BatchNormalization
        config:
          axis: 3
          beta_constraint: null
          beta_initializer:
            class_name: Zeros
            config: {}
          beta_regularizer: null
          center: true
          epsilon: 1.001e-05
          gamma_constraint: null
          gamma_initializer:
            class_name: Ones
            config: {}
          gamma_regularizer: null
          momentum: 0.99
          moving_mean_initializer:
            class_name: Zeros
            config: {}
          moving_variance_initializer:
            class_name: Ones
            config: {}
          name: conv2_block6_1_bn
          scale: true
          trainable: *id004
        inbound_nodes:
        - - - conv2_block6_1_conv
            - 0
            - 0
            - {}
        name: conv2_block6_1_bn
      - class_name: Activation
        config:
          activation: relu
          name: conv2_block6_1_relu
          trainable: *id004
        inbound_nodes:
        - - - conv2_block6_1_bn
            - 0
            - 0
            - {}
        name: conv2_block6_1_relu
      - class_name: Conv2D
        config:
          activation: linear
          activity_regularizer: null
          bias_constraint: null
          bias_initializer:
            class_name: Zeros
            config: {}
          bias_regularizer: null
          data_format: channels_last
          dilation_rate: *id001
          filters: 32
          kernel_constraint: null
          kernel_initializer:
            class_name: VarianceScaling
            config: {distribution: uniform, mode: fan_avg, scale: 1.0, seed: null}
          kernel_regularizer: null
          kernel_size: !!python/tuple [3, 3]
          name: conv2_block6_2_conv
          padding: same
          strides: *id005
          trainable: *id004
          use_bias: false
        inbound_nodes:
        - - - conv2_block6_1_relu
            - 0
            - 0
            - {}
        name: conv2_block6_2_conv
      - class_name: Concatenate
        config:
          axis: 3
          name: conv2_block6_concat
          trainable: *id004
        inbound_nodes:
        - - - conv2_block5_concat
            - 0
            - 0
            - &id011 {}
          - - conv2_block6_2_conv
            - 0
            - 0
            - *id011
        name: conv2_block6_concat
      - class_name: BatchNormalization
        config:
          axis: 3
          beta_constraint: null
          beta_initializer:
            class_name: Zeros
            config: {}
          beta_regularizer: null
          center: true
          epsilon: 1.001e-05
          gamma_constraint: null
          gamma_initializer:
            class_name: Ones
            config: {}
          gamma_regularizer: null
          momentum: 0.99
          moving_mean_initializer:
            class_name: Zeros
            config: {}
          moving_variance_initializer:
            class_name: Ones
            config: {}
          name: pool2_bn
          scale: true
          trainable: *id004
        inbound_nodes:
        - - - conv2_block6_concat
            - 0
            - 0
            - {}
        name: pool2_bn
      - class_name: Activation
        config:
          activation: relu
          name: pool2_relu
          trainable: *id004
        inbound_nodes:
        - - - pool2_bn
            - 0
            - 0
            - {}
        name: pool2_relu
      - class_name: Conv2D
        config:
          activation: linear
          activity_regularizer: null
          bias_constraint: null
          bias_initializer:
            class_name: Zeros
            config: {}
          bias_regularizer: null
          data_format: channels_last
          dilation_rate: *id001
          filters: 128
          kernel_constraint: null
          kernel_initializer:
            class_name: VarianceScaling
            config: {distribution: uniform, mode: fan_avg, scale: 1.0, seed: null}
          kernel_regularizer: null
          kernel_size: !!python/tuple [1, 1]
          name: pool2_conv
          padding: valid
          strides: *id005
          trainable: *id004
          use_bias: false
        inbound_nodes:
        - - - pool2_relu
            - 0
            - 0
            - {}
        name: pool2_conv
      - class_name: AveragePooling2D
        config:
          data_format: channels_last
          name: pool2_pool
          padding: valid
          pool_size: !!python/tuple [2, 2]
          strides: !!python/tuple [2, 2]
          trainable: *id004
        inbound_nodes:
        - - - pool2_conv
            - 0
            - 0
            - {}
        name: pool2_pool
      - class_name: BatchNormalization
        config:
          axis: 3
          beta_constraint: null
          beta_initializer:
            class_name: Zeros
            config: {}
          beta_regularizer: null
          center: true
          epsilon: 1.001e-05
          gamma_constraint: null
          gamma_initializer:
            class_name: Ones
            config: {}
          gamma_regularizer: null
          momentum: 0.99
          moving_mean_initializer:
            class_name: Zeros
            config: {}
          moving_variance_initializer:
            class_name: Ones
            config: {}
          name: conv3_block1_0_bn
          scale: true
          trainable: *id004
        inbound_nodes:
        - - - pool2_pool
            - 0
            - 0
            - {}
        name: conv3_block1_0_bn
      - class_name: Activation
        config:
          activation: relu
          name: conv3_block1_0_relu
          trainable: *id004
        inbound_nodes:
        - - - conv3_block1_0_bn
            - 0
            - 0
            - {}
        name: conv3_block1_0_relu
      - class_name: Conv2D
        config:
          activation: linear
          activity_regularizer: null
          bias_constraint: null
          bias_initializer:
            class_name: Zeros
            config: {}
          bias_regularizer: null
          data_format: channels_last
          dilation_rate: *id001
          filters: 128
          kernel_constraint: null
          kernel_initializer:
            class_name: VarianceScaling
            config: {distribution: uniform, mode: fan_avg, scale: 1.0, seed: null}
          kernel_regularizer: null
          kernel_size: !!python/tuple [1, 1]
          name: conv3_block1_1_conv
          padding: valid
          strides: *id005
          trainable: *id004
          use_bias: false
        inbound_nodes:
        - - - conv3_block1_0_relu
            - 0
            - 0
            - {}
        name: conv3_block1_1_conv
      - class_name: BatchNormalization
        config:
          axis: 3
          beta_constraint: null
          beta_initializer:
            class_name: Zeros
            config: {}
          beta_regularizer: null
          center: true
          epsilon: 1.001e-05
          gamma_constraint: null
          gamma_initializer:
            class_name: Ones
            config: {}
          gamma_regularizer: null
          momentum: 0.99
          moving_mean_initializer:
            class_name: Zeros
            config: {}
          moving_variance_initializer:
            class_name: Ones
            config: {}
          name: conv3_block1_1_bn
          scale: true
          trainable: *id004
        inbound_nodes:
        - - - conv3_block1_1_conv
            - 0
            - 0
            - {}
        name: conv3_block1_1_bn
      - class_name: Activation
        config:
          activation: relu
          name: conv3_block1_1_relu
          trainable: *id004
        inbound_nodes:
        - - - conv3_block1_1_bn
            - 0
            - 0
            - {}
        name: conv3_block1_1_relu
      - class_name: Conv2D
        config:
          activation: linear
          activity_regularizer: null
          bias_constraint: null
          bias_initializer:
            class_name: Zeros
            config: {}
          bias_regularizer: null
          data_format: channels_last
          dilation_rate: *id001
          filters: 32
          kernel_constraint: null
          kernel_initializer:
            class_name: VarianceScaling
            config: {distribution: uniform, mode: fan_avg, scale: 1.0, seed: null}
          kernel_regularizer: null
          kernel_size: !!python/tuple [3, 3]
          name: conv3_block1_2_conv
          padding: same
          strides: *id005
          trainable: *id004
          use_bias: false
        inbound_nodes:
        - - - conv3_block1_1_relu
            - 0
            - 0
            - {}
        name: conv3_block1_2_conv
      - class_name: Concatenate
        config:
          axis: 3
          name: conv3_block1_concat
          trainable: *id004
        inbound_nodes:
        - - - pool2_pool
            - 0
            - 0
            - &id012 {}
          - - conv3_block1_2_conv
            - 0
            - 0
            - *id012
        name: conv3_block1_concat
      - class_name: BatchNormalization
        config:
          axis: 3
          beta_constraint: null
          beta_initializer:
            class_name: Zeros
            config: {}
          beta_regularizer: null
          center: true
          epsilon: 1.001e-05
          gamma_constraint: null
          gamma_initializer:
            class_name: Ones
            config: {}
          gamma_regularizer: null
          momentum: 0.99
          moving_mean_initializer:
            class_name: Zeros
            config: {}
          moving_variance_initializer:
            class_name: Ones
            config: {}
          name: conv3_block2_0_bn
          scale: true
          trainable: *id004
        inbound_nodes:
        - - - conv3_block1_concat
            - 0
            - 0
            - {}
        name: conv3_block2_0_bn
      - class_name: Activation
        config:
          activation: relu
          name: conv3_block2_0_relu
          trainable: *id004
        inbound_nodes:
        - - - conv3_block2_0_bn
            - 0
            - 0
            - {}
        name: conv3_block2_0_relu
      - class_name: Conv2D
        config:
          activation: linear
          activity_regularizer: null
          bias_constraint: null
          bias_initializer:
            class_name: Zeros
            config: {}
          bias_regularizer: null
          data_format: channels_last
          dilation_rate: *id001
          filters: 128
          kernel_constraint: null
          kernel_initializer:
            class_name: VarianceScaling
            config: {distribution: uniform, mode: fan_avg, scale: 1.0, seed: null}
          kernel_regularizer: null
          kernel_size: !!python/tuple [1, 1]
          name: conv3_block2_1_conv
          padding: valid
          strides: *id005
          trainable: *id004
          use_bias: false
        inbound_nodes:
        - - - conv3_block2_0_relu
            - 0
            - 0
            - {}
        name: conv3_block2_1_conv
      - class_name: BatchNormalization
        config:
          axis: 3
          beta_constraint: null
          beta_initializer:
            class_name: Zeros
            config: {}
          beta_regularizer: null
          center: true
          epsilon: 1.001e-05
          gamma_constraint: null
          gamma_initializer:
            class_name: Ones
            config: {}
          gamma_regularizer: null
          momentum: 0.99
          moving_mean_initializer:
            class_name: Zeros
            config: {}
          moving_variance_initializer:
            class_name: Ones
            config: {}
          name: conv3_block2_1_bn
          scale: true
          trainable: *id004
        inbound_nodes:
        - - - conv3_block2_1_conv
            - 0
            - 0
            - {}
        name: conv3_block2_1_bn
      - class_name: Activation
        config:
          activation: relu
          name: conv3_block2_1_relu
          trainable: *id004
        inbound_nodes:
        - - - conv3_block2_1_bn
            - 0
            - 0
            - {}
        name: conv3_block2_1_relu
      - class_name: Conv2D
        config:
          activation: linear
          activity_regularizer: null
          bias_constraint: null
          bias_initializer:
            class_name: Zeros
            config: {}
          bias_regularizer: null
          data_format: channels_last
          dilation_rate: *id001
          filters: 32
          kernel_constraint: null
          kernel_initializer:
            class_name: VarianceScaling
            config: {distribution: uniform, mode: fan_avg, scale: 1.0, seed: null}
          kernel_regularizer: null
          kernel_size: !!python/tuple [3, 3]
          name: conv3_block2_2_conv
          padding: same
          strides: *id005
          trainable: *id004
          use_bias: false
        inbound_nodes:
        - - - conv3_block2_1_relu
            - 0
            - 0
            - {}
        name: conv3_block2_2_conv
      - class_name: Concatenate
        config:
          axis: 3
          name: conv3_block2_concat
          trainable: *id004
        inbound_nodes:
        - - - conv3_block1_concat
            - 0
            - 0
            - &id013 {}
          - - conv3_block2_2_conv
            - 0
            - 0
            - *id013
        name: conv3_block2_concat
      - class_name: BatchNormalization
        config:
          axis: 3
          beta_constraint: null
          beta_initializer:
            class_name: Zeros
            config: {}
          beta_regularizer: null
          center: true
          epsilon: 1.001e-05
          gamma_constraint: null
          gamma_initializer:
            class_name: Ones
            config: {}
          gamma_regularizer: null
          momentum: 0.99
          moving_mean_initializer:
            class_name: Zeros
            config: {}
          moving_variance_initializer:
            class_name: Ones
            config: {}
          name: conv3_block3_0_bn
          scale: true
          trainable: *id004
        inbound_nodes:
        - - - conv3_block2_concat
            - 0
            - 0
            - {}
        name: conv3_block3_0_bn
      - class_name: Activation
        config:
          activation: relu
          name: conv3_block3_0_relu
          trainable: *id004
        inbound_nodes:
        - - - conv3_block3_0_bn
            - 0
            - 0
            - {}
        name: conv3_block3_0_relu
      - class_name: Conv2D
        config:
          activation: linear
          activity_regularizer: null
          bias_constraint: null
          bias_initializer:
            class_name: Zeros
            config: {}
          bias_regularizer: null
          data_format: channels_last
          dilation_rate: *id001
          filters: 128
          kernel_constraint: null
          kernel_initializer:
            class_name: VarianceScaling
            config: {distribution: uniform, mode: fan_avg, scale: 1.0, seed: null}
          kernel_regularizer: null
          kernel_size: !!python/tuple [1, 1]
          name: conv3_block3_1_conv
          padding: valid
          strides: *id005
          trainable: *id004
          use_bias: false
        inbound_nodes:
        - - - conv3_block3_0_relu
            - 0
            - 0
            - {}
        name: conv3_block3_1_conv
      - class_name: BatchNormalization
        config:
          axis: 3
          beta_constraint: null
          beta_initializer:
            class_name: Zeros
            config: {}
          beta_regularizer: null
          center: true
          epsilon: 1.001e-05
          gamma_constraint: null
          gamma_initializer:
            class_name: Ones
            config: {}
          gamma_regularizer: null
          momentum: 0.99
          moving_mean_initializer:
            class_name: Zeros
            config: {}
          moving_variance_initializer:
            class_name: Ones
            config: {}
          name: conv3_block3_1_bn
          scale: true
          trainable: *id004
        inbound_nodes:
        - - - conv3_block3_1_conv
            - 0
            - 0
            - {}
        name: conv3_block3_1_bn
      - class_name: Activation
        config:
          activation: relu
          name: conv3_block3_1_relu
          trainable: *id004
        inbound_nodes:
        - - - conv3_block3_1_bn
            - 0
            - 0
            - {}
        name: conv3_block3_1_relu
      - class_name: Conv2D
        config:
          activation: linear
          activity_regularizer: null
          bias_constraint: null
          bias_initializer:
            class_name: Zeros
            config: {}
          bias_regularizer: null
          data_format: channels_last
          dilation_rate: *id001
          filters: 32
          kernel_constraint: null
          kernel_initializer:
            class_name: VarianceScaling
            config: {distribution: uniform, mode: fan_avg, scale: 1.0, seed: null}
          kernel_regularizer: null
          kernel_size: !!python/tuple [3, 3]
          name: conv3_block3_2_conv
          padding: same
          strides: *id005
          trainable: *id004
          use_bias: false
        inbound_nodes:
        - - - conv3_block3_1_relu
            - 0
            - 0
            - {}
        name: conv3_block3_2_conv
      - class_name: Concatenate
        config:
          axis: 3
          name: conv3_block3_concat
          trainable: *id004
        inbound_nodes:
        - - - conv3_block2_concat
            - 0
            - 0
            - &id014 {}
          - - conv3_block3_2_conv
            - 0
            - 0
            - *id014
        name: conv3_block3_concat
      - class_name: BatchNormalization
        config:
          axis: 3
          beta_constraint: null
          beta_initializer:
            class_name: Zeros
            config: {}
          beta_regularizer: null
          center: true
          epsilon: 1.001e-05
          gamma_constraint: null
          gamma_initializer:
            class_name: Ones
            config: {}
          gamma_regularizer: null
          momentum: 0.99
          moving_mean_initializer:
            class_name: Zeros
            config: {}
          moving_variance_initializer:
            class_name: Ones
            config: {}
          name: conv3_block4_0_bn
          scale: true
          trainable: *id004
        inbound_nodes:
        - - - conv3_block3_concat
            - 0
            - 0
            - {}
        name: conv3_block4_0_bn
      - class_name: Activation
        config:
          activation: relu
          name: conv3_block4_0_relu
          trainable: *id004
        inbound_nodes:
        - - - conv3_block4_0_bn
            - 0
            - 0
            - {}
        name: conv3_block4_0_relu
      - class_name: Conv2D
        config:
          activation: linear
          activity_regularizer: null
          bias_constraint: null
          bias_initializer:
            class_name: Zeros
            config: {}
          bias_regularizer: null
          data_format: channels_last
          dilation_rate: *id001
          filters: 128
          kernel_constraint: null
          kernel_initializer:
            class_name: VarianceScaling
            config: {distribution: uniform, mode: fan_avg, scale: 1.0, seed: null}
          kernel_regularizer: null
          kernel_size: !!python/tuple [1, 1]
          name: conv3_block4_1_conv
          padding: valid
          strides: *id005
          trainable: *id004
          use_bias: false
        inbound_nodes:
        - - - conv3_block4_0_relu
            - 0
            - 0
            - {}
        name: conv3_block4_1_conv
      - class_name: BatchNormalization
        config:
          axis: 3
          beta_constraint: null
          beta_initializer:
            class_name: Zeros
            config: {}
          beta_regularizer: null
          center: true
          epsilon: 1.001e-05
          gamma_constraint: null
          gamma_initializer:
            class_name: Ones
            config: {}
          gamma_regularizer: null
          momentum: 0.99
          moving_mean_initializer:
            class_name: Zeros
            config: {}
          moving_variance_initializer:
            class_name: Ones
            config: {}
          name: conv3_block4_1_bn
          scale: true
          trainable: *id004
        inbound_nodes:
        - - - conv3_block4_1_conv
            - 0
            - 0
            - {}
        name: conv3_block4_1_bn
      - class_name: Activation
        config:
          activation: relu
          name: conv3_block4_1_relu
          trainable: *id004
        inbound_nodes:
        - - - conv3_block4_1_bn
            - 0
            - 0
            - {}
        name: conv3_block4_1_relu
      - class_name: Conv2D
        config:
          activation: linear
          activity_regularizer: null
          bias_constraint: null
          bias_initializer:
            class_name: Zeros
            config: {}
          bias_regularizer: null
          data_format: channels_last
          dilation_rate: *id001
          filters: 32
          kernel_constraint: null
          kernel_initializer:
            class_name: VarianceScaling
            config: {distribution: uniform, mode: fan_avg, scale: 1.0, seed: null}
          kernel_regularizer: null
          kernel_size: !!python/tuple [3, 3]
          name: conv3_block4_2_conv
          padding: same
          strides: *id005
          trainable: *id004
          use_bias: false
        inbound_nodes:
        - - - conv3_block4_1_relu
            - 0
            - 0
            - {}
        name: conv3_block4_2_conv
      - class_name: Concatenate
        config:
          axis: 3
          name: conv3_block4_concat
          trainable: *id004
        inbound_nodes:
        - - - conv3_block3_concat
            - 0
            - 0
            - &id015 {}
          - - conv3_block4_2_conv
            - 0
            - 0
            - *id015
        name: conv3_block4_concat
      - class_name: BatchNormalization
        config:
          axis: 3
          beta_constraint: null
          beta_initializer:
            class_name: Zeros
            config: {}
          beta_regularizer: null
          center: true
          epsilon: 1.001e-05
          gamma_constraint: null
          gamma_initializer:
            class_name: Ones
            config: {}
          gamma_regularizer: null
          momentum: 0.99
          moving_mean_initializer:
            class_name: Zeros
            config: {}
          moving_variance_initializer:
            class_name: Ones
            config: {}
          name: conv3_block5_0_bn
          scale: true
          trainable: *id004
        inbound_nodes:
        - - - conv3_block4_concat
            - 0
            - 0
            - {}
        name: conv3_block5_0_bn
      - class_name: Activation
        config:
          activation: relu
          name: conv3_block5_0_relu
          trainable: *id004
        inbound_nodes:
        - - - conv3_block5_0_bn
            - 0
            - 0
            - {}
        name: conv3_block5_0_relu
      - class_name: Conv2D
        config:
          activation: linear
          activity_regularizer: null
          bias_constraint: null
          bias_initializer:
            class_name: Zeros
            config: {}
          bias_regularizer: null
          data_format: channels_last
          dilation_rate: *id001
          filters: 128
          kernel_constraint: null
          kernel_initializer:
            class_name: VarianceScaling
            config: {distribution: uniform, mode: fan_avg, scale: 1.0, seed: null}
          kernel_regularizer: null
          kernel_size: !!python/tuple [1, 1]
          name: conv3_block5_1_conv
          padding: valid
          strides: *id005
          trainable: *id004
          use_bias: false
        inbound_nodes:
        - - - conv3_block5_0_relu
            - 0
            - 0
            - {}
        name: conv3_block5_1_conv
      - class_name: BatchNormalization
        config:
          axis: 3
          beta_constraint: null
          beta_initializer:
            class_name: Zeros
            config: {}
          beta_regularizer: null
          center: true
          epsilon: 1.001e-05
          gamma_constraint: null
          gamma_initializer:
            class_name: Ones
            config: {}
          gamma_regularizer: null
          momentum: 0.99
          moving_mean_initializer:
            class_name: Zeros
            config: {}
          moving_variance_initializer:
            class_name: Ones
            config: {}
          name: conv3_block5_1_bn
          scale: true
          trainable: *id004
        inbound_nodes:
        - - - conv3_block5_1_conv
            - 0
            - 0
            - {}
        name: conv3_block5_1_bn
      - class_name: Activation
        config:
          activation: relu
          name: conv3_block5_1_relu
          trainable: *id004
        inbound_nodes:
        - - - conv3_block5_1_bn
            - 0
            - 0
            - {}
        name: conv3_block5_1_relu
      - class_name: Conv2D
        config:
          activation: linear
          activity_regularizer: null
          bias_constraint: null
          bias_initializer:
            class_name: Zeros
            config: {}
          bias_regularizer: null
          data_format: channels_last
          dilation_rate: *id001
          filters: 32
          kernel_constraint: null
          kernel_initializer:
            class_name: VarianceScaling
            config: {distribution: uniform, mode: fan_avg, scale: 1.0, seed: null}
          kernel_regularizer: null
          kernel_size: !!python/tuple [3, 3]
          name: conv3_block5_2_conv
          padding: same
          strides: *id005
          trainable: *id004
          use_bias: false
        inbound_nodes:
        - - - conv3_block5_1_relu
            - 0
            - 0
            - {}
        name: conv3_block5_2_conv
      - class_name: Concatenate
        config:
          axis: 3
          name: conv3_block5_concat
          trainable: *id004
        inbound_nodes:
        - - - conv3_block4_concat
            - 0
            - 0
            - &id016 {}
          - - conv3_block5_2_conv
            - 0
            - 0
            - *id016
        name: conv3_block5_concat
      - class_name: BatchNormalization
        config:
          axis: 3
          beta_constraint: null
          beta_initializer:
            class_name: Zeros
            config: {}
          beta_regularizer: null
          center: true
          epsilon: 1.001e-05
          gamma_constraint: null
          gamma_initializer:
            class_name: Ones
            config: {}
          gamma_regularizer: null
          momentum: 0.99
          moving_mean_initializer:
            class_name: Zeros
            config: {}
          moving_variance_initializer:
            class_name: Ones
            config: {}
          name: conv3_block6_0_bn
          scale: true
          trainable: *id004
        inbound_nodes:
        - - - conv3_block5_concat
            - 0
            - 0
            - {}
        name: conv3_block6_0_bn
      - class_name: Activation
        config:
          activation: relu
          name: conv3_block6_0_relu
          trainable: *id004
        inbound_nodes:
        - - - conv3_block6_0_bn
            - 0
            - 0
            - {}
        name: conv3_block6_0_relu
      - class_name: Conv2D
        config:
          activation: linear
          activity_regularizer: null
          bias_constraint: null
          bias_initializer:
            class_name: Zeros
            config: {}
          bias_regularizer: null
          data_format: channels_last
          dilation_rate: *id001
          filters: 128
          kernel_constraint: null
          kernel_initializer:
            class_name: VarianceScaling
            config: {distribution: uniform, mode: fan_avg, scale: 1.0, seed: null}
          kernel_regularizer: null
          kernel_size: !!python/tuple [1, 1]
          name: conv3_block6_1_conv
          padding: valid
          strides: *id005
          trainable: *id004
          use_bias: false
        inbound_nodes:
        - - - conv3_block6_0_relu
            - 0
            - 0
            - {}
        name: conv3_block6_1_conv
      - class_name: BatchNormalization
        config:
          axis: 3
          beta_constraint: null
          beta_initializer:
            class_name: Zeros
            config: {}
          beta_regularizer: null
          center: true
          epsilon: 1.001e-05
          gamma_constraint: null
          gamma_initializer:
            class_name: Ones
            config: {}
          gamma_regularizer: null
          momentum: 0.99
          moving_mean_initializer:
            class_name: Zeros
            config: {}
          moving_variance_initializer:
            class_name: Ones
            config: {}
          name: conv3_block6_1_bn
          scale: true
          trainable: *id004
        inbound_nodes:
        - - - conv3_block6_1_conv
            - 0
            - 0
            - {}
        name: conv3_block6_1_bn
      - class_name: Activation
        config:
          activation: relu
          name: conv3_block6_1_relu
          trainable: *id004
        inbound_nodes:
        - - - conv3_block6_1_bn
            - 0
            - 0
            - {}
        name: conv3_block6_1_relu
      - class_name: Conv2D
        config:
          activation: linear
          activity_regularizer: null
          bias_constraint: null
          bias_initializer:
            class_name: Zeros
            config: {}
          bias_regularizer: null
          data_format: channels_last
          dilation_rate: *id001
          filters: 32
          kernel_constraint: null
          kernel_initializer:
            class_name: VarianceScaling
            config: {distribution: uniform, mode: fan_avg, scale: 1.0, seed: null}
          kernel_regularizer: null
          kernel_size: !!python/tuple [3, 3]
          name: conv3_block6_2_conv
          padding: same
          strides: *id005
          trainable: *id004
          use_bias: false
        inbound_nodes:
        - - - conv3_block6_1_relu
            - 0
            - 0
            - {}
        name: conv3_block6_2_conv
      - class_name: Concatenate
        config:
          axis: 3
          name: conv3_block6_concat
          trainable: *id004
        inbound_nodes:
        - - - conv3_block5_concat
            - 0
            - 0
            - &id017 {}
          - - conv3_block6_2_conv
            - 0
            - 0
            - *id017
        name: conv3_block6_concat
      - class_name: BatchNormalization
        config:
          axis: 3
          beta_constraint: null
          beta_initializer:
            class_name: Zeros
            config: {}
          beta_regularizer: null
          center: true
          epsilon: 1.001e-05
          gamma_constraint: null
          gamma_initializer:
            class_name: Ones
            config: {}
          gamma_regularizer: null
          momentum: 0.99
          moving_mean_initializer:
            class_name: Zeros
            config: {}
          moving_variance_initializer:
            class_name: Ones
            config: {}
          name: conv3_block7_0_bn
          scale: true
          trainable: *id004
        inbound_nodes:
        - - - conv3_block6_concat
            - 0
            - 0
            - {}
        name: conv3_block7_0_bn
      - class_name: Activation
        config:
          activation: relu
          name: conv3_block7_0_relu
          trainable: *id004
        inbound_nodes:
        - - - conv3_block7_0_bn
            - 0
            - 0
            - {}
        name: conv3_block7_0_relu
      - class_name: Conv2D
        config:
          activation: linear
          activity_regularizer: null
          bias_constraint: null
          bias_initializer:
            class_name: Zeros
            config: {}
          bias_regularizer: null
          data_format: channels_last
          dilation_rate: *id001
          filters: 128
          kernel_constraint: null
          kernel_initializer:
            class_name: VarianceScaling
            config: {distribution: uniform, mode: fan_avg, scale: 1.0, seed: null}
          kernel_regularizer: null
          kernel_size: !!python/tuple [1, 1]
          name: conv3_block7_1_conv
          padding: valid
          strides: *id005
          trainable: *id004
          use_bias: false
        inbound_nodes:
        - - - conv3_block7_0_relu
            - 0
            - 0
            - {}
        name: conv3_block7_1_conv
      - class_name: BatchNormalization
        config:
          axis: 3
          beta_constraint: null
          beta_initializer:
            class_name: Zeros
            config: {}
          beta_regularizer: null
          center: true
          epsilon: 1.001e-05
          gamma_constraint: null
          gamma_initializer:
            class_name: Ones
            config: {}
          gamma_regularizer: null
          momentum: 0.99
          moving_mean_initializer:
            class_name: Zeros
            config: {}
          moving_variance_initializer:
            class_name: Ones
            config: {}
          name: conv3_block7_1_bn
          scale: true
          trainable: *id004
        inbound_nodes:
        - - - conv3_block7_1_conv
            - 0
            - 0
            - {}
        name: conv3_block7_1_bn
      - class_name: Activation
        config:
          activation: relu
          name: conv3_block7_1_relu
          trainable: *id004
        inbound_nodes:
        - - - conv3_block7_1_bn
            - 0
            - 0
            - {}
        name: conv3_block7_1_relu
      - class_name: Conv2D
        config:
          activation: linear
          activity_regularizer: null
          bias_constraint: null
          bias_initializer:
            class_name: Zeros
            config: {}
          bias_regularizer: null
          data_format: channels_last
          dilation_rate: *id001
          filters: 32
          kernel_constraint: null
          kernel_initializer:
            class_name: VarianceScaling
            config: {distribution: uniform, mode: fan_avg, scale: 1.0, seed: null}
          kernel_regularizer: null
          kernel_size: !!python/tuple [3, 3]
          name: conv3_block7_2_conv
          padding: same
          strides: *id005
          trainable: *id004
          use_bias: false
        inbound_nodes:
        - - - conv3_block7_1_relu
            - 0
            - 0
            - {}
        name: conv3_block7_2_conv
      - class_name: Concatenate
        config:
          axis: 3
          name: conv3_block7_concat
          trainable: *id004
        inbound_nodes:
        - - - conv3_block6_concat
            - 0
            - 0
            - &id018 {}
          - - conv3_block7_2_conv
            - 0
            - 0
            - *id018
        name: conv3_block7_concat
      - class_name: BatchNormalization
        config:
          axis: 3
          beta_constraint: null
          beta_initializer:
            class_name: Zeros
            config: {}
          beta_regularizer: null
          center: true
          epsilon: 1.001e-05
          gamma_constraint: null
          gamma_initializer:
            class_name: Ones
            config: {}
          gamma_regularizer: null
          momentum: 0.99
          moving_mean_initializer:
            class_name: Zeros
            config: {}
          moving_variance_initializer:
            class_name: Ones
            config: {}
          name: conv3_block8_0_bn
          scale: true
          trainable: *id004
        inbound_nodes:
        - - - conv3_block7_concat
            - 0
            - 0
            - {}
        name: conv3_block8_0_bn
      - class_name: Activation
        config:
          activation: relu
          name: conv3_block8_0_relu
          trainable: *id004
        inbound_nodes:
        - - - conv3_block8_0_bn
            - 0
            - 0
            - {}
        name: conv3_block8_0_relu
      - class_name: Conv2D
        config:
          activation: linear
          activity_regularizer: null
          bias_constraint: null
          bias_initializer:
            class_name: Zeros
            config: {}
          bias_regularizer: null
          data_format: channels_last
          dilation_rate: *id001
          filters: 128
          kernel_constraint: null
          kernel_initializer:
            class_name: VarianceScaling
            config: {distribution: uniform, mode: fan_avg, scale: 1.0, seed: null}
          kernel_regularizer: null
          kernel_size: !!python/tuple [1, 1]
          name: conv3_block8_1_conv
          padding: valid
          strides: *id005
          trainable: *id004
          use_bias: false
        inbound_nodes:
        - - - conv3_block8_0_relu
            - 0
            - 0
            - {}
        name: conv3_block8_1_conv
      - class_name: BatchNormalization
        config:
          axis: 3
          beta_constraint: null
          beta_initializer:
            class_name: Zeros
            config: {}
          beta_regularizer: null
          center: true
          epsilon: 1.001e-05
          gamma_constraint: null
          gamma_initializer:
            class_name: Ones
            config: {}
          gamma_regularizer: null
          momentum: 0.99
          moving_mean_initializer:
            class_name: Zeros
            config: {}
          moving_variance_initializer:
            class_name: Ones
            config: {}
          name: conv3_block8_1_bn
          scale: true
          trainable: *id004
        inbound_nodes:
        - - - conv3_block8_1_conv
            - 0
            - 0
            - {}
        name: conv3_block8_1_bn
      - class_name: Activation
        config:
          activation: relu
          name: conv3_block8_1_relu
          trainable: *id004
        inbound_nodes:
        - - - conv3_block8_1_bn
            - 0
            - 0
            - {}
        name: conv3_block8_1_relu
      - class_name: Conv2D
        config:
          activation: linear
          activity_regularizer: null
          bias_constraint: null
          bias_initializer:
            class_name: Zeros
            config: {}
          bias_regularizer: null
          data_format: channels_last
          dilation_rate: *id001
          filters: 32
          kernel_constraint: null
          kernel_initializer:
            class_name: VarianceScaling
            config: {distribution: uniform, mode: fan_avg, scale: 1.0, seed: null}
          kernel_regularizer: null
          kernel_size: !!python/tuple [3, 3]
          name: conv3_block8_2_conv
          padding: same
          strides: *id005
          trainable: *id004
          use_bias: false
        inbound_nodes:
        - - - conv3_block8_1_relu
            - 0
            - 0
            - {}
        name: conv3_block8_2_conv
      - class_name: Concatenate
        config:
          axis: 3
          name: conv3_block8_concat
          trainable: *id004
        inbound_nodes:
        - - - conv3_block7_concat
            - 0
            - 0
            - &id019 {}
          - - conv3_block8_2_conv
            - 0
            - 0
            - *id019
        name: conv3_block8_concat
      - class_name: BatchNormalization
        config:
          axis: 3
          beta_constraint: null
          beta_initializer:
            class_name: Zeros
            config: {}
          beta_regularizer: null
          center: true
          epsilon: 1.001e-05
          gamma_constraint: null
          gamma_initializer:
            class_name: Ones
            config: {}
          gamma_regularizer: null
          momentum: 0.99
          moving_mean_initializer:
            class_name: Zeros
            config: {}
          moving_variance_initializer:
            class_name: Ones
            config: {}
          name: conv3_block9_0_bn
          scale: true
          trainable: *id004
        inbound_nodes:
        - - - conv3_block8_concat
            - 0
            - 0
            - {}
        name: conv3_block9_0_bn
      - class_name: Activation
        config:
          activation: relu
          name: conv3_block9_0_relu
          trainable: *id004
        inbound_nodes:
        - - - conv3_block9_0_bn
            - 0
            - 0
            - {}
        name: conv3_block9_0_relu
      - class_name: Conv2D
        config:
          activation: linear
          activity_regularizer: null
          bias_constraint: null
          bias_initializer:
            class_name: Zeros
            config: {}
          bias_regularizer: null
          data_format: channels_last
          dilation_rate: *id001
          filters: 128
          kernel_constraint: null
          kernel_initializer:
            class_name: VarianceScaling
            config: {distribution: uniform, mode: fan_avg, scale: 1.0, seed: null}
          kernel_regularizer: null
          kernel_size: !!python/tuple [1, 1]
          name: conv3_block9_1_conv
          padding: valid
          strides: *id005
          trainable: *id004
          use_bias: false
        inbound_nodes:
        - - - conv3_block9_0_relu
            - 0
            - 0
            - {}
        name: conv3_block9_1_conv
      - class_name: BatchNormalization
        config:
          axis: 3
          beta_constraint: null
          beta_initializer:
            class_name: Zeros
            config: {}
          beta_regularizer: null
          center: true
          epsilon: 1.001e-05
          gamma_constraint: null
          gamma_initializer:
            class_name: Ones
            config: {}
          gamma_regularizer: null
          momentum: 0.99
          moving_mean_initializer:
            class_name: Zeros
            config: {}
          moving_variance_initializer:
            class_name: Ones
            config: {}
          name: conv3_block9_1_bn
          scale: true
          trainable: *id004
        inbound_nodes:
        - - - conv3_block9_1_conv
            - 0
            - 0
            - {}
        name: conv3_block9_1_bn
      - class_name: Activation
        config:
          activation: relu
          name: conv3_block9_1_relu
          trainable: *id004
        inbound_nodes:
        - - - conv3_block9_1_bn
            - 0
            - 0
            - {}
        name: conv3_block9_1_relu
      - class_name: Conv2D
        config:
          activation: linear
          activity_regularizer: null
          bias_constraint: null
          bias_initializer:
            class_name: Zeros
            config: {}
          bias_regularizer: null
          data_format: channels_last
          dilation_rate: *id001
          filters: 32
          kernel_constraint: null
          kernel_initializer:
            class_name: VarianceScaling
            config: {distribution: uniform, mode: fan_avg, scale: 1.0, seed: null}
          kernel_regularizer: null
          kernel_size: !!python/tuple [3, 3]
          name: conv3_block9_2_conv
          padding: same
          strides: *id005
          trainable: *id004
          use_bias: false
        inbound_nodes:
        - - - conv3_block9_1_relu
            - 0
            - 0
            - {}
        name: conv3_block9_2_conv
      - class_name: Concatenate
        config:
          axis: 3
          name: conv3_block9_concat
          trainable: *id004
        inbound_nodes:
        - - - conv3_block8_concat
            - 0
            - 0
            - &id020 {}
          - - conv3_block9_2_conv
            - 0
            - 0
            - *id020
        name: conv3_block9_concat
      - class_name: BatchNormalization
        config:
          axis: 3
          beta_constraint: null
          beta_initializer:
            class_name: Zeros
            config: {}
          beta_regularizer: null
          center: true
          epsilon: 1.001e-05
          gamma_constraint: null
          gamma_initializer:
            class_name: Ones
            config: {}
          gamma_regularizer: null
          momentum: 0.99
          moving_mean_initializer:
            class_name: Zeros
            config: {}
          moving_variance_initializer:
            class_name: Ones
            config: {}
          name: conv3_block10_0_bn
          scale: true
          trainable: *id004
        inbound_nodes:
        - - - conv3_block9_concat
            - 0
            - 0
            - {}
        name: conv3_block10_0_bn
      - class_name: Activation
        config:
          activation: relu
          name: conv3_block10_0_relu
          trainable: *id004
        inbound_nodes:
        - - - conv3_block10_0_bn
            - 0
            - 0
            - {}
        name: conv3_block10_0_relu
      - class_name: Conv2D
        config:
          activation: linear
          activity_regularizer: null
          bias_constraint: null
          bias_initializer:
            class_name: Zeros
            config: {}
          bias_regularizer: null
          data_format: channels_last
          dilation_rate: *id001
          filters: 128
          kernel_constraint: null
          kernel_initializer:
            class_name: VarianceScaling
            config: {distribution: uniform, mode: fan_avg, scale: 1.0, seed: null}
          kernel_regularizer: null
          kernel_size: !!python/tuple [1, 1]
          name: conv3_block10_1_conv
          padding: valid
          strides: *id005
          trainable: *id004
          use_bias: false
        inbound_nodes:
        - - - conv3_block10_0_relu
            - 0
            - 0
            - {}
        name: conv3_block10_1_conv
      - class_name: BatchNormalization
        config:
          axis: 3
          beta_constraint: null
          beta_initializer:
            class_name: Zeros
            config: {}
          beta_regularizer: null
          center: true
          epsilon: 1.001e-05
          gamma_constraint: null
          gamma_initializer:
            class_name: Ones
            config: {}
          gamma_regularizer: null
          momentum: 0.99
          moving_mean_initializer:
            class_name: Zeros
            config: {}
          moving_variance_initializer:
            class_name: Ones
            config: {}
          name: conv3_block10_1_bn
          scale: true
          trainable: *id004
        inbound_nodes:
        - - - conv3_block10_1_conv
            - 0
            - 0
            - {}
        name: conv3_block10_1_bn
      - class_name: Activation
        config:
          activation: relu
          name: conv3_block10_1_relu
          trainable: *id004
        inbound_nodes:
        - - - conv3_block10_1_bn
            - 0
            - 0
            - {}
        name: conv3_block10_1_relu
      - class_name: Conv2D
        config:
          activation: linear
          activity_regularizer: null
          bias_constraint: null
          bias_initializer:
            class_name: Zeros
            config: {}
          bias_regularizer: null
          data_format: channels_last
          dilation_rate: *id001
          filters: 32
          kernel_constraint: null
          kernel_initializer:
            class_name: VarianceScaling
            config: {distribution: uniform, mode: fan_avg, scale: 1.0, seed: null}
          kernel_regularizer: null
          kernel_size: !!python/tuple [3, 3]
          name: conv3_block10_2_conv
          padding: same
          strides: *id005
          trainable: *id004
          use_bias: false
        inbound_nodes:
        - - - conv3_block10_1_relu
            - 0
            - 0
            - {}
        name: conv3_block10_2_conv
      - class_name: Concatenate
        config:
          axis: 3
          name: conv3_block10_concat
          trainable: *id004
        inbound_nodes:
        - - - conv3_block9_concat
            - 0
            - 0
            - &id021 {}
          - - conv3_block10_2_conv
            - 0
            - 0
            - *id021
        name: conv3_block10_concat
      - class_name: BatchNormalization
        config:
          axis: 3
          beta_constraint: null
          beta_initializer:
            class_name: Zeros
            config: {}
          beta_regularizer: null
          center: true
          epsilon: 1.001e-05
          gamma_constraint: null
          gamma_initializer:
            class_name: Ones
            config: {}
          gamma_regularizer: null
          momentum: 0.99
          moving_mean_initializer:
            class_name: Zeros
            config: {}
          moving_variance_initializer:
            class_name: Ones
            config: {}
          name: conv3_block11_0_bn
          scale: true
          trainable: *id004
        inbound_nodes:
        - - - conv3_block10_concat
            - 0
            - 0
            - {}
        name: conv3_block11_0_bn
      - class_name: Activation
        config:
          activation: relu
          name: conv3_block11_0_relu
          trainable: *id004
        inbound_nodes:
        - - - conv3_block11_0_bn
            - 0
            - 0
            - {}
        name: conv3_block11_0_relu
      - class_name: Conv2D
        config:
          activation: linear
          activity_regularizer: null
          bias_constraint: null
          bias_initializer:
            class_name: Zeros
            config: {}
          bias_regularizer: null
          data_format: channels_last
          dilation_rate: *id001
          filters: 128
          kernel_constraint: null
          kernel_initializer:
            class_name: VarianceScaling
            config: {distribution: uniform, mode: fan_avg, scale: 1.0, seed: null}
          kernel_regularizer: null
          kernel_size: !!python/tuple [1, 1]
          name: conv3_block11_1_conv
          padding: valid
          strides: *id005
          trainable: *id004
          use_bias: false
        inbound_nodes:
        - - - conv3_block11_0_relu
            - 0
            - 0
            - {}
        name: conv3_block11_1_conv
      - class_name: BatchNormalization
        config:
          axis: 3
          beta_constraint: null
          beta_initializer:
            class_name: Zeros
            config: {}
          beta_regularizer: null
          center: true
          epsilon: 1.001e-05
          gamma_constraint: null
          gamma_initializer:
            class_name: Ones
            config: {}
          gamma_regularizer: null
          momentum: 0.99
          moving_mean_initializer:
            class_name: Zeros
            config: {}
          moving_variance_initializer:
            class_name: Ones
            config: {}
          name: conv3_block11_1_bn
          scale: true
          trainable: *id004
        inbound_nodes:
        - - - conv3_block11_1_conv
            - 0
            - 0
            - {}
        name: conv3_block11_1_bn
      - class_name: Activation
        config:
          activation: relu
          name: conv3_block11_1_relu
          trainable: *id004
        inbound_nodes:
        - - - conv3_block11_1_bn
            - 0
            - 0
            - {}
        name: conv3_block11_1_relu
      - class_name: Conv2D
        config:
          activation: linear
          activity_regularizer: null
          bias_constraint: null
          bias_initializer:
            class_name: Zeros
            config: {}
          bias_regularizer: null
          data_format: channels_last
          dilation_rate: *id001
          filters: 32
          kernel_constraint: null
          kernel_initializer:
            class_name: VarianceScaling
            config: {distribution: uniform, mode: fan_avg, scale: 1.0, seed: null}
          kernel_regularizer: null
          kernel_size: !!python/tuple [3, 3]
          name: conv3_block11_2_conv
          padding: same
          strides: *id005
          trainable: *id004
          use_bias: false
        inbound_nodes:
        - - - conv3_block11_1_relu
            - 0
            - 0
            - {}
        name: conv3_block11_2_conv
      - class_name: Concatenate
        config:
          axis: 3
          name: conv3_block11_concat
          trainable: *id004
        inbound_nodes:
        - - - conv3_block10_concat
            - 0
            - 0
            - &id022 {}
          - - conv3_block11_2_conv
            - 0
            - 0
            - *id022
        name: conv3_block11_concat
      - class_name: BatchNormalization
        config:
          axis: 3
          beta_constraint: null
          beta_initializer:
            class_name: Zeros
            config: {}
          beta_regularizer: null
          center: true
          epsilon: 1.001e-05
          gamma_constraint: null
          gamma_initializer:
            class_name: Ones
            config: {}
          gamma_regularizer: null
          momentum: 0.99
          moving_mean_initializer:
            class_name: Zeros
            config: {}
          moving_variance_initializer:
            class_name: Ones
            config: {}
          name: conv3_block12_0_bn
          scale: true
          trainable: *id004
        inbound_nodes:
        - - - conv3_block11_concat
            - 0
            - 0
            - {}
        name: conv3_block12_0_bn
      - class_name: Activation
        config:
          activation: relu
          name: conv3_block12_0_relu
          trainable: *id004
        inbound_nodes:
        - - - conv3_block12_0_bn
            - 0
            - 0
            - {}
        name: conv3_block12_0_relu
      - class_name: Conv2D
        config:
          activation: linear
          activity_regularizer: null
          bias_constraint: null
          bias_initializer:
            class_name: Zeros
            config: {}
          bias_regularizer: null
          data_format: channels_last
          dilation_rate: *id001
          filters: 128
          kernel_constraint: null
          kernel_initializer:
            class_name: VarianceScaling
            config: {distribution: uniform, mode: fan_avg, scale: 1.0, seed: null}
          kernel_regularizer: null
          kernel_size: !!python/tuple [1, 1]
          name: conv3_block12_1_conv
          padding: valid
          strides: *id005
          trainable: *id004
          use_bias: false
        inbound_nodes:
        - - - conv3_block12_0_relu
            - 0
            - 0
            - {}
        name: conv3_block12_1_conv
      - class_name: BatchNormalization
        config:
          axis: 3
          beta_constraint: null
          beta_initializer:
            class_name: Zeros
            config: {}
          beta_regularizer: null
          center: true
          epsilon: 1.001e-05
          gamma_constraint: null
          gamma_initializer:
            class_name: Ones
            config: {}
          gamma_regularizer: null
          momentum: 0.99
          moving_mean_initializer:
            class_name: Zeros
            config: {}
          moving_variance_initializer:
            class_name: Ones
            config: {}
          name: conv3_block12_1_bn
          scale: true
          trainable: *id004
        inbound_nodes:
        - - - conv3_block12_1_conv
            - 0
            - 0
            - {}
        name: conv3_block12_1_bn
      - class_name: Activation
        config:
          activation: relu
          name: conv3_block12_1_relu
          trainable: *id004
        inbound_nodes:
        - - - conv3_block12_1_bn
            - 0
            - 0
            - {}
        name: conv3_block12_1_relu
      - class_name: Conv2D
        config:
          activation: linear
          activity_regularizer: null
          bias_constraint: null
          bias_initializer:
            class_name: Zeros
            config: {}
          bias_regularizer: null
          data_format: channels_last
          dilation_rate: *id001
          filters: 32
          kernel_constraint: null
          kernel_initializer:
            class_name: VarianceScaling
            config: {distribution: uniform, mode: fan_avg, scale: 1.0, seed: null}
          kernel_regularizer: null
          kernel_size: !!python/tuple [3, 3]
          name: conv3_block12_2_conv
          padding: same
          strides: *id005
          trainable: *id004
          use_bias: false
        inbound_nodes:
        - - - conv3_block12_1_relu
            - 0
            - 0
            - {}
        name: conv3_block12_2_conv
      - class_name: Concatenate
        config:
          axis: 3
          name: conv3_block12_concat
          trainable: *id004
        inbound_nodes:
        - - - conv3_block11_concat
            - 0
            - 0
            - &id023 {}
          - - conv3_block12_2_conv
            - 0
            - 0
            - *id023
        name: conv3_block12_concat
      - class_name: BatchNormalization
        config:
          axis: 3
          beta_constraint: null
          beta_initializer:
            class_name: Zeros
            config: {}
          beta_regularizer: null
          center: true
          epsilon: 1.001e-05
          gamma_constraint: null
          gamma_initializer:
            class_name: Ones
            config: {}
          gamma_regularizer: null
          momentum: 0.99
          moving_mean_initializer:
            class_name: Zeros
            config: {}
          moving_variance_initializer:
            class_name: Ones
            config: {}
          name: pool3_bn
          scale: true
          trainable: *id004
        inbound_nodes:
        - - - conv3_block12_concat
            - 0
            - 0
            - {}
        name: pool3_bn
      - class_name: Activation
        config:
          activation: relu
          name: pool3_relu
          trainable: *id004
        inbound_nodes:
        - - - pool3_bn
            - 0
            - 0
            - {}
        name: pool3_relu
      - class_name: Conv2D
        config:
          activation: linear
          activity_regularizer: null
          bias_constraint: null
          bias_initializer:
            class_name: Zeros
            config: {}
          bias_regularizer: null
          data_format: channels_last
          dilation_rate: *id001
          filters: 256
          kernel_constraint: null
          kernel_initializer:
            class_name: VarianceScaling
            config: {distribution: uniform, mode: fan_avg, scale: 1.0, seed: null}
          kernel_regularizer: null
          kernel_size: !!python/tuple [1, 1]
          name: pool3_conv
          padding: valid
          strides: *id005
          trainable: *id004
          use_bias: false
        inbound_nodes:
        - - - pool3_relu
            - 0
            - 0
            - {}
        name: pool3_conv
      - class_name: AveragePooling2D
        config:
          data_format: channels_last
          name: pool3_pool
          padding: valid
          pool_size: !!python/tuple [2, 2]
          strides: !!python/tuple [2, 2]
          trainable: *id004
        inbound_nodes:
        - - - pool3_conv
            - 0
            - 0
            - {}
        name: pool3_pool
      - class_name: BatchNormalization
        config:
          axis: 3
          beta_constraint: null
          beta_initializer:
            class_name: Zeros
            config: {}
          beta_regularizer: null
          center: true
          epsilon: 1.001e-05
          gamma_constraint: null
          gamma_initializer:
            class_name: Ones
            config: {}
          gamma_regularizer: null
          momentum: 0.99
          moving_mean_initializer:
            class_name: Zeros
            config: {}
          moving_variance_initializer:
            class_name: Ones
            config: {}
          name: conv4_block1_0_bn
          scale: true
          trainable: *id004
        inbound_nodes:
        - - - pool3_pool
            - 0
            - 0
            - {}
        name: conv4_block1_0_bn
      - class_name: Activation
        config:
          activation: relu
          name: conv4_block1_0_relu
          trainable: *id004
        inbound_nodes:
        - - - conv4_block1_0_bn
            - 0
            - 0
            - {}
        name: conv4_block1_0_relu
      - class_name: Conv2D
        config:
          activation: linear
          activity_regularizer: null
          bias_constraint: null
          bias_initializer:
            class_name: Zeros
            config: {}
          bias_regularizer: null
          data_format: channels_last
          dilation_rate: *id001
          filters: 128
          kernel_constraint: null
          kernel_initializer:
            class_name: VarianceScaling
            config: {distribution: uniform, mode: fan_avg, scale: 1.0, seed: null}
          kernel_regularizer: null
          kernel_size: !!python/tuple [1, 1]
          name: conv4_block1_1_conv
          padding: valid
          strides: *id005
          trainable: *id004
          use_bias: false
        inbound_nodes:
        - - - conv4_block1_0_relu
            - 0
            - 0
            - {}
        name: conv4_block1_1_conv
      - class_name: BatchNormalization
        config:
          axis: 3
          beta_constraint: null
          beta_initializer:
            class_name: Zeros
            config: {}
          beta_regularizer: null
          center: true
          epsilon: 1.001e-05
          gamma_constraint: null
          gamma_initializer:
            class_name: Ones
            config: {}
          gamma_regularizer: null
          momentum: 0.99
          moving_mean_initializer:
            class_name: Zeros
            config: {}
          moving_variance_initializer:
            class_name: Ones
            config: {}
          name: conv4_block1_1_bn
          scale: true
          trainable: *id004
        inbound_nodes:
        - - - conv4_block1_1_conv
            - 0
            - 0
            - {}
        name: conv4_block1_1_bn
      - class_name: Activation
        config:
          activation: relu
          name: conv4_block1_1_relu
          trainable: *id004
        inbound_nodes:
        - - - conv4_block1_1_bn
            - 0
            - 0
            - {}
        name: conv4_block1_1_relu
      - class_name: Conv2D
        config:
          activation: linear
          activity_regularizer: null
          bias_constraint: null
          bias_initializer:
            class_name: Zeros
            config: {}
          bias_regularizer: null
          data_format: channels_last
          dilation_rate: *id001
          filters: 32
          kernel_constraint: null
          kernel_initializer:
            class_name: VarianceScaling
            config: {distribution: uniform, mode: fan_avg, scale: 1.0, seed: null}
          kernel_regularizer: null
          kernel_size: !!python/tuple [3, 3]
          name: conv4_block1_2_conv
          padding: same
          strides: *id005
          trainable: *id004
          use_bias: false
        inbound_nodes:
        - - - conv4_block1_1_relu
            - 0
            - 0
            - {}
        name: conv4_block1_2_conv
      - class_name: Concatenate
        config:
          axis: 3
          name: conv4_block1_concat
          trainable: *id004
        inbound_nodes:
        - - - pool3_pool
            - 0
            - 0
            - &id024 {}
          - - conv4_block1_2_conv
            - 0
            - 0
            - *id024
        name: conv4_block1_concat
      - class_name: BatchNormalization
        config:
          axis: 3
          beta_constraint: null
          beta_initializer:
            class_name: Zeros
            config: {}
          beta_regularizer: null
          center: true
          epsilon: 1.001e-05
          gamma_constraint: null
          gamma_initializer:
            class_name: Ones
            config: {}
          gamma_regularizer: null
          momentum: 0.99
          moving_mean_initializer:
            class_name: Zeros
            config: {}
          moving_variance_initializer:
            class_name: Ones
            config: {}
          name: conv4_block2_0_bn
          scale: true
          trainable: *id004
        inbound_nodes:
        - - - conv4_block1_concat
            - 0
            - 0
            - {}
        name: conv4_block2_0_bn
      - class_name: Activation
        config:
          activation: relu
          name: conv4_block2_0_relu
          trainable: *id004
        inbound_nodes:
        - - - conv4_block2_0_bn
            - 0
            - 0
            - {}
        name: conv4_block2_0_relu
      - class_name: Conv2D
        config:
          activation: linear
          activity_regularizer: null
          bias_constraint: null
          bias_initializer:
            class_name: Zeros
            config: {}
          bias_regularizer: null
          data_format: channels_last
          dilation_rate: *id001
          filters: 128
          kernel_constraint: null
          kernel_initializer:
            class_name: VarianceScaling
            config: {distribution: uniform, mode: fan_avg, scale: 1.0, seed: null}
          kernel_regularizer: null
          kernel_size: !!python/tuple [1, 1]
          name: conv4_block2_1_conv
          padding: valid
          strides: *id005
          trainable: *id004
          use_bias: false
        inbound_nodes:
        - - - conv4_block2_0_relu
            - 0
            - 0
            - {}
        name: conv4_block2_1_conv
      - class_name: BatchNormalization
        config:
          axis: 3
          beta_constraint: null
          beta_initializer:
            class_name: Zeros
            config: {}
          beta_regularizer: null
          center: true
          epsilon: 1.001e-05
          gamma_constraint: null
          gamma_initializer:
            class_name: Ones
            config: {}
          gamma_regularizer: null
          momentum: 0.99
          moving_mean_initializer:
            class_name: Zeros
            config: {}
          moving_variance_initializer:
            class_name: Ones
            config: {}
          name: conv4_block2_1_bn
          scale: true
          trainable: *id004
        inbound_nodes:
        - - - conv4_block2_1_conv
            - 0
            - 0
            - {}
        name: conv4_block2_1_bn
      - class_name: Activation
        config:
          activation: relu
          name: conv4_block2_1_relu
          trainable: *id004
        inbound_nodes:
        - - - conv4_block2_1_bn
            - 0
            - 0
            - {}
        name: conv4_block2_1_relu
      - class_name: Conv2D
        config:
          activation: linear
          activity_regularizer: null
          bias_constraint: null
          bias_initializer:
            class_name: Zeros
            config: {}
          bias_regularizer: null
          data_format: channels_last
          dilation_rate: *id001
          filters: 32
          kernel_constraint: null
          kernel_initializer:
            class_name: VarianceScaling
            config: {distribution: uniform, mode: fan_avg, scale: 1.0, seed: null}
          kernel_regularizer: null
          kernel_size: !!python/tuple [3, 3]
          name: conv4_block2_2_conv
          padding: same
          strides: *id005
          trainable: *id004
          use_bias: false
        inbound_nodes:
        - - - conv4_block2_1_relu
            - 0
            - 0
            - {}
        name: conv4_block2_2_conv
      - class_name: Concatenate
        config:
          axis: 3
          name: conv4_block2_concat
          trainable: *id004
        inbound_nodes:
        - - - conv4_block1_concat
            - 0
            - 0
            - &id025 {}
          - - conv4_block2_2_conv
            - 0
            - 0
            - *id025
        name: conv4_block2_concat
      - class_name: BatchNormalization
        config:
          axis: 3
          beta_constraint: null
          beta_initializer:
            class_name: Zeros
            config: {}
          beta_regularizer: null
          center: true
          epsilon: 1.001e-05
          gamma_constraint: null
          gamma_initializer:
            class_name: Ones
            config: {}
          gamma_regularizer: null
          momentum: 0.99
          moving_mean_initializer:
            class_name: Zeros
            config: {}
          moving_variance_initializer:
            class_name: Ones
            config: {}
          name: conv4_block3_0_bn
          scale: true
          trainable: *id004
        inbound_nodes:
        - - - conv4_block2_concat
            - 0
            - 0
            - {}
        name: conv4_block3_0_bn
      - class_name: Activation
        config:
          activation: relu
          name: conv4_block3_0_relu
          trainable: *id004
        inbound_nodes:
        - - - conv4_block3_0_bn
            - 0
            - 0
            - {}
        name: conv4_block3_0_relu
      - class_name: Conv2D
        config:
          activation: linear
          activity_regularizer: null
          bias_constraint: null
          bias_initializer:
            class_name: Zeros
            config: {}
          bias_regularizer: null
          data_format: channels_last
          dilation_rate: *id001
          filters: 128
          kernel_constraint: null
          kernel_initializer:
            class_name: VarianceScaling
            config: {distribution: uniform, mode: fan_avg, scale: 1.0, seed: null}
          kernel_regularizer: null
          kernel_size: !!python/tuple [1, 1]
          name: conv4_block3_1_conv
          padding: valid
          strides: *id005
          trainable: *id004
          use_bias: false
        inbound_nodes:
        - - - conv4_block3_0_relu
            - 0
            - 0
            - {}
        name: conv4_block3_1_conv
      - class_name: BatchNormalization
        config:
          axis: 3
          beta_constraint: null
          beta_initializer:
            class_name: Zeros
            config: {}
          beta_regularizer: null
          center: true
          epsilon: 1.001e-05
          gamma_constraint: null
          gamma_initializer:
            class_name: Ones
            config: {}
          gamma_regularizer: null
          momentum: 0.99
          moving_mean_initializer:
            class_name: Zeros
            config: {}
          moving_variance_initializer:
            class_name: Ones
            config: {}
          name: conv4_block3_1_bn
          scale: true
          trainable: *id004
        inbound_nodes:
        - - - conv4_block3_1_conv
            - 0
            - 0
            - {}
        name: conv4_block3_1_bn
      - class_name: Activation
        config:
          activation: relu
          name: conv4_block3_1_relu
          trainable: *id004
        inbound_nodes:
        - - - conv4_block3_1_bn
            - 0
            - 0
            - {}
        name: conv4_block3_1_relu
      - class_name: Conv2D
        config:
          activation: linear
          activity_regularizer: null
          bias_constraint: null
          bias_initializer:
            class_name: Zeros
            config: {}
          bias_regularizer: null
          data_format: channels_last
          dilation_rate: *id001
          filters: 32
          kernel_constraint: null
          kernel_initializer:
            class_name: VarianceScaling
            config: {distribution: uniform, mode: fan_avg, scale: 1.0, seed: null}
          kernel_regularizer: null
          kernel_size: !!python/tuple [3, 3]
          name: conv4_block3_2_conv
          padding: same
          strides: *id005
          trainable: *id004
          use_bias: false
        inbound_nodes:
        - - - conv4_block3_1_relu
            - 0
            - 0
            - {}
        name: conv4_block3_2_conv
      - class_name: Concatenate
        config:
          axis: 3
          name: conv4_block3_concat
          trainable: *id004
        inbound_nodes:
        - - - conv4_block2_concat
            - 0
            - 0
            - &id026 {}
          - - conv4_block3_2_conv
            - 0
            - 0
            - *id026
        name: conv4_block3_concat
      - class_name: BatchNormalization
        config:
          axis: 3
          beta_constraint: null
          beta_initializer:
            class_name: Zeros
            config: {}
          beta_regularizer: null
          center: true
          epsilon: 1.001e-05
          gamma_constraint: null
          gamma_initializer:
            class_name: Ones
            config: {}
          gamma_regularizer: null
          momentum: 0.99
          moving_mean_initializer:
            class_name: Zeros
            config: {}
          moving_variance_initializer:
            class_name: Ones
            config: {}
          name: conv4_block4_0_bn
          scale: true
          trainable: *id004
        inbound_nodes:
        - - - conv4_block3_concat
            - 0
            - 0
            - {}
        name: conv4_block4_0_bn
      - class_name: Activation
        config:
          activation: relu
          name: conv4_block4_0_relu
          trainable: *id004
        inbound_nodes:
        - - - conv4_block4_0_bn
            - 0
            - 0
            - {}
        name: conv4_block4_0_relu
      - class_name: Conv2D
        config:
          activation: linear
          activity_regularizer: null
          bias_constraint: null
          bias_initializer:
            class_name: Zeros
            config: {}
          bias_regularizer: null
          data_format: channels_last
          dilation_rate: *id001
          filters: 128
          kernel_constraint: null
          kernel_initializer:
            class_name: VarianceScaling
            config: {distribution: uniform, mode: fan_avg, scale: 1.0, seed: null}
          kernel_regularizer: null
          kernel_size: !!python/tuple [1, 1]
          name: conv4_block4_1_conv
          padding: valid
          strides: *id005
          trainable: *id004
          use_bias: false
        inbound_nodes:
        - - - conv4_block4_0_relu
            - 0
            - 0
            - {}
        name: conv4_block4_1_conv
      - class_name: BatchNormalization
        config:
          axis: 3
          beta_constraint: null
          beta_initializer:
            class_name: Zeros
            config: {}
          beta_regularizer: null
          center: true
          epsilon: 1.001e-05
          gamma_constraint: null
          gamma_initializer:
            class_name: Ones
            config: {}
          gamma_regularizer: null
          momentum: 0.99
          moving_mean_initializer:
            class_name: Zeros
            config: {}
          moving_variance_initializer:
            class_name: Ones
            config: {}
          name: conv4_block4_1_bn
          scale: true
          trainable: *id004
        inbound_nodes:
        - - - conv4_block4_1_conv
            - 0
            - 0
            - {}
        name: conv4_block4_1_bn
      - class_name: Activation
        config:
          activation: relu
          name: conv4_block4_1_relu
          trainable: *id004
        inbound_nodes:
        - - - conv4_block4_1_bn
            - 0
            - 0
            - {}
        name: conv4_block4_1_relu
      - class_name: Conv2D
        config:
          activation: linear
          activity_regularizer: null
          bias_constraint: null
          bias_initializer:
            class_name: Zeros
            config: {}
          bias_regularizer: null
          data_format: channels_last
          dilation_rate: *id001
          filters: 32
          kernel_constraint: null
          kernel_initializer:
            class_name: VarianceScaling
            config: {distribution: uniform, mode: fan_avg, scale: 1.0, seed: null}
          kernel_regularizer: null
          kernel_size: !!python/tuple [3, 3]
          name: conv4_block4_2_conv
          padding: same
          strides: *id005
          trainable: *id004
          use_bias: false
        inbound_nodes:
        - - - conv4_block4_1_relu
            - 0
            - 0
            - {}
        name: conv4_block4_2_conv
      - class_name: Concatenate
        config:
          axis: 3
          name: conv4_block4_concat
          trainable: *id004
        inbound_nodes:
        - - - conv4_block3_concat
            - 0
            - 0
            - &id027 {}
          - - conv4_block4_2_conv
            - 0
            - 0
            - *id027
        name: conv4_block4_concat
      - class_name: BatchNormalization
        config:
          axis: 3
          beta_constraint: null
          beta_initializer:
            class_name: Zeros
            config: {}
          beta_regularizer: null
          center: true
          epsilon: 1.001e-05
          gamma_constraint: null
          gamma_initializer:
            class_name: Ones
            config: {}
          gamma_regularizer: null
          momentum: 0.99
          moving_mean_initializer:
            class_name: Zeros
            config: {}
          moving_variance_initializer:
            class_name: Ones
            config: {}
          name: conv4_block5_0_bn
          scale: true
          trainable: *id004
        inbound_nodes:
        - - - conv4_block4_concat
            - 0
            - 0
            - {}
        name: conv4_block5_0_bn
      - class_name: Activation
        config:
          activation: relu
          name: conv4_block5_0_relu
          trainable: *id004
        inbound_nodes:
        - - - conv4_block5_0_bn
            - 0
            - 0
            - {}
        name: conv4_block5_0_relu
      - class_name: Conv2D
        config:
          activation: linear
          activity_regularizer: null
          bias_constraint: null
          bias_initializer:
            class_name: Zeros
            config: {}
          bias_regularizer: null
          data_format: channels_last
          dilation_rate: *id001
          filters: 128
          kernel_constraint: null
          kernel_initializer:
            class_name: VarianceScaling
            config: {distribution: uniform, mode: fan_avg, scale: 1.0, seed: null}
          kernel_regularizer: null
          kernel_size: !!python/tuple [1, 1]
          name: conv4_block5_1_conv
          padding: valid
          strides: *id005
          trainable: *id004
          use_bias: false
        inbound_nodes:
        - - - conv4_block5_0_relu
            - 0
            - 0
            - {}
        name: conv4_block5_1_conv
      - class_name: BatchNormalization
        config:
          axis: 3
          beta_constraint: null
          beta_initializer:
            class_name: Zeros
            config: {}
          beta_regularizer: null
          center: true
          epsilon: 1.001e-05
          gamma_constraint: null
          gamma_initializer:
            class_name: Ones
            config: {}
          gamma_regularizer: null
          momentum: 0.99
          moving_mean_initializer:
            class_name: Zeros
            config: {}
          moving_variance_initializer:
            class_name: Ones
            config: {}
          name: conv4_block5_1_bn
          scale: true
          trainable: *id004
        inbound_nodes:
        - - - conv4_block5_1_conv
            - 0
            - 0
            - {}
        name: conv4_block5_1_bn
      - class_name: Activation
        config:
          activation: relu
          name: conv4_block5_1_relu
          trainable: *id004
        inbound_nodes:
        - - - conv4_block5_1_bn
            - 0
            - 0
            - {}
        name: conv4_block5_1_relu
      - class_name: Conv2D
        config:
          activation: linear
          activity_regularizer: null
          bias_constraint: null
          bias_initializer:
            class_name: Zeros
            config: {}
          bias_regularizer: null
          data_format: channels_last
          dilation_rate: *id001
          filters: 32
          kernel_constraint: null
          kernel_initializer:
            class_name: VarianceScaling
            config: {distribution: uniform, mode: fan_avg, scale: 1.0, seed: null}
          kernel_regularizer: null
          kernel_size: !!python/tuple [3, 3]
          name: conv4_block5_2_conv
          padding: same
          strides: *id005
          trainable: *id004
          use_bias: false
        inbound_nodes:
        - - - conv4_block5_1_relu
            - 0
            - 0
            - {}
        name: conv4_block5_2_conv
      - class_name: Concatenate
        config:
          axis: 3
          name: conv4_block5_concat
          trainable: *id004
        inbound_nodes:
        - - - conv4_block4_concat
            - 0
            - 0
            - &id028 {}
          - - conv4_block5_2_conv
            - 0
            - 0
            - *id028
        name: conv4_block5_concat
      - class_name: BatchNormalization
        config:
          axis: 3
          beta_constraint: null
          beta_initializer:
            class_name: Zeros
            config: {}
          beta_regularizer: null
          center: true
          epsilon: 1.001e-05
          gamma_constraint: null
          gamma_initializer:
            class_name: Ones
            config: {}
          gamma_regularizer: null
          momentum: 0.99
          moving_mean_initializer:
            class_name: Zeros
            config: {}
          moving_variance_initializer:
            class_name: Ones
            config: {}
          name: conv4_block6_0_bn
          scale: true
          trainable: *id004
        inbound_nodes:
        - - - conv4_block5_concat
            - 0
            - 0
            - {}
        name: conv4_block6_0_bn
      - class_name: Activation
        config:
          activation: relu
          name: conv4_block6_0_relu
          trainable: *id004
        inbound_nodes:
        - - - conv4_block6_0_bn
            - 0
            - 0
            - {}
        name: conv4_block6_0_relu
      - class_name: Conv2D
        config:
          activation: linear
          activity_regularizer: null
          bias_constraint: null
          bias_initializer:
            class_name: Zeros
            config: {}
          bias_regularizer: null
          data_format: channels_last
          dilation_rate: *id001
          filters: 128
          kernel_constraint: null
          kernel_initializer:
            class_name: VarianceScaling
            config: {distribution: uniform, mode: fan_avg, scale: 1.0, seed: null}
          kernel_regularizer: null
          kernel_size: !!python/tuple [1, 1]
          name: conv4_block6_1_conv
          padding: valid
          strides: *id005
          trainable: *id004
          use_bias: false
        inbound_nodes:
        - - - conv4_block6_0_relu
            - 0
            - 0
            - {}
        name: conv4_block6_1_conv
      - class_name: BatchNormalization
        config:
          axis: 3
          beta_constraint: null
          beta_initializer:
            class_name: Zeros
            config: {}
          beta_regularizer: null
          center: true
          epsilon: 1.001e-05
          gamma_constraint: null
          gamma_initializer:
            class_name: Ones
            config: {}
          gamma_regularizer: null
          momentum: 0.99
          moving_mean_initializer:
            class_name: Zeros
            config: {}
          moving_variance_initializer:
            class_name: Ones
            config: {}
          name: conv4_block6_1_bn
          scale: true
          trainable: *id004
        inbound_nodes:
        - - - conv4_block6_1_conv
            - 0
            - 0
            - {}
        name: conv4_block6_1_bn
      - class_name: Activation
        config:
          activation: relu
          name: conv4_block6_1_relu
          trainable: *id004
        inbound_nodes:
        - - - conv4_block6_1_bn
            - 0
            - 0
            - {}
        name: conv4_block6_1_relu
      - class_name: Conv2D
        config:
          activation: linear
          activity_regularizer: null
          bias_constraint: null
          bias_initializer:
            class_name: Zeros
            config: {}
          bias_regularizer: null
          data_format: channels_last
          dilation_rate: *id001
          filters: 32
          kernel_constraint: null
          kernel_initializer:
            class_name: VarianceScaling
            config: {distribution: uniform, mode: fan_avg, scale: 1.0, seed: null}
          kernel_regularizer: null
          kernel_size: !!python/tuple [3, 3]
          name: conv4_block6_2_conv
          padding: same
          strides: *id005
          trainable: *id004
          use_bias: false
        inbound_nodes:
        - - - conv4_block6_1_relu
            - 0
            - 0
            - {}
        name: conv4_block6_2_conv
      - class_name: Concatenate
        config:
          axis: 3
          name: conv4_block6_concat
          trainable: *id004
        inbound_nodes:
        - - - conv4_block5_concat
            - 0
            - 0
            - &id029 {}
          - - conv4_block6_2_conv
            - 0
            - 0
            - *id029
        name: conv4_block6_concat
      - class_name: BatchNormalization
        config:
          axis: 3
          beta_constraint: null
          beta_initializer:
            class_name: Zeros
            config: {}
          beta_regularizer: null
          center: true
          epsilon: 1.001e-05
          gamma_constraint: null
          gamma_initializer:
            class_name: Ones
            config: {}
          gamma_regularizer: null
          momentum: 0.99
          moving_mean_initializer:
            class_name: Zeros
            config: {}
          moving_variance_initializer:
            class_name: Ones
            config: {}
          name: conv4_block7_0_bn
          scale: true
          trainable: *id004
        inbound_nodes:
        - - - conv4_block6_concat
            - 0
            - 0
            - {}
        name: conv4_block7_0_bn
      - class_name: Activation
        config:
          activation: relu
          name: conv4_block7_0_relu
          trainable: *id004
        inbound_nodes:
        - - - conv4_block7_0_bn
            - 0
            - 0
            - {}
        name: conv4_block7_0_relu
      - class_name: Conv2D
        config:
          activation: linear
          activity_regularizer: null
          bias_constraint: null
          bias_initializer:
            class_name: Zeros
            config: {}
          bias_regularizer: null
          data_format: channels_last
          dilation_rate: *id001
          filters: 128
          kernel_constraint: null
          kernel_initializer:
            class_name: VarianceScaling
            config: {distribution: uniform, mode: fan_avg, scale: 1.0, seed: null}
          kernel_regularizer: null
          kernel_size: !!python/tuple [1, 1]
          name: conv4_block7_1_conv
          padding: valid
          strides: *id005
          trainable: *id004
          use_bias: false
        inbound_nodes:
        - - - conv4_block7_0_relu
            - 0
            - 0
            - {}
        name: conv4_block7_1_conv
      - class_name: BatchNormalization
        config:
          axis: 3
          beta_constraint: null
          beta_initializer:
            class_name: Zeros
            config: {}
          beta_regularizer: null
          center: true
          epsilon: 1.001e-05
          gamma_constraint: null
          gamma_initializer:
            class_name: Ones
            config: {}
          gamma_regularizer: null
          momentum: 0.99
          moving_mean_initializer:
            class_name: Zeros
            config: {}
          moving_variance_initializer:
            class_name: Ones
            config: {}
          name: conv4_block7_1_bn
          scale: true
          trainable: *id004
        inbound_nodes:
        - - - conv4_block7_1_conv
            - 0
            - 0
            - {}
        name: conv4_block7_1_bn
      - class_name: Activation
        config:
          activation: relu
          name: conv4_block7_1_relu
          trainable: *id004
        inbound_nodes:
        - - - conv4_block7_1_bn
            - 0
            - 0
            - {}
        name: conv4_block7_1_relu
      - class_name: Conv2D
        config:
          activation: linear
          activity_regularizer: null
          bias_constraint: null
          bias_initializer:
            class_name: Zeros
            config: {}
          bias_regularizer: null
          data_format: channels_last
          dilation_rate: *id001
          filters: 32
          kernel_constraint: null
          kernel_initializer:
            class_name: VarianceScaling
            config: {distribution: uniform, mode: fan_avg, scale: 1.0, seed: null}
          kernel_regularizer: null
          kernel_size: !!python/tuple [3, 3]
          name: conv4_block7_2_conv
          padding: same
          strides: *id005
          trainable: *id004
          use_bias: false
        inbound_nodes:
        - - - conv4_block7_1_relu
            - 0
            - 0
            - {}
        name: conv4_block7_2_conv
      - class_name: Concatenate
        config:
          axis: 3
          name: conv4_block7_concat
          trainable: *id004
        inbound_nodes:
        - - - conv4_block6_concat
            - 0
            - 0
            - &id030 {}
          - - conv4_block7_2_conv
            - 0
            - 0
            - *id030
        name: conv4_block7_concat
      - class_name: BatchNormalization
        config:
          axis: 3
          beta_constraint: null
          beta_initializer:
            class_name: Zeros
            config: {}
          beta_regularizer: null
          center: true
          epsilon: 1.001e-05
          gamma_constraint: null
          gamma_initializer:
            class_name: Ones
            config: {}
          gamma_regularizer: null
          momentum: 0.99
          moving_mean_initializer:
            class_name: Zeros
            config: {}
          moving_variance_initializer:
            class_name: Ones
            config: {}
          name: conv4_block8_0_bn
          scale: true
          trainable: *id004
        inbound_nodes:
        - - - conv4_block7_concat
            - 0
            - 0
            - {}
        name: conv4_block8_0_bn
      - class_name: Activation
        config:
          activation: relu
          name: conv4_block8_0_relu
          trainable: *id004
        inbound_nodes:
        - - - conv4_block8_0_bn
            - 0
            - 0
            - {}
        name: conv4_block8_0_relu
      - class_name: Conv2D
        config:
          activation: linear
          activity_regularizer: null
          bias_constraint: null
          bias_initializer:
            class_name: Zeros
            config: {}
          bias_regularizer: null
          data_format: channels_last
          dilation_rate: *id001
          filters: 128
          kernel_constraint: null
          kernel_initializer:
            class_name: VarianceScaling
            config: {distribution: uniform, mode: fan_avg, scale: 1.0, seed: null}
          kernel_regularizer: null
          kernel_size: !!python/tuple [1, 1]
          name: conv4_block8_1_conv
          padding: valid
          strides: *id005
          trainable: *id004
          use_bias: false
        inbound_nodes:
        - - - conv4_block8_0_relu
            - 0
            - 0
            - {}
        name: conv4_block8_1_conv
      - class_name: BatchNormalization
        config:
          axis: 3
          beta_constraint: null
          beta_initializer:
            class_name: Zeros
            config: {}
          beta_regularizer: null
          center: true
          epsilon: 1.001e-05
          gamma_constraint: null
          gamma_initializer:
            class_name: Ones
            config: {}
          gamma_regularizer: null
          momentum: 0.99
          moving_mean_initializer:
            class_name: Zeros
            config: {}
          moving_variance_initializer:
            class_name: Ones
            config: {}
          name: conv4_block8_1_bn
          scale: true
          trainable: *id004
        inbound_nodes:
        - - - conv4_block8_1_conv
            - 0
            - 0
            - {}
        name: conv4_block8_1_bn
      - class_name: Activation
        config:
          activation: relu
          name: conv4_block8_1_relu
          trainable: *id004
        inbound_nodes:
        - - - conv4_block8_1_bn
            - 0
            - 0
            - {}
        name: conv4_block8_1_relu
      - class_name: Conv2D
        config:
          activation: linear
          activity_regularizer: null
          bias_constraint: null
          bias_initializer:
            class_name: Zeros
            config: {}
          bias_regularizer: null
          data_format: channels_last
          dilation_rate: *id001
          filters: 32
          kernel_constraint: null
          kernel_initializer:
            class_name: VarianceScaling
            config: {distribution: uniform, mode: fan_avg, scale: 1.0, seed: null}
          kernel_regularizer: null
          kernel_size: !!python/tuple [3, 3]
          name: conv4_block8_2_conv
          padding: same
          strides: *id005
          trainable: *id004
          use_bias: false
        inbound_nodes:
        - - - conv4_block8_1_relu
            - 0
            - 0
            - {}
        name: conv4_block8_2_conv
      - class_name: Concatenate
        config:
          axis: 3
          name: conv4_block8_concat
          trainable: *id004
        inbound_nodes:
        - - - conv4_block7_concat
            - 0
            - 0
            - &id031 {}
          - - conv4_block8_2_conv
            - 0
            - 0
            - *id031
        name: conv4_block8_concat
      - class_name: BatchNormalization
        config:
          axis: 3
          beta_constraint: null
          beta_initializer:
            class_name: Zeros
            config: {}
          beta_regularizer: null
          center: true
          epsilon: 1.001e-05
          gamma_constraint: null
          gamma_initializer:
            class_name: Ones
            config: {}
          gamma_regularizer: null
          momentum: 0.99
          moving_mean_initializer:
            class_name: Zeros
            config: {}
          moving_variance_initializer:
            class_name: Ones
            config: {}
          name: conv4_block9_0_bn
          scale: true
          trainable: *id004
        inbound_nodes:
        - - - conv4_block8_concat
            - 0
            - 0
            - {}
        name: conv4_block9_0_bn
      - class_name: Activation
        config:
          activation: relu
          name: conv4_block9_0_relu
          trainable: *id004
        inbound_nodes:
        - - - conv4_block9_0_bn
            - 0
            - 0
            - {}
        name: conv4_block9_0_relu
      - class_name: Conv2D
        config:
          activation: linear
          activity_regularizer: null
          bias_constraint: null
          bias_initializer:
            class_name: Zeros
            config: {}
          bias_regularizer: null
          data_format: channels_last
          dilation_rate: *id001
          filters: 128
          kernel_constraint: null
          kernel_initializer:
            class_name: VarianceScaling
            config: {distribution: uniform, mode: fan_avg, scale: 1.0, seed: null}
          kernel_regularizer: null
          kernel_size: !!python/tuple [1, 1]
          name: conv4_block9_1_conv
          padding: valid
          strides: *id005
          trainable: *id004
          use_bias: false
        inbound_nodes:
        - - - conv4_block9_0_relu
            - 0
            - 0
            - {}
        name: conv4_block9_1_conv
      - class_name: BatchNormalization
        config:
          axis: 3
          beta_constraint: null
          beta_initializer:
            class_name: Zeros
            config: {}
          beta_regularizer: null
          center: true
          epsilon: 1.001e-05
          gamma_constraint: null
          gamma_initializer:
            class_name: Ones
            config: {}
          gamma_regularizer: null
          momentum: 0.99
          moving_mean_initializer:
            class_name: Zeros
            config: {}
          moving_variance_initializer:
            class_name: Ones
            config: {}
          name: conv4_block9_1_bn
          scale: true
          trainable: *id004
        inbound_nodes:
        - - - conv4_block9_1_conv
            - 0
            - 0
            - {}
        name: conv4_block9_1_bn
      - class_name: Activation
        config:
          activation: relu
          name: conv4_block9_1_relu
          trainable: *id004
        inbound_nodes:
        - - - conv4_block9_1_bn
            - 0
            - 0
            - {}
        name: conv4_block9_1_relu
      - class_name: Conv2D
        config:
          activation: linear
          activity_regularizer: null
          bias_constraint: null
          bias_initializer:
            class_name: Zeros
            config: {}
          bias_regularizer: null
          data_format: channels_last
          dilation_rate: *id001
          filters: 32
          kernel_constraint: null
          kernel_initializer:
            class_name: VarianceScaling
            config: {distribution: uniform, mode: fan_avg, scale: 1.0, seed: null}
          kernel_regularizer: null
          kernel_size: !!python/tuple [3, 3]
          name: conv4_block9_2_conv
          padding: same
          strides: *id005
          trainable: *id004
          use_bias: false
        inbound_nodes:
        - - - conv4_block9_1_relu
            - 0
            - 0
            - {}
        name: conv4_block9_2_conv
      - class_name: Concatenate
        config:
          axis: 3
          name: conv4_block9_concat
          trainable: *id004
        inbound_nodes:
        - - - conv4_block8_concat
            - 0
            - 0
            - &id032 {}
          - - conv4_block9_2_conv
            - 0
            - 0
            - *id032
        name: conv4_block9_concat
      - class_name: BatchNormalization
        config:
          axis: 3
          beta_constraint: null
          beta_initializer:
            class_name: Zeros
            config: {}
          beta_regularizer: null
          center: true
          epsilon: 1.001e-05
          gamma_constraint: null
          gamma_initializer:
            class_name: Ones
            config: {}
          gamma_regularizer: null
          momentum: 0.99
          moving_mean_initializer:
            class_name: Zeros
            config: {}
          moving_variance_initializer:
            class_name: Ones
            config: {}
          name: conv4_block10_0_bn
          scale: true
          trainable: *id004
        inbound_nodes:
        - - - conv4_block9_concat
            - 0
            - 0
            - {}
        name: conv4_block10_0_bn
      - class_name: Activation
        config:
          activation: relu
          name: conv4_block10_0_relu
          trainable: *id004
        inbound_nodes:
        - - - conv4_block10_0_bn
            - 0
            - 0
            - {}
        name: conv4_block10_0_relu
      - class_name: Conv2D
        config:
          activation: linear
          activity_regularizer: null
          bias_constraint: null
          bias_initializer:
            class_name: Zeros
            config: {}
          bias_regularizer: null
          data_format: channels_last
          dilation_rate: *id001
          filters: 128
          kernel_constraint: null
          kernel_initializer:
            class_name: VarianceScaling
            config: {distribution: uniform, mode: fan_avg, scale: 1.0, seed: null}
          kernel_regularizer: null
          kernel_size: !!python/tuple [1, 1]
          name: conv4_block10_1_conv
          padding: valid
          strides: *id005
          trainable: *id004
          use_bias: false
        inbound_nodes:
        - - - conv4_block10_0_relu
            - 0
            - 0
            - {}
        name: conv4_block10_1_conv
      - class_name: BatchNormalization
        config:
          axis: 3
          beta_constraint: null
          beta_initializer:
            class_name: Zeros
            config: {}
          beta_regularizer: null
          center: true
          epsilon: 1.001e-05
          gamma_constraint: null
          gamma_initializer:
            class_name: Ones
            config: {}
          gamma_regularizer: null
          momentum: 0.99
          moving_mean_initializer:
            class_name: Zeros
            config: {}
          moving_variance_initializer:
            class_name: Ones
            config: {}
          name: conv4_block10_1_bn
          scale: true
          trainable: *id004
        inbound_nodes:
        - - - conv4_block10_1_conv
            - 0
            - 0
            - {}
        name: conv4_block10_1_bn
      - class_name: Activation
        config:
          activation: relu
          name: conv4_block10_1_relu
          trainable: *id004
        inbound_nodes:
        - - - conv4_block10_1_bn
            - 0
            - 0
            - {}
        name: conv4_block10_1_relu
      - class_name: Conv2D
        config:
          activation: linear
          activity_regularizer: null
          bias_constraint: null
          bias_initializer:
            class_name: Zeros
            config: {}
          bias_regularizer: null
          data_format: channels_last
          dilation_rate: *id001
          filters: 32
          kernel_constraint: null
          kernel_initializer:
            class_name: VarianceScaling
            config: {distribution: uniform, mode: fan_avg, scale: 1.0, seed: null}
          kernel_regularizer: null
          kernel_size: !!python/tuple [3, 3]
          name: conv4_block10_2_conv
          padding: same
          strides: *id005
          trainable: *id004
          use_bias: false
        inbound_nodes:
        - - - conv4_block10_1_relu
            - 0
            - 0
            - {}
        name: conv4_block10_2_conv
      - class_name: Concatenate
        config:
          axis: 3
          name: conv4_block10_concat
          trainable: *id004
        inbound_nodes:
        - - - conv4_block9_concat
            - 0
            - 0
            - &id033 {}
          - - conv4_block10_2_conv
            - 0
            - 0
            - *id033
        name: conv4_block10_concat
      - class_name: BatchNormalization
        config:
          axis: 3
          beta_constraint: null
          beta_initializer:
            class_name: Zeros
            config: {}
          beta_regularizer: null
          center: true
          epsilon: 1.001e-05
          gamma_constraint: null
          gamma_initializer:
            class_name: Ones
            config: {}
          gamma_regularizer: null
          momentum: 0.99
          moving_mean_initializer:
            class_name: Zeros
            config: {}
          moving_variance_initializer:
            class_name: Ones
            config: {}
          name: conv4_block11_0_bn
          scale: true
          trainable: *id004
        inbound_nodes:
        - - - conv4_block10_concat
            - 0
            - 0
            - {}
        name: conv4_block11_0_bn
      - class_name: Activation
        config:
          activation: relu
          name: conv4_block11_0_relu
          trainable: *id004
        inbound_nodes:
        - - - conv4_block11_0_bn
            - 0
            - 0
            - {}
        name: conv4_block11_0_relu
      - class_name: Conv2D
        config:
          activation: linear
          activity_regularizer: null
          bias_constraint: null
          bias_initializer:
            class_name: Zeros
            config: {}
          bias_regularizer: null
          data_format: channels_last
          dilation_rate: *id001
          filters: 128
          kernel_constraint: null
          kernel_initializer:
            class_name: VarianceScaling
            config: {distribution: uniform, mode: fan_avg, scale: 1.0, seed: null}
          kernel_regularizer: null
          kernel_size: !!python/tuple [1, 1]
          name: conv4_block11_1_conv
          padding: valid
          strides: *id005
          trainable: *id004
          use_bias: false
        inbound_nodes:
        - - - conv4_block11_0_relu
            - 0
            - 0
            - {}
        name: conv4_block11_1_conv
      - class_name: BatchNormalization
        config:
          axis: 3
          beta_constraint: null
          beta_initializer:
            class_name: Zeros
            config: {}
          beta_regularizer: null
          center: true
          epsilon: 1.001e-05
          gamma_constraint: null
          gamma_initializer:
            class_name: Ones
            config: {}
          gamma_regularizer: null
          momentum: 0.99
          moving_mean_initializer:
            class_name: Zeros
            config: {}
          moving_variance_initializer:
            class_name: Ones
            config: {}
          name: conv4_block11_1_bn
          scale: true
          trainable: *id004
        inbound_nodes:
        - - - conv4_block11_1_conv
            - 0
            - 0
            - {}
        name: conv4_block11_1_bn
      - class_name: Activation
        config:
          activation: relu
          name: conv4_block11_1_relu
          trainable: *id004
        inbound_nodes:
        - - - conv4_block11_1_bn
            - 0
            - 0
            - {}
        name: conv4_block11_1_relu
      - class_name: Conv2D
        config:
          activation: linear
          activity_regularizer: null
          bias_constraint: null
          bias_initializer:
            class_name: Zeros
            config: {}
          bias_regularizer: null
          data_format: channels_last
          dilation_rate: *id001
          filters: 32
          kernel_constraint: null
          kernel_initializer:
            class_name: VarianceScaling
            config: {distribution: uniform, mode: fan_avg, scale: 1.0, seed: null}
          kernel_regularizer: null
          kernel_size: !!python/tuple [3, 3]
          name: conv4_block11_2_conv
          padding: same
          strides: *id005
          trainable: *id004
          use_bias: false
        inbound_nodes:
        - - - conv4_block11_1_relu
            - 0
            - 0
            - {}
        name: conv4_block11_2_conv
      - class_name: Concatenate
        config:
          axis: 3
          name: conv4_block11_concat
          trainable: *id004
        inbound_nodes:
        - - - conv4_block10_concat
            - 0
            - 0
            - &id034 {}
          - - conv4_block11_2_conv
            - 0
            - 0
            - *id034
        name: conv4_block11_concat
      - class_name: BatchNormalization
        config:
          axis: 3
          beta_constraint: null
          beta_initializer:
            class_name: Zeros
            config: {}
          beta_regularizer: null
          center: true
          epsilon: 1.001e-05
          gamma_constraint: null
          gamma_initializer:
            class_name: Ones
            config: {}
          gamma_regularizer: null
          momentum: 0.99
          moving_mean_initializer:
            class_name: Zeros
            config: {}
          moving_variance_initializer:
            class_name: Ones
            config: {}
          name: conv4_block12_0_bn
          scale: true
          trainable: *id004
        inbound_nodes:
        - - - conv4_block11_concat
            - 0
            - 0
            - {}
        name: conv4_block12_0_bn
      - class_name: Activation
        config:
          activation: relu
          name: conv4_block12_0_relu
          trainable: *id004
        inbound_nodes:
        - - - conv4_block12_0_bn
            - 0
            - 0
            - {}
        name: conv4_block12_0_relu
      - class_name: Conv2D
        config:
          activation: linear
          activity_regularizer: null
          bias_constraint: null
          bias_initializer:
            class_name: Zeros
            config: {}
          bias_regularizer: null
          data_format: channels_last
          dilation_rate: *id001
          filters: 128
          kernel_constraint: null
          kernel_initializer:
            class_name: VarianceScaling
            config: {distribution: uniform, mode: fan_avg, scale: 1.0, seed: null}
          kernel_regularizer: null
          kernel_size: !!python/tuple [1, 1]
          name: conv4_block12_1_conv
          padding: valid
          strides: *id005
          trainable: *id004
          use_bias: false
        inbound_nodes:
        - - - conv4_block12_0_relu
            - 0
            - 0
            - {}
        name: conv4_block12_1_conv
      - class_name: BatchNormalization
        config:
          axis: 3
          beta_constraint: null
          beta_initializer:
            class_name: Zeros
            config: {}
          beta_regularizer: null
          center: true
          epsilon: 1.001e-05
          gamma_constraint: null
          gamma_initializer:
            class_name: Ones
            config: {}
          gamma_regularizer: null
          momentum: 0.99
          moving_mean_initializer:
            class_name: Zeros
            config: {}
          moving_variance_initializer:
            class_name: Ones
            config: {}
          name: conv4_block12_1_bn
          scale: true
          trainable: *id004
        inbound_nodes:
        - - - conv4_block12_1_conv
            - 0
            - 0
            - {}
        name: conv4_block12_1_bn
      - class_name: Activation
        config:
          activation: relu
          name: conv4_block12_1_relu
          trainable: *id004
        inbound_nodes:
        - - - conv4_block12_1_bn
            - 0
            - 0
            - {}
        name: conv4_block12_1_relu
      - class_name: Conv2D
        config:
          activation: linear
          activity_regularizer: null
          bias_constraint: null
          bias_initializer:
            class_name: Zeros
            config: {}
          bias_regularizer: null
          data_format: channels_last
          dilation_rate: *id001
          filters: 32
          kernel_constraint: null
          kernel_initializer:
            class_name: VarianceScaling
            config: {distribution: uniform, mode: fan_avg, scale: 1.0, seed: null}
          kernel_regularizer: null
          kernel_size: !!python/tuple [3, 3]
          name: conv4_block12_2_conv
          padding: same
          strides: *id005
          trainable: *id004
          use_bias: false
        inbound_nodes:
        - - - conv4_block12_1_relu
            - 0
            - 0
            - {}
        name: conv4_block12_2_conv
      - class_name: Concatenate
        config:
          axis: 3
          name: conv4_block12_concat
          trainable: *id004
        inbound_nodes:
        - - - conv4_block11_concat
            - 0
            - 0
            - &id035 {}
          - - conv4_block12_2_conv
            - 0
            - 0
            - *id035
        name: conv4_block12_concat
      - class_name: BatchNormalization
        config:
          axis: 3
          beta_constraint: null
          beta_initializer:
            class_name: Zeros
            config: {}
          beta_regularizer: null
          center: true
          epsilon: 1.001e-05
          gamma_constraint: null
          gamma_initializer:
            class_name: Ones
            config: {}
          gamma_regularizer: null
          momentum: 0.99
          moving_mean_initializer:
            class_name: Zeros
            config: {}
          moving_variance_initializer:
            class_name: Ones
            config: {}
          name: conv4_block13_0_bn
          scale: true
          trainable: *id004
        inbound_nodes:
        - - - conv4_block12_concat
            - 0
            - 0
            - {}
        name: conv4_block13_0_bn
      - class_name: Activation
        config:
          activation: relu
          name: conv4_block13_0_relu
          trainable: *id004
        inbound_nodes:
        - - - conv4_block13_0_bn
            - 0
            - 0
            - {}
        name: conv4_block13_0_relu
      - class_name: Conv2D
        config:
          activation: linear
          activity_regularizer: null
          bias_constraint: null
          bias_initializer:
            class_name: Zeros
            config: {}
          bias_regularizer: null
          data_format: channels_last
          dilation_rate: *id001
          filters: 128
          kernel_constraint: null
          kernel_initializer:
            class_name: VarianceScaling
            config: {distribution: uniform, mode: fan_avg, scale: 1.0, seed: null}
          kernel_regularizer: null
          kernel_size: !!python/tuple [1, 1]
          name: conv4_block13_1_conv
          padding: valid
          strides: *id005
          trainable: *id004
          use_bias: false
        inbound_nodes:
        - - - conv4_block13_0_relu
            - 0
            - 0
            - {}
        name: conv4_block13_1_conv
      - class_name: BatchNormalization
        config:
          axis: 3
          beta_constraint: null
          beta_initializer:
            class_name: Zeros
            config: {}
          beta_regularizer: null
          center: true
          epsilon: 1.001e-05
          gamma_constraint: null
          gamma_initializer:
            class_name: Ones
            config: {}
          gamma_regularizer: null
          momentum: 0.99
          moving_mean_initializer:
            class_name: Zeros
            config: {}
          moving_variance_initializer:
            class_name: Ones
            config: {}
          name: conv4_block13_1_bn
          scale: true
          trainable: *id004
        inbound_nodes:
        - - - conv4_block13_1_conv
            - 0
            - 0
            - {}
        name: conv4_block13_1_bn
      - class_name: Activation
        config:
          activation: relu
          name: conv4_block13_1_relu
          trainable: *id004
        inbound_nodes:
        - - - conv4_block13_1_bn
            - 0
            - 0
            - {}
        name: conv4_block13_1_relu
      - class_name: Conv2D
        config:
          activation: linear
          activity_regularizer: null
          bias_constraint: null
          bias_initializer:
            class_name: Zeros
            config: {}
          bias_regularizer: null
          data_format: channels_last
          dilation_rate: *id001
          filters: 32
          kernel_constraint: null
          kernel_initializer:
            class_name: VarianceScaling
            config: {distribution: uniform, mode: fan_avg, scale: 1.0, seed: null}
          kernel_regularizer: null
          kernel_size: !!python/tuple [3, 3]
          name: conv4_block13_2_conv
          padding: same
          strides: *id005
          trainable: *id004
          use_bias: false
        inbound_nodes:
        - - - conv4_block13_1_relu
            - 0
            - 0
            - {}
        name: conv4_block13_2_conv
      - class_name: Concatenate
        config:
          axis: 3
          name: conv4_block13_concat
          trainable: *id004
        inbound_nodes:
        - - - conv4_block12_concat
            - 0
            - 0
            - &id036 {}
          - - conv4_block13_2_conv
            - 0
            - 0
            - *id036
        name: conv4_block13_concat
      - class_name: BatchNormalization
        config:
          axis: 3
          beta_constraint: null
          beta_initializer:
            class_name: Zeros
            config: {}
          beta_regularizer: null
          center: true
          epsilon: 1.001e-05
          gamma_constraint: null
          gamma_initializer:
            class_name: Ones
            config: {}
          gamma_regularizer: null
          momentum: 0.99
          moving_mean_initializer:
            class_name: Zeros
            config: {}
          moving_variance_initializer:
            class_name: Ones
            config: {}
          name: conv4_block14_0_bn
          scale: true
          trainable: *id004
        inbound_nodes:
        - - - conv4_block13_concat
            - 0
            - 0
            - {}
        name: conv4_block14_0_bn
      - class_name: Activation
        config:
          activation: relu
          name: conv4_block14_0_relu
          trainable: *id004
        inbound_nodes:
        - - - conv4_block14_0_bn
            - 0
            - 0
            - {}
        name: conv4_block14_0_relu
      - class_name: Conv2D
        config:
          activation: linear
          activity_regularizer: null
          bias_constraint: null
          bias_initializer:
            class_name: Zeros
            config: {}
          bias_regularizer: null
          data_format: channels_last
          dilation_rate: *id001
          filters: 128
          kernel_constraint: null
          kernel_initializer:
            class_name: VarianceScaling
            config: {distribution: uniform, mode: fan_avg, scale: 1.0, seed: null}
          kernel_regularizer: null
          kernel_size: !!python/tuple [1, 1]
          name: conv4_block14_1_conv
          padding: valid
          strides: *id005
          trainable: *id004
          use_bias: false
        inbound_nodes:
        - - - conv4_block14_0_relu
            - 0
            - 0
            - {}
        name: conv4_block14_1_conv
      - class_name: BatchNormalization
        config:
          axis: 3
          beta_constraint: null
          beta_initializer:
            class_name: Zeros
            config: {}
          beta_regularizer: null
          center: true
          epsilon: 1.001e-05
          gamma_constraint: null
          gamma_initializer:
            class_name: Ones
            config: {}
          gamma_regularizer: null
          momentum: 0.99
          moving_mean_initializer:
            class_name: Zeros
            config: {}
          moving_variance_initializer:
            class_name: Ones
            config: {}
          name: conv4_block14_1_bn
          scale: true
          trainable: *id004
        inbound_nodes:
        - - - conv4_block14_1_conv
            - 0
            - 0
            - {}
        name: conv4_block14_1_bn
      - class_name: Activation
        config:
          activation: relu
          name: conv4_block14_1_relu
          trainable: *id004
        inbound_nodes:
        - - - conv4_block14_1_bn
            - 0
            - 0
            - {}
        name: conv4_block14_1_relu
      - class_name: Conv2D
        config:
          activation: linear
          activity_regularizer: null
          bias_constraint: null
…
          beta_regularizer: null
          center: true
          epsilon: 0.001
          gamma_constraint: null
          gamma_initializer:
            class_name: Ones
            config: {}
          gamma_regularizer: null
          momentum: 0.99
          moving_mean_initializer:
            class_name: Zeros
            config: {}
          moving_variance_initializer:
            class_name: Ones
            config: {}
          name: batch_normalization_75
          scale: false
          trainable: *id004
        inbound_nodes:
        - - - conv2d_77
            - 0
            - 0
            - {}
        name: batch_normalization_75
      - class_name: Activation
        config:
          activation: relu
          name: activation_71
          trainable: *id004
        inbound_nodes:
        - - - batch_normalization_71
            - 0
            - 0
            - {}
        name: activation_71
      - class_name: Activation
        config:
          activation: relu
          name: activation_75
          trainable: *id004
        inbound_nodes:
        - - - batch_normalization_75
            - 0
            - 0
            - {}
        name: activation_75
      - class_name: Conv2D
        config:
          activation: linear
          activity_regularizer: null
          bias_constraint: null
          bias_initializer:
            class_name: Zeros
            config: {}
          bias_regularizer: null
          data_format: channels_last
          dilation_rate: *id001
          filters: 320
          kernel_constraint: null
          kernel_initializer:
            class_name: VarianceScaling
            config: {distribution: uniform, mode: fan_avg, scale: 1.0, seed: null}
          kernel_regularizer: null
          kernel_size: !!python/tuple [3, 3]
          name: conv2d_74
          padding: valid
          strides: !!python/tuple [2, 2]
          trainable: *id004
          use_bias: false
        inbound_nodes:
        - - - activation_71
            - 0
            - 0
            - {}
        name: conv2d_74
      - class_name: Conv2D
        config:
          activation: linear
          activity_regularizer: null
          bias_constraint: null
          bias_initializer:
            class_name: Zeros
            config: {}
          bias_regularizer: null
          data_format: channels_last
          dilation_rate: *id001
          filters: 192
          kernel_constraint: null
          kernel_initializer:
            class_name: VarianceScaling
            config: {distribution: uniform, mode: fan_avg, scale: 1.0, seed: null}
          kernel_regularizer: null
          kernel_size: !!python/tuple [3, 3]
          name: conv2d_78
          padding: valid
          strides: !!python/tuple [2, 2]
          trainable: *id004
          use_bias: false
        inbound_nodes:
        - - - activation_75
            - 0
            - 0
            - {}
        name: conv2d_78
      - class_name: BatchNormalization
        config:
          axis: 3
          beta_constraint: null
          beta_initializer:
            class_name: Zeros
            config: {}
          beta_regularizer: null
          center: true
          epsilon: 0.001
          gamma_constraint: null
          gamma_initializer:
            class_name: Ones
            config: {}
          gamma_regularizer: null
          momentum: 0.99
          moving_mean_initializer:
            class_name: Zeros
            config: {}
          moving_variance_initializer:
            class_name: Ones
            config: {}
          name: batch_normalization_72
          scale: false
          trainable: *id004
        inbound_nodes:
        - - - conv2d_74
            - 0
            - 0
            - {}
        name: batch_normalization_72
      - class_name: BatchNormalization
        config:
          axis: 3
          beta_constraint: null
          beta_initializer:
            class_name: Zeros
            config: {}
          beta_regularizer: null
          center: true
          epsilon: 0.001
          gamma_constraint: null
          gamma_initializer:
            class_name: Ones
            config: {}
          gamma_regularizer: null
          momentum: 0.99
          moving_mean_initializer:
            class_name: Zeros
            config: {}
          moving_variance_initializer:
            class_name: Ones
            config: {}
          name: batch_normalization_76
          scale: false
          trainable: *id004
        inbound_nodes:
        - - - conv2d_78
            - 0
            - 0
            - {}
        name: batch_normalization_76
      - class_name: Activation
        config:
          activation: relu
          name: activation_72
          trainable: *id004
        inbound_nodes:
        - - - batch_normalization_72
            - 0
            - 0
            - {}
        name: activation_72
      - class_name: Activation
        config:
          activation: relu
          name: activation_76
          trainable: *id004
        inbound_nodes:
        - - - batch_normalization_76
            - 0
            - 0
            - {}
        name: activation_76
      - class_name: MaxPooling2D
        config:
          data_format: channels_last
          name: max_pooling2d_4
          padding: valid
          pool_size: !!python/tuple [3, 3]
          strides: !!python/tuple [2, 2]
          trainable: *id004
        inbound_nodes:
        - - - mixed7
            - 0
            - 0
            - {}
        name: max_pooling2d_4
      - class_name: Concatenate
        config:
          axis: 3
          name: mixed8
          trainable: *id004
        inbound_nodes:
        - - - activation_72
            - 0
            - 0
            - &id077 {}
          - - activation_76
            - 0
            - 0
            - *id077
          - - max_pooling2d_4
            - 0
            - 0
            - *id077
        name: mixed8
      - class_name: Conv2D
        config:
          activation: linear
          activity_regularizer: null
          bias_constraint: null
          bias_initializer:
            class_name: Zeros
            config: {}
          bias_regularizer: null
          data_format: channels_last
          dilation_rate: *id001
          filters: 448
          kernel_constraint: null
          kernel_initializer:
            class_name: VarianceScaling
            config: {distribution: uniform, mode: fan_avg, scale: 1.0, seed: null}
          kernel_regularizer: null
          kernel_size: !!python/tuple [1, 1]
          name: conv2d_83
          padding: same
          strides: *id066
          trainable: *id004
          use_bias: false
        inbound_nodes:
        - - - mixed8
            - 0
            - 0
            - {}
        name: conv2d_83
      - class_name: BatchNormalization
        config:
          axis: 3
          beta_constraint: null
          beta_initializer:
            class_name: Zeros
            config: {}
          beta_regularizer: null
          center: true
          epsilon: 0.001
          gamma_constraint: null
          gamma_initializer:
            class_name: Ones
            config: {}
          gamma_regularizer: null
          momentum: 0.99
          moving_mean_initializer:
            class_name: Zeros
            config: {}
          moving_variance_initializer:
            class_name: Ones
            config: {}
          name: batch_normalization_81
          scale: false
          trainable: *id004
        inbound_nodes:
        - - - conv2d_83
            - 0
            - 0
            - {}
        name: batch_normalization_81
      - class_name: Activation
        config:
          activation: relu
          name: activation_81
          trainable: *id004
        inbound_nodes:
        - - - batch_normalization_81
            - 0
            - 0
            - {}
        name: activation_81
      - class_name: Conv2D
        config:
          activation: linear
          activity_regularizer: null
          bias_constraint: null
          bias_initializer:
            class_name: Zeros
            config: {}
          bias_regularizer: null
          data_format: channels_last
          dilation_rate: *id001
          filters: 384
          kernel_constraint: null
          kernel_initializer:
            class_name: VarianceScaling
            config: {distribution: uniform, mode: fan_avg, scale: 1.0, seed: null}
          kernel_regularizer: null
          kernel_size: !!python/tuple [1, 1]
          name: conv2d_80
          padding: same
          strides: *id066
          trainable: *id004
          use_bias: false
        inbound_nodes:
        - - - mixed8
            - 0
            - 0
            - {}
        name: conv2d_80
      - class_name: Conv2D
        config:
          activation: linear
          activity_regularizer: null
          bias_constraint: null
          bias_initializer:
            class_name: Zeros
            config: {}
          bias_regularizer: null
          data_format: channels_last
          dilation_rate: *id001
          filters: 384
          kernel_constraint: null
          kernel_initializer:
            class_name: VarianceScaling
            config: {distribution: uniform, mode: fan_avg, scale: 1.0, seed: null}
          kernel_regularizer: null
          kernel_size: !!python/tuple [3, 3]
          name: conv2d_84
          padding: same
          strides: *id066
          trainable: *id004
          use_bias: false
        inbound_nodes:
        - - - activation_81
            - 0
            - 0
            - {}
        name: conv2d_84
      - class_name: BatchNormalization
        config:
          axis: 3
          beta_constraint: null
          beta_initializer:
            class_name: Zeros
            config: {}
          beta_regularizer: null
          center: true
          epsilon: 0.001
          gamma_constraint: null
          gamma_initializer:
            class_name: Ones
            config: {}
          gamma_regularizer: null
          momentum: 0.99
          moving_mean_initializer:
            class_name: Zeros
            config: {}
          moving_variance_initializer:
            class_name: Ones
            config: {}
          name: batch_normalization_78
          scale: false
          trainable: *id004
        inbound_nodes:
        - - - conv2d_80
            - 0
            - 0
            - {}
        name: batch_normalization_78
      - class_name: BatchNormalization
        config:
          axis: 3
          beta_constraint: null
          beta_initializer:
            class_name: Zeros
            config: {}
          beta_regularizer: null
          center: true
          epsilon: 0.001
          gamma_constraint: null
          gamma_initializer:
            class_name: Ones
            config: {}
          gamma_regularizer: null
          momentum: 0.99
          moving_mean_initializer:
            class_name: Zeros
            config: {}
          moving_variance_initializer:
            class_name: Ones
            config: {}
          name: batch_normalization_82
          scale: false
          trainable: *id004
        inbound_nodes:
        - - - conv2d_84
            - 0
            - 0
            - {}
        name: batch_normalization_82
      - class_name: Activation
        config:
          activation: relu
          name: activation_78
          trainable: *id004
        inbound_nodes:
        - - - batch_normalization_78
            - 0
            - 0
            - {}
        name: activation_78
      - class_name: Activation
        config:
          activation: relu
          name: activation_82
          trainable: *id004
        inbound_nodes:
        - - - batch_normalization_82
            - 0
            - 0
            - {}
        name: activation_82
      - class_name: Conv2D
        config:
          activation: linear
          activity_regularizer: null
          bias_constraint: null
          bias_initializer:
            class_name: Zeros
            config: {}
          bias_regularizer: null
          data_format: channels_last
          dilation_rate: *id001
          filters: 384
          kernel_constraint: null
          kernel_initializer:
            class_name: VarianceScaling
            config: {distribution: uniform, mode: fan_avg, scale: 1.0, seed: null}
          kernel_regularizer: null
          kernel_size: !!python/tuple [1, 3]
          name: conv2d_81
          padding: same
          strides: *id066
          trainable: *id004
          use_bias: false
        inbound_nodes:
        - - - activation_78
            - 0
            - 0
            - {}
        name: conv2d_81
      - class_name: Conv2D
        config:
          activation: linear
          activity_regularizer: null
          bias_constraint: null
          bias_initializer:
            class_name: Zeros
            config: {}
          bias_regularizer: null
          data_format: channels_last
          dilation_rate: *id001
          filters: 384
          kernel_constraint: null
          kernel_initializer:
            class_name: VarianceScaling
            config: {distribution: uniform, mode: fan_avg, scale: 1.0, seed: null}
          kernel_regularizer: null
          kernel_size: !!python/tuple [3, 1]
          name: conv2d_82
          padding: same
          strides: *id066
          trainable: *id004
          use_bias: false
        inbound_nodes:
        - - - activation_78
            - 0
            - 0
            - {}
        name: conv2d_82
      - class_name: Conv2D
        config:
          activation: linear
          activity_regularizer: null
          bias_constraint: null
          bias_initializer:
            class_name: Zeros
            config: {}
          bias_regularizer: null
          data_format: channels_last
          dilation_rate: *id001
          filters: 384
          kernel_constraint: null
          kernel_initializer:
            class_name: VarianceScaling
            config: {distribution: uniform, mode: fan_avg, scale: 1.0, seed: null}
          kernel_regularizer: null
          kernel_size: !!python/tuple [1, 3]
          name: conv2d_85
          padding: same
          strides: *id066
          trainable: *id004
          use_bias: false
        inbound_nodes:
        - - - activation_82
            - 0
            - 0
            - {}
        name: conv2d_85
      - class_name: Conv2D
        config:
          activation: linear
          activity_regularizer: null
          bias_constraint: null
          bias_initializer:
            class_name: Zeros
            config: {}
          bias_regularizer: null
          data_format: channels_last
          dilation_rate: *id001
          filters: 384
          kernel_constraint: null
          kernel_initializer:
            class_name: VarianceScaling
            config: {distribution: uniform, mode: fan_avg, scale: 1.0, seed: null}
          kernel_regularizer: null
          kernel_size: !!python/tuple [3, 1]
          name: conv2d_86
          padding: same
          strides: *id066
          trainable: *id004
          use_bias: false
        inbound_nodes:
        - - - activation_82
            - 0
            - 0
            - {}
        name: conv2d_86
      - class_name: AveragePooling2D
        config:
          data_format: channels_last
          name: average_pooling2d_8
          padding: same
          pool_size: &id081 !!python/tuple [3, 3]
          strides: &id082 !!python/tuple [1, 1]
          trainable: *id004
        inbound_nodes:
        - - - mixed8
            - 0
            - 0
            - {}
        name: average_pooling2d_8
      - class_name: Conv2D
        config:
          activation: linear
          activity_regularizer: null
          bias_constraint: null
          bias_initializer:
            class_name: Zeros
            config: {}
          bias_regularizer: null
          data_format: channels_last
          dilation_rate: *id001
          filters: 320
          kernel_constraint: null
          kernel_initializer:
            class_name: VarianceScaling
            config: {distribution: uniform, mode: fan_avg, scale: 1.0, seed: null}
          kernel_regularizer: null
          kernel_size: !!python/tuple [1, 1]
          name: conv2d_79
          padding: same
          strides: *id066
          trainable: *id004
          use_bias: false
        inbound_nodes:
        - - - mixed8
            - 0
            - 0
            - {}
        name: conv2d_79
      - class_name: BatchNormalization
        config:
          axis: 3
          beta_constraint: null
          beta_initializer:
            class_name: Zeros
            config: {}
          beta_regularizer: null
          center: true
          epsilon: 0.001
          gamma_constraint: null
          gamma_initializer:
            class_name: Ones
            config: {}
          gamma_regularizer: null
          momentum: 0.99
          moving_mean_initializer:
            class_name: Zeros
            config: {}
          moving_variance_initializer:
            class_name: Ones
            config: {}
          name: batch_normalization_79
          scale: false
          trainable: *id004
        inbound_nodes:
        - - - conv2d_81
            - 0
            - 0
            - {}
        name: batch_normalization_79
      - class_name: BatchNormalization
        config:
          axis: 3
          beta_constraint: null
          beta_initializer:
            class_name: Zeros
            config: {}
          beta_regularizer: null
          center: true
          epsilon: 0.001
          gamma_constraint: null
          gamma_initializer:
            class_name: Ones
            config: {}
          gamma_regularizer: null
          momentum: 0.99
          moving_mean_initializer:
            class_name: Zeros
            config: {}
          moving_variance_initializer:
            class_name: Ones
            config: {}
          name: batch_normalization_80
          scale: false
          trainable: *id004
        inbound_nodes:
        - - - conv2d_82
            - 0
            - 0
            - {}
        name: batch_normalization_80
      - class_name: BatchNormalization
        config:
          axis: 3
          beta_constraint: null
          beta_initializer:
            class_name: Zeros
            config: {}
          beta_regularizer: null
          center: true
          epsilon: 0.001
          gamma_constraint: null
          gamma_initializer:
            class_name: Ones
            config: {}
          gamma_regularizer: null
          momentum: 0.99
          moving_mean_initializer:
            class_name: Zeros
            config: {}
          moving_variance_initializer:
            class_name: Ones
            config: {}
          name: batch_normalization_83
          scale: false
          trainable: *id004
        inbound_nodes:
        - - - conv2d_85
            - 0
            - 0
            - {}
        name: batch_normalization_83
      - class_name: BatchNormalization
        config:
          axis: 3
          beta_constraint: null
          beta_initializer:
            class_name: Zeros
            config: {}
          beta_regularizer: null
          center: true
          epsilon: 0.001
          gamma_constraint: null
          gamma_initializer:
            class_name: Ones
            config: {}
          gamma_regularizer: null
          momentum: 0.99
          moving_mean_initializer:
            class_name: Zeros
            config: {}
          moving_variance_initializer:
            class_name: Ones
            config: {}
          name: batch_normalization_84
          scale: false
          trainable: *id004
        inbound_nodes:
        - - - conv2d_86
            - 0
            - 0
            - {}
        name: batch_normalization_84
      - class_name: Conv2D
        config:
          activation: linear
          activity_regularizer: null
          bias_constraint: null
          bias_initializer:
            class_name: Zeros
            config: {}
          bias_regularizer: null
          data_format: channels_last
          dilation_rate: *id001
          filters: 192
          kernel_constraint: null
          kernel_initializer:
            class_name: VarianceScaling
            config: {distribution: uniform, mode: fan_avg, scale: 1.0, seed: null}
          kernel_regularizer: null
          kernel_size: !!python/tuple [1, 1]
          name: conv2d_87
          padding: same
          strides: *id066
          trainable: *id004
          use_bias: false
        inbound_nodes:
        - - - average_pooling2d_8
            - 0
            - 0
            - {}
        name: conv2d_87
      - class_name: BatchNormalization
        config:
          axis: 3
          beta_constraint: null
          beta_initializer:
            class_name: Zeros
            config: {}
          beta_regularizer: null
          center: true
          epsilon: 0.001
          gamma_constraint: null
          gamma_initializer:
            class_name: Ones
            config: {}
          gamma_regularizer: null
          momentum: 0.99
          moving_mean_initializer:
            class_name: Zeros
            config: {}
          moving_variance_initializer:
            class_name: Ones
            config: {}
          name: batch_normalization_77
          scale: false
          trainable: *id004
        inbound_nodes:
        - - - conv2d_79
            - 0
            - 0
            - {}
        name: batch_normalization_77
      - class_name: Activation
        config:
          activation: relu
          name: activation_79
          trainable: *id004
        inbound_nodes:
        - - - batch_normalization_79
            - 0
            - 0
            - {}
        name: activation_79
      - class_name: Activation
        config:
          activation: relu
          name: activation_80
          trainable: *id004
        inbound_nodes:
        - - - batch_normalization_80
            - 0
            - 0
            - {}
        name: activation_80
      - class_name: Activation
        config:
          activation: relu
          name: activation_83
          trainable: *id004
        inbound_nodes:
        - - - batch_normalization_83
            - 0
            - 0
            - {}
        name: activation_83
      - class_name: Activation
        config:
          activation: relu
          name: activation_84
          trainable: *id004
        inbound_nodes:
        - - - batch_normalization_84
            - 0
            - 0
            - {}
        name: activation_84
      - class_name: BatchNormalization
        config:
          axis: 3
          beta_constraint: null
          beta_initializer:
            class_name: Zeros
            config: {}
          beta_regularizer: null
          center: true
          epsilon: 0.001
          gamma_constraint: null
          gamma_initializer:
            class_name: Ones
            config: {}
          gamma_regularizer: null
          momentum: 0.99
          moving_mean_initializer:
            class_name: Zeros
            config: {}
          moving_variance_initializer:
            class_name: Ones
            config: {}
          name: batch_normalization_85
          scale: false
          trainable: *id004
        inbound_nodes:
        - - - conv2d_87
            - 0
            - 0
            - {}
        name: batch_normalization_85
      - class_name: Activation
        config:
          activation: relu
          name: activation_77
          trainable: *id004
        inbound_nodes:
        - - - batch_normalization_77
            - 0
            - 0
            - {}
        name: activation_77
      - class_name: Concatenate
        config:
          axis: 3
          name: mixed9_0
          trainable: *id004
        inbound_nodes:
        - - - activation_79
            - 0
            - 0
            - &id078 {}
          - - activation_80
            - 0
            - 0
            - *id078
        name: mixed9_0
      - class_name: Concatenate
        config:
          axis: 3
          name: concatenate_1
          trainable: *id004
        inbound_nodes:
        - - - activation_83
            - 0
            - 0
            - &id079 {}
          - - activation_84
            - 0
            - 0
            - *id079
        name: concatenate_1
      - class_name: Activation
        config:
          activation: relu
          name: activation_85
          trainable: *id004
        inbound_nodes:
        - - - batch_normalization_85
            - 0
            - 0
            - {}
        name: activation_85
      - class_name: Concatenate
        config:
          axis: 3
          name: mixed9
          trainable: *id004
        inbound_nodes:
        - - - activation_77
            - 0
            - 0
            - &id080 {}
          - - mixed9_0
            - 0
            - 0
            - *id080
          - - concatenate_1
            - 0
            - 0
            - *id080
          - - activation_85
            - 0
            - 0
            - *id080
        name: mixed9
      - class_name: Conv2D
        config:
          activation: linear
          activity_regularizer: null
          bias_constraint: null
          bias_initializer:
            class_name: Zeros
            config: {}
          bias_regularizer: null
          data_format: channels_last
          dilation_rate: *id001
          filters: 448
          kernel_constraint: null
          kernel_initializer:
            class_name: VarianceScaling
            config: {distribution: uniform, mode: fan_avg, scale: 1.0, seed: null}
          kernel_regularizer: null
          kernel_size: !!python/tuple [1, 1]
          name: conv2d_92
          padding: same
          strides: *id066
          trainable: *id065
          use_bias: false
        inbound_nodes:
        - - - mixed9
            - 0
            - 0
            - {}
        name: conv2d_92
      - class_name: BatchNormalization
        config:
          axis: 3
          beta_constraint: null
          beta_initializer:
            class_name: Zeros
            config: {}
          beta_regularizer: null
          center: true
          epsilon: 0.001
          gamma_constraint: null
          gamma_initializer:
            class_name: Ones
            config: {}
          gamma_regularizer: null
          momentum: 0.99
          moving_mean_initializer:
            class_name: Zeros
            config: {}
          moving_variance_initializer:
            class_name: Ones
            config: {}
          name: batch_normalization_90
          scale: false
          trainable: *id065
        inbound_nodes:
        - - - conv2d_92
            - 0
            - 0
            - {}
        name: batch_normalization_90
      - class_name: Activation
        config:
          activation: relu
          name: activation_90
          trainable: *id004
        inbound_nodes:
        - - - batch_normalization_90
            - 0
            - 0
            - {}
        name: activation_90
      - class_name: Conv2D
        config:
          activation: linear
          activity_regularizer: null
          bias_constraint: null
          bias_initializer:
            class_name: Zeros
            config: {}
          bias_regularizer: null
          data_format: channels_last
          dilation_rate: *id001
          filters: 384
          kernel_constraint: null
          kernel_initializer:
            class_name: VarianceScaling
            config: {distribution: uniform, mode: fan_avg, scale: 1.0, seed: null}
          kernel_regularizer: null
          kernel_size: !!python/tuple [1, 1]
          name: conv2d_89
          padding: same
          strides: *id066
          trainable: *id065
          use_bias: false
        inbound_nodes:
        - - - mixed9
            - 0
            - 0
            - {}
        name: conv2d_89
      - class_name: Conv2D
        config:
          activation: linear
          activity_regularizer: null
          bias_constraint: null
          bias_initializer:
            class_name: Zeros
            config: {}
          bias_regularizer: null
          data_format: channels_last
          dilation_rate: *id001
          filters: 384
          kernel_constraint: null
          kernel_initializer:
            class_name: VarianceScaling
            config: {distribution: uniform, mode: fan_avg, scale: 1.0, seed: null}
          kernel_regularizer: null
          kernel_size: !!python/tuple [3, 3]
          name: conv2d_93
          padding: same
          strides: *id066
          trainable: *id065
          use_bias: false
        inbound_nodes:
        - - - activation_90
            - 0
            - 0
            - {}
        name: conv2d_93
      - class_name: BatchNormalization
        config:
          axis: 3
          beta_constraint: null
          beta_initializer:
            class_name: Zeros
            config: {}
          beta_regularizer: null
          center: true
          epsilon: 0.001
          gamma_constraint: null
          gamma_initializer:
            class_name: Ones
            config: {}
          gamma_regularizer: null
          momentum: 0.99
          moving_mean_initializer:
            class_name: Zeros
            config: {}
          moving_variance_initializer:
            class_name: Ones
            config: {}
          name: batch_normalization_87
          scale: false
          trainable: *id065
        inbound_nodes:
        - - - conv2d_89
            - 0
            - 0
            - {}
        name: batch_normalization_87
      - class_name: BatchNormalization
        config:
          axis: 3
          beta_constraint: null
          beta_initializer:
            class_name: Zeros
            config: {}
          beta_regularizer: null
          center: true
          epsilon: 0.001
          gamma_constraint: null
          gamma_initializer:
            class_name: Ones
            config: {}
          gamma_regularizer: null
          momentum: 0.99
          moving_mean_initializer:
            class_name: Zeros
            config: {}
          moving_variance_initializer:
            class_name: Ones
            config: {}
          name: batch_normalization_91
          scale: false
          trainable: *id065
        inbound_nodes:
        - - - conv2d_93
            - 0
            - 0
            - {}
        name: batch_normalization_91
      - class_name: Activation
        config:
          activation: relu
          name: activation_87
          trainable: *id004
        inbound_nodes:
        - - - batch_normalization_87
            - 0
            - 0
            - {}
        name: activation_87
      - class_name: Activation
        config:
          activation: relu
          name: activation_91
          trainable: *id004
        inbound_nodes:
        - - - batch_normalization_91
            - 0
            - 0
            - {}
        name: activation_91
      - class_name: Conv2D
        config:
          activation: linear
          activity_regularizer: null
          bias_constraint: null
          bias_initializer:
            class_name: Zeros
            config: {}
          bias_regularizer: null
          data_format: channels_last
          dilation_rate: *id001
          filters: 384
          kernel_constraint: null
          kernel_initializer:
            class_name: VarianceScaling
            config: {distribution: uniform, mode: fan_avg, scale: 1.0, seed: null}
          kernel_regularizer: null
          kernel_size: !!python/tuple [1, 3]
          name: conv2d_90
          padding: same
          strides: *id066
          trainable: *id065
          use_bias: false
        inbound_nodes:
        - - - activation_87
            - 0
            - 0
            - {}
        name: conv2d_90
      - class_name: Conv2D
        config:
          activation: linear
          activity_regularizer: null
          bias_constraint: null
          bias_initializer:
            class_name: Zeros
            config: {}
          bias_regularizer: null
          data_format: channels_last
          dilation_rate: *id001
          filters: 384
          kernel_constraint: null
          kernel_initializer:
            class_name: VarianceScaling
            config: {distribution: uniform, mode: fan_avg, scale: 1.0, seed: null}
          kernel_regularizer: null
          kernel_size: !!python/tuple [3, 1]
          name: conv2d_91
          padding: same
          strides: *id066
          trainable: *id065
          use_bias: false
        inbound_nodes:
        - - - activation_87
            - 0
            - 0
            - {}
        name: conv2d_91
      - class_name: Conv2D
        config:
          activation: linear
          activity_regularizer: null
          bias_constraint: null
          bias_initializer:
            class_name: Zeros
            config: {}
          bias_regularizer: null
          data_format: channels_last
          dilation_rate: *id001
          filters: 384
          kernel_constraint: null
          kernel_initializer:
            class_name: VarianceScaling
            config: {distribution: uniform, mode: fan_avg, scale: 1.0, seed: null}
          kernel_regularizer: null
          kernel_size: !!python/tuple [1, 3]
          name: conv2d_94
          padding: same
          strides: *id066
          trainable: *id065
          use_bias: false
        inbound_nodes:
        - - - activation_91
            - 0
            - 0
            - {}
        name: conv2d_94
      - class_name: Conv2D
        config:
          activation: linear
          activity_regularizer: null
          bias_constraint: null
          bias_initializer:
            class_name: Zeros
            config: {}
          bias_regularizer: null
          data_format: channels_last
          dilation_rate: *id001
          filters: 384
          kernel_constraint: null
          kernel_initializer:
            class_name: VarianceScaling
            config: {distribution: uniform, mode: fan_avg, scale: 1.0, seed: null}
          kernel_regularizer: null
          kernel_size: !!python/tuple [3, 1]
          name: conv2d_95
          padding: same
          strides: *id066
          trainable: *id065
          use_bias: false
        inbound_nodes:
        - - - activation_91
            - 0
            - 0
            - {}
        name: conv2d_95
      - class_name: AveragePooling2D
        config:
          data_format: channels_last
          name: average_pooling2d_9
          padding: same
          pool_size: *id081
          strides: *id082
          trainable: *id004
        inbound_nodes:
        - - - mixed9
            - 0
            - 0
            - {}
        name: average_pooling2d_9
      - class_name: Conv2D
        config:
          activation: linear
          activity_regularizer: null
          bias_constraint: null
          bias_initializer:
            class_name: Zeros
            config: {}
          bias_regularizer: null
          data_format: channels_last
          dilation_rate: *id001
          filters: 320
          kernel_constraint: null
          kernel_initializer:
            class_name: VarianceScaling
            config: {distribution: uniform, mode: fan_avg, scale: 1.0, seed: null}
          kernel_regularizer: null
          kernel_size: !!python/tuple [1, 1]
          name: conv2d_88
          padding: same
          strides: *id066
          trainable: *id065
          use_bias: false
        inbound_nodes:
        - - - mixed9
            - 0
            - 0
            - {}
        name: conv2d_88
      - class_name: BatchNormalization
        config:
          axis: 3
          beta_constraint: null
          beta_initializer:
            class_name: Zeros
            config: {}
          beta_regularizer: null
          center: true
          epsilon: 0.001
          gamma_constraint: null
          gamma_initializer:
            class_name: Ones
            config: {}
          gamma_regularizer: null
          momentum: 0.99
          moving_mean_initializer:
            class_name: Zeros
            config: {}
          moving_variance_initializer:
            class_name: Ones
            config: {}
          name: batch_normalization_88
          scale: false
          trainable: *id065
        inbound_nodes:
        - - - conv2d_90
            - 0
            - 0
            - {}
        name: batch_normalization_88
      - class_name: BatchNormalization
        config:
          axis: 3
          beta_constraint: null
          beta_initializer:
            class_name: Zeros
            config: {}
          beta_regularizer: null
          center: true
          epsilon: 0.001
          gamma_constraint: null
          gamma_initializer:
            class_name: Ones
            config: {}
          gamma_regularizer: null
          momentum: 0.99
          moving_mean_initializer:
            class_name: Zeros
            config: {}
          moving_variance_initializer:
            class_name: Ones
            config: {}
          name: batch_normalization_89
          scale: false
          trainable: *id065
        inbound_nodes:
        - - - conv2d_91
            - 0
            - 0
            - {}
        name: batch_normalization_89
      - class_name: BatchNormalization
        config:
          axis: 3
          beta_constraint: null
          beta_initializer:
            class_name: Zeros
            config: {}
          beta_regularizer: null
          center: true
          epsilon: 0.001
          gamma_constraint: null
          gamma_initializer:
            class_name: Ones
            config: {}
          gamma_regularizer: null
          momentum: 0.99
          moving_mean_initializer:
            class_name: Zeros
            config: {}
          moving_variance_initializer:
            class_name: Ones
            config: {}
          name: batch_normalization_92
          scale: false
          trainable: *id065
        inbound_nodes:
        - - - conv2d_94
            - 0
            - 0
            - {}
        name: batch_normalization_92
      - class_name: BatchNormalization
        config:
          axis: 3
          beta_constraint: null
          beta_initializer:
            class_name: Zeros
            config: {}
          beta_regularizer: null
          center: true
          epsilon: 0.001
          gamma_constraint: null
          gamma_initializer:
            class_name: Ones
            config: {}
          gamma_regularizer: null
          momentum: 0.99
          moving_mean_initializer:
            class_name: Zeros
            config: {}
          moving_variance_initializer:
            class_name: Ones
            config: {}
          name: batch_normalization_93
          scale: false
          trainable: *id065
        inbound_nodes:
        - - - conv2d_95
            - 0
            - 0
            - {}
        name: batch_normalization_93
      - class_name: Conv2D
        config:
          activation: linear
          activity_regularizer: null
          bias_constraint: null
          bias_initializer:
            class_name: Zeros
            config: {}
          bias_regularizer: null
          data_format: channels_last
          dilation_rate: *id001
          filters: 192
          kernel_constraint: null
          kernel_initializer:
            class_name: VarianceScaling
            config: {distribution: uniform, mode: fan_avg, scale: 1.0, seed: null}
          kernel_regularizer: null
          kernel_size: !!python/tuple [1, 1]
          name: conv2d_96
          padding: same
          strides: *id066
          trainable: *id065
          use_bias: false
        inbound_nodes:
        - - - average_pooling2d_9
            - 0
            - 0
            - {}
        name: conv2d_96
      - class_name: BatchNormalization
        config:
          axis: 3
          beta_constraint: null
          beta_initializer:
            class_name: Zeros
            config: {}
          beta_regularizer: null
          center: true
          epsilon: 0.001
          gamma_constraint: null
          gamma_initializer:
            class_name: Ones
            config: {}
          gamma_regularizer: null
          momentum: 0.99
          moving_mean_initializer:
            class_name: Zeros
            config: {}
          moving_variance_initializer:
            class_name: Ones
            config: {}
          name: batch_normalization_86
          scale: false
          trainable: *id065
        inbound_nodes:
        - - - conv2d_88
            - 0
            - 0
            - {}
        name: batch_normalization_86
      - class_name: Activation
        config:
          activation: relu
          name: activation_88
          trainable: *id004
        inbound_nodes:
        - - - batch_normalization_88
            - 0
            - 0
            - {}
        name: activation_88
      - class_name: Activation
        config:
          activation: relu
          name: activation_89
          trainable: *id004
        inbound_nodes:
        - - - batch_normalization_89
            - 0
            - 0
            - {}
        name: activation_89
      - class_name: Activation
        config:
          activation: relu
          name: activation_92
          trainable: *id004
        inbound_nodes:
        - - - batch_normalization_92
            - 0
            - 0
            - {}
        name: activation_92
      - class_name: Activation
        config:
          activation: relu
          name: activation_93
          trainable: *id004
        inbound_nodes:
        - - - batch_normalization_93
            - 0
            - 0
            - {}
        name: activation_93
      - class_name: BatchNormalization
        config:
          axis: 3
          beta_constraint: null
          beta_initializer:
            class_name: Zeros
            config: {}
          beta_regularizer: null
          center: true
          epsilon: 0.001
          gamma_constraint: null
          gamma_initializer:
            class_name: Ones
            config: {}
          gamma_regularizer: null
          momentum: 0.99
          moving_mean_initializer:
            class_name: Zeros
            config: {}
          moving_variance_initializer:
            class_name: Ones
            config: {}
          name: batch_normalization_94
          scale: false
          trainable: *id065
        inbound_nodes:
        - - - conv2d_96
            - 0
            - 0
            - {}
        name: batch_normalization_94
      - class_name: Activation
        config:
          activation: relu
          name: activation_86
          trainable: *id004
        inbound_nodes:
        - - - batch_normalization_86
            - 0
            - 0
            - {}
        name: activation_86
      - class_name: Concatenate
        config:
          axis: 3
          name: mixed9_1
          trainable: *id004
        inbound_nodes:
        - - - activation_88
            - 0
            - 0
            - &id083 {}
          - - activation_89
            - 0
            - 0
            - *id083
        name: mixed9_1
      - class_name: Concatenate
        config:
          axis: 3
          name: concatenate_2
          trainable: *id004
        inbound_nodes:
        - - - activation_92
            - 0
            - 0
            - &id084 {}
          - - activation_93
            - 0
            - 0
            - *id084
        name: concatenate_2
      - class_name: Activation
        config:
          activation: relu
          name: activation_94
          trainable: *id004
        inbound_nodes:
        - - - batch_normalization_94
            - 0
            - 0
            - {}
        name: activation_94
      - class_name: Concatenate
        config:
          axis: 3
          name: mixed10
          trainable: *id004
        inbound_nodes:
        - - - activation_86
            - 0
            - 0
            - &id085 {}
          - - mixed9_1
            - 0
            - 0
            - *id085
          - - concatenate_2
            - 0
            - 0
            - *id085
          - - activation_94
            - 0
            - 0
            - *id085
        name: mixed10
      - class_name: GlobalMaxPooling2D
        config:
          data_format: channels_last
          name: global_max_pooling2d_1
          trainable: *id004
        inbound_nodes:
        - - - mixed10
            - 0
            - 0
            - {}
        name: global_max_pooling2d_1
      name: inception_v3__1
      output_layers:
      - [global_max_pooling2d_1, 0, 0]
    inbound_nodes:
    - - - conv2d_2__1
        - 0
        - 0
        - {}
    name: inception_v3__1
  - class_name: BatchNormalization
    config:
      axis: -1
      beta_constraint: null
      beta_initializer:
        class_name: Zeros
        config: {}
      beta_regularizer: null
      center: true
      epsilon: 0.001
      gamma_constraint: null
      gamma_initializer:
        class_name: Ones
        config: {}
      gamma_regularizer: null
      momentum: 0.99
      moving_mean_initializer:
        class_name: Zeros
        config: {}
      moving_variance_initializer:
        class_name: Ones
        config: {}
      name: batch_normalization_95
      scale: true
      trainable: true
    inbound_nodes:
    - - - densenet121__0
        - 1
        - 0
        - {}
    name: batch_normalization_95
  - class_name: BatchNormalization
    config:
      axis: -1
      beta_constraint: null
      beta_initializer:
        class_name: Zeros
        config: {}
      beta_regularizer: null
      center: true
      epsilon: 0.001
      gamma_constraint: null
      gamma_initializer:
        class_name: Ones
        config: {}
      gamma_regularizer: null
      momentum: 0.99
      moving_mean_initializer:
        class_name: Zeros
        config: {}
      moving_variance_initializer:
        class_name: Ones
        config: {}
      name: batch_normalization_96
      scale: true
      trainable: true
    inbound_nodes:
    - - - inception_v3__1
        - 1
        - 0
        - {}
    name: batch_normalization_96
  - class_name: Dropout
    config: {name: dropout_1, noise_shape: null, rate: 0.3, seed: null, trainable: true}
    inbound_nodes:
    - - - batch_normalization_95
        - 0
        - 0
        - {}
    name: dropout_1
  - class_name: Dropout
    config: {name: dropout_2, noise_shape: null, rate: 0.3, seed: null, trainable: true}
    inbound_nodes:
    - - - batch_normalization_96
        - 0
        - 0
        - {}
    name: dropout_2
  - class_name: Dense
    config:
      activation: linear
      activity_regularizer: null
      bias_constraint: null
      bias_initializer:
        class_name: Zeros
        config: {}
      bias_regularizer: null
      kernel_constraint: null
      kernel_initializer:
        class_name: VarianceScaling
        config: {distribution: uniform, mode: fan_avg, scale: 1.0, seed: null}
      kernel_regularizer: null
      name: dense_1
      trainable: true
      units: 64
      use_bias: true
    inbound_nodes:
    - - - dropout_1
        - 0
        - 0
        - {}
    name: dense_1
  - class_name: Dense
    config:
      activation: linear
      activity_regularizer: null
      bias_constraint: null
      bias_initializer:
        class_name: Zeros
        config: {}
      bias_regularizer: null
      kernel_constraint: null
      kernel_initializer:
        class_name: VarianceScaling
        config: {distribution: uniform, mode: fan_avg, scale: 1.0, seed: null}
      kernel_regularizer: null
      name: dense_2
      trainable: true
      units: 64
      use_bias: true
    inbound_nodes:
    - - - dropout_2
        - 0
        - 0
        - {}
    name: dense_2
  - class_name: Multiply
    config: {name: multiply_1, trainable: true}
    inbound_nodes:
    - - - dense_1
        - 0
        - 0
        - &id086 {}
      - - dense_2
        - 0
        - 0
        - *id086
    name: multiply_1
  - class_name: BatchNormalization
    config:
      axis: -1
      beta_constraint: null
      beta_initializer:
        class_name: Zeros
        config: {}
      beta_regularizer: null
      center: true
      epsilon: 0.001
      gamma_constraint: null
      gamma_initializer:
        class_name: Ones
        config: {}
      gamma_regularizer: null
      momentum: 0.99
      moving_mean_initializer:
        class_name: Zeros
        config: {}
      moving_variance_initializer:
        class_name: Ones
        config: {}
      name: batch_normalization_97
      scale: true
      trainable: true
    inbound_nodes:
    - - - multiply_1
        - 0
        - 0
        - {}
    name: batch_normalization_97
  - class_name: Activation
    config: {activation: relu, name: activation_95, trainable: true}
    inbound_nodes:
    - - - batch_normalization_97
        - 0
        - 0
        - {}
    name: activation_95
  - class_name: Dense
    config:
      activation: softmax
      activity_regularizer: null
      bias_constraint: null
      bias_initializer:
        class_name: Zeros
        config: {}
      bias_regularizer: null
      kernel_constraint: null
      kernel_initializer:
        class_name: VarianceScaling
        config: {distribution: uniform, mode: fan_avg, scale: 1.0, seed: null}
      kernel_regularizer: null
      name: dense_3
      trainable: true
      units: 2
      use_bias: true
    inbound_nodes:
    - - - activation_95
        - 0
        - 0
        - {}
    name: dense_3
  name: model_3
  output_layers:
  - [dense_3, 0, 0]
keras_version: 2.2.2
