backend: tensorflow
class_name: Model
config:
  input_layers:
  - [data_freq_time, 0, 0]
  - [data_dm_time, 0, 0]
  layers:
  - class_name: InputLayer
    config:
      batch_input_shape: !!python/tuple [null, 256, 256, 1]
      dtype: float32
      name: data_freq_time
      sparse: false
    inbound_nodes: []
    name: data_freq_time
  - class_name: InputLayer
    config:
      batch_input_shape: !!python/tuple [null, 256, 256, 1]
      dtype: float32
      name: data_dm_time
      sparse: false
    inbound_nodes: []
    name: data_dm_time
  - class_name: Conv2D
    config:
      activation: relu
      activity_regularizer: null
      bias_constraint: null
      bias_initializer:
        class_name: Zeros
        config: {}
      bias_regularizer: null
      data_format: channels_last
      dilation_rate: &id001 !!python/tuple [1, 1]
      filters: 3
      kernel_constraint: null
      kernel_initializer:
        class_name: VarianceScaling
        config: {distribution: uniform, mode: fan_avg, scale: 1.0, seed: null}
      kernel_regularizer: null
      kernel_size: &id002 !!python/tuple [2, 2]
      name: conv2d_1__0
      padding: valid
      strides: &id003 !!python/tuple [1, 1]
      trainable: true
      use_bias: true
    inbound_nodes:
    - - - data_freq_time
        - 0
        - 0
        - {}
    name: conv2d_1__0
  - class_name: Conv2D
    config:
      activation: relu
      activity_regularizer: null
      bias_constraint: null
      bias_initializer:
        class_name: Zeros
        config: {}
      bias_regularizer: null
      data_format: channels_last
      dilation_rate: *id001
      filters: 3
      kernel_constraint: null
      kernel_initializer:
        class_name: VarianceScaling
        config: {distribution: uniform, mode: fan_avg, scale: 1.0, seed: null}
      kernel_regularizer: null
      kernel_size: *id002
      name: conv2d_2__1
      padding: valid
      strides: *id003
      trainable: true
      use_bias: true
    inbound_nodes:
    - - - data_dm_time
        - 0
        - 0
        - {}
    name: conv2d_2__1
  - class_name: Model
    config:
      input_layers:
      - [input_2, 0, 0]
      layers:
      - class_name: InputLayer
        config:
          batch_input_shape: !!python/tuple [null, null, null, 3]
          dtype: float32
          name: input_2
          sparse: false
        inbound_nodes: []
        name: input_2
      - class_name: Conv2D
        config:
          activation: relu
          activity_regularizer: null
          bias_constraint: null
          bias_initializer:
            class_name: Zeros
            config: {}
          bias_regularizer: null
          data_format: channels_last
          dilation_rate: *id001
          filters: 64
          kernel_constraint: null
          kernel_initializer:
            class_name: VarianceScaling
            config: {distribution: uniform, mode: fan_avg, scale: 1.0, seed: null}
          kernel_regularizer: null
          kernel_size: !!python/tuple [3, 3]
          name: block1_conv1
          padding: same
          strides: &id004 !!python/tuple [1, 1]
          trainable: &id005 !!python/object/apply:numpy.core.multiarray.scalar
          - &id006 !!python/object/apply:numpy.dtype
            args: [b1, 0, 1]
            state: !!python/tuple [3, '|', null, null, null, -1, -1, 0]
          - !!binary |
            AA==
          use_bias: true
        inbound_nodes:
        - - - input_2
            - 0
            - 0
            - {}
        name: block1_conv1
      - class_name: Conv2D
        config:
          activation: relu
          activity_regularizer: null
          bias_constraint: null
          bias_initializer:
            class_name: Zeros
            config: {}
          bias_regularizer: null
          data_format: channels_last
          dilation_rate: *id001
          filters: 64
          kernel_constraint: null
          kernel_initializer:
            class_name: VarianceScaling
            config: {distribution: uniform, mode: fan_avg, scale: 1.0, seed: null}
          kernel_regularizer: null
          kernel_size: !!python/tuple [3, 3]
          name: block1_conv2
          padding: same
          strides: *id004
          trainable: *id005
          use_bias: true
        inbound_nodes:
        - - - block1_conv1
            - 0
            - 0
            - {}
        name: block1_conv2
      - class_name: MaxPooling2D
        config:
          data_format: channels_last
          name: block1_pool
          padding: valid
          pool_size: !!python/tuple [2, 2]
          strides: !!python/tuple [2, 2]
          trainable: *id005
        inbound_nodes:
        - - - block1_conv2
            - 0
            - 0
            - {}
        name: block1_pool
      - class_name: Conv2D
        config:
          activation: relu
          activity_regularizer: null
          bias_constraint: null
          bias_initializer:
            class_name: Zeros
            config: {}
          bias_regularizer: null
          data_format: channels_last
          dilation_rate: *id001
          filters: 128
          kernel_constraint: null
          kernel_initializer:
            class_name: VarianceScaling
            config: {distribution: uniform, mode: fan_avg, scale: 1.0, seed: null}
          kernel_regularizer: null
          kernel_size: !!python/tuple [3, 3]
          name: block2_conv1
          padding: same
          strides: *id004
          trainable: *id005
          use_bias: true
        inbound_nodes:
        - - - block1_pool
            - 0
            - 0
            - {}
        name: block2_conv1
      - class_name: Conv2D
        config:
          activation: relu
          activity_regularizer: null
          bias_constraint: null
          bias_initializer:
            class_name: Zeros
            config: {}
          bias_regularizer: null
          data_format: channels_last
          dilation_rate: *id001
          filters: 128
          kernel_constraint: null
          kernel_initializer:
            class_name: VarianceScaling
            config: {distribution: uniform, mode: fan_avg, scale: 1.0, seed: null}
          kernel_regularizer: null
          kernel_size: !!python/tuple [3, 3]
          name: block2_conv2
          padding: same
          strides: *id004
          trainable: *id005
          use_bias: true
        inbound_nodes:
        - - - block2_conv1
            - 0
            - 0
            - {}
        name: block2_conv2
      - class_name: MaxPooling2D
        config:
          data_format: channels_last
          name: block2_pool
          padding: valid
          pool_size: !!python/tuple [2, 2]
          strides: !!python/tuple [2, 2]
          trainable: *id005
        inbound_nodes:
        - - - block2_conv2
            - 0
            - 0
            - {}
        name: block2_pool
      - class_name: Conv2D
        config:
          activation: relu
          activity_regularizer: null
          bias_constraint: null
          bias_initializer:
            class_name: Zeros
            config: {}
          bias_regularizer: null
          data_format: channels_last
          dilation_rate: *id001
          filters: 256
          kernel_constraint: null
          kernel_initializer:
            class_name: VarianceScaling
            config: {distribution: uniform, mode: fan_avg, scale: 1.0, seed: null}
          kernel_regularizer: null
          kernel_size: !!python/tuple [3, 3]
          name: block3_conv1
          padding: same
          strides: *id004
          trainable: *id005
          use_bias: true
        inbound_nodes:
        - - - block2_pool
            - 0
            - 0
            - {}
        name: block3_conv1
      - class_name: Conv2D
        config:
          activation: relu
          activity_regularizer: null
          bias_constraint: null
          bias_initializer:
            class_name: Zeros
            config: {}
          bias_regularizer: null
          data_format: channels_last
          dilation_rate: *id001
          filters: 256
          kernel_constraint: null
          kernel_initializer:
            class_name: VarianceScaling
            config: {distribution: uniform, mode: fan_avg, scale: 1.0, seed: null}
          kernel_regularizer: null
          kernel_size: !!python/tuple [3, 3]
          name: block3_conv2
          padding: same
          strides: *id004
          trainable: *id005
          use_bias: true
        inbound_nodes:
        - - - block3_conv1
            - 0
            - 0
            - {}
        name: block3_conv2
      - class_name: Conv2D
        config:
          activation: relu
          activity_regularizer: null
          bias_constraint: null
          bias_initializer:
            class_name: Zeros
            config: {}
          bias_regularizer: null
          data_format: channels_last
          dilation_rate: *id001
          filters: 256
          kernel_constraint: null
          kernel_initializer:
            class_name: VarianceScaling
            config: {distribution: uniform, mode: fan_avg, scale: 1.0, seed: null}
          kernel_regularizer: null
          kernel_size: !!python/tuple [3, 3]
          name: block3_conv3
          padding: same
          strides: *id004
          trainable: *id005
          use_bias: true
        inbound_nodes:
        - - - block3_conv2
            - 0
            - 0
            - {}
        name: block3_conv3
      - class_name: Conv2D
        config:
          activation: relu
          activity_regularizer: null
          bias_constraint: null
          bias_initializer:
            class_name: Zeros
            config: {}
          bias_regularizer: null
          data_format: channels_last
          dilation_rate: *id001
          filters: 256
          kernel_constraint: null
          kernel_initializer:
            class_name: VarianceScaling
            config: {distribution: uniform, mode: fan_avg, scale: 1.0, seed: null}
          kernel_regularizer: null
          kernel_size: !!python/tuple [3, 3]
          name: block3_conv4
          padding: same
          strides: *id004
          trainable: *id005
          use_bias: true
        inbound_nodes:
        - - - block3_conv3
            - 0
            - 0
            - {}
        name: block3_conv4
      - class_name: MaxPooling2D
        config:
          data_format: channels_last
          name: block3_pool
          padding: valid
          pool_size: !!python/tuple [2, 2]
          strides: !!python/tuple [2, 2]
          trainable: *id005
        inbound_nodes:
        - - - block3_conv4
            - 0
            - 0
            - {}
        name: block3_pool
      - class_name: Conv2D
        config:
          activation: relu
          activity_regularizer: null
          bias_constraint: null
          bias_initializer:
            class_name: Zeros
            config: {}
          bias_regularizer: null
          data_format: channels_last
          dilation_rate: *id001
          filters: 512
          kernel_constraint: null
          kernel_initializer:
            class_name: VarianceScaling
            config: {distribution: uniform, mode: fan_avg, scale: 1.0, seed: null}
          kernel_regularizer: null
          kernel_size: !!python/tuple [3, 3]
          name: block4_conv1
          padding: same
          strides: *id004
          trainable: *id005
          use_bias: true
        inbound_nodes:
        - - - block3_pool
            - 0
            - 0
            - {}
        name: block4_conv1
      - class_name: Conv2D
        config:
          activation: relu
          activity_regularizer: null
          bias_constraint: null
          bias_initializer:
            class_name: Zeros
            config: {}
          bias_regularizer: null
          data_format: channels_last
          dilation_rate: *id001
          filters: 512
          kernel_constraint: null
          kernel_initializer:
            class_name: VarianceScaling
            config: {distribution: uniform, mode: fan_avg, scale: 1.0, seed: null}
          kernel_regularizer: null
          kernel_size: !!python/tuple [3, 3]
          name: block4_conv2
          padding: same
          strides: *id004
          trainable: *id005
          use_bias: true
        inbound_nodes:
        - - - block4_conv1
            - 0
            - 0
            - {}
        name: block4_conv2
      - class_name: Conv2D
        config:
          activation: relu
          activity_regularizer: null
          bias_constraint: null
          bias_initializer:
            class_name: Zeros
            config: {}
          bias_regularizer: null
          data_format: channels_last
          dilation_rate: *id001
          filters: 512
          kernel_constraint: null
          kernel_initializer:
            class_name: VarianceScaling
            config: {distribution: uniform, mode: fan_avg, scale: 1.0, seed: null}
          kernel_regularizer: null
          kernel_size: !!python/tuple [3, 3]
          name: block4_conv3
          padding: same
          strides: *id004
          trainable: *id005
          use_bias: true
        inbound_nodes:
        - - - block4_conv2
            - 0
            - 0
            - {}
        name: block4_conv3
      - class_name: Conv2D
        config:
          activation: relu
          activity_regularizer: null
          bias_constraint: null
          bias_initializer:
            class_name: Zeros
            config: {}
          bias_regularizer: null
          data_format: channels_last
          dilation_rate: *id001
          filters: 512
          kernel_constraint: null
          kernel_initializer:
            class_name: VarianceScaling
            config: {distribution: uniform, mode: fan_avg, scale: 1.0, seed: null}
          kernel_regularizer: null
          kernel_size: !!python/tuple [3, 3]
          name: block4_conv4
          padding: same
          strides: *id004
          trainable: *id005
          use_bias: true
        inbound_nodes:
        - - - block4_conv3
            - 0
            - 0
            - {}
        name: block4_conv4
      - class_name: MaxPooling2D
        config:
          data_format: channels_last
          name: block4_pool
          padding: valid
          pool_size: !!python/tuple [2, 2]
          strides: !!python/tuple [2, 2]
          trainable: *id005
        inbound_nodes:
        - - - block4_conv4
            - 0
            - 0
            - {}
        name: block4_pool
      - class_name: Conv2D
        config:
          activation: relu
          activity_regularizer: null
          bias_constraint: null
          bias_initializer:
            class_name: Zeros
            config: {}
          bias_regularizer: null
          data_format: channels_last
          dilation_rate: *id001
          filters: 512
          kernel_constraint: null
          kernel_initializer:
            class_name: VarianceScaling
            config: {distribution: uniform, mode: fan_avg, scale: 1.0, seed: null}
          kernel_regularizer: null
          kernel_size: !!python/tuple [3, 3]
          name: block5_conv1
          padding: same
          strides: *id004
          trainable: *id005
          use_bias: true
        inbound_nodes:
        - - - block4_pool
            - 0
            - 0
            - {}
        name: block5_conv1
      - class_name: Conv2D
        config:
          activation: relu
          activity_regularizer: null
          bias_constraint: null
          bias_initializer:
            class_name: Zeros
            config: {}
          bias_regularizer: null
          data_format: channels_last
          dilation_rate: *id001
          filters: 512
          kernel_constraint: null
          kernel_initializer:
            class_name: VarianceScaling
            config: {distribution: uniform, mode: fan_avg, scale: 1.0, seed: null}
          kernel_regularizer: null
          kernel_size: !!python/tuple [3, 3]
          name: block5_conv2
          padding: same
          strides: *id004
          trainable: &id007 !!python/object/apply:numpy.core.multiarray.scalar
          - *id006
          - !!binary |
            AQ==
          use_bias: true
        inbound_nodes:
        - - - block5_conv1
            - 0
            - 0
            - {}
        name: block5_conv2
      - class_name: Conv2D
        config:
          activation: relu
          activity_regularizer: null
          bias_constraint: null
          bias_initializer:
            class_name: Zeros
            config: {}
          bias_regularizer: null
          data_format: channels_last
          dilation_rate: *id001
          filters: 512
          kernel_constraint: null
          kernel_initializer:
            class_name: VarianceScaling
            config: {distribution: uniform, mode: fan_avg, scale: 1.0, seed: null}
          kernel_regularizer: null
          kernel_size: !!python/tuple [3, 3]
          name: block5_conv3
          padding: same
          strides: *id004
          trainable: *id007
          use_bias: true
        inbound_nodes:
        - - - block5_conv2
            - 0
            - 0
            - {}
        name: block5_conv3
      - class_name: Conv2D
        config:
          activation: relu
          activity_regularizer: null
          bias_constraint: null
          bias_initializer:
            class_name: Zeros
            config: {}
          bias_regularizer: null
          data_format: channels_last
          dilation_rate: *id001
          filters: 512
          kernel_constraint: null
          kernel_initializer:
            class_name: VarianceScaling
            config: {distribution: uniform, mode: fan_avg, scale: 1.0, seed: null}
          kernel_regularizer: null
          kernel_size: !!python/tuple [3, 3]
          name: block5_conv4
          padding: same
          strides: *id004
          trainable: *id007
          use_bias: true
        inbound_nodes:
        - - - block5_conv3
            - 0
            - 0
            - {}
        name: block5_conv4
      - class_name: MaxPooling2D
        config:
          data_format: channels_last
          name: block5_pool
          padding: valid
          pool_size: !!python/tuple [2, 2]
          strides: !!python/tuple [2, 2]
          trainable: *id005
        inbound_nodes:
        - - - block5_conv4
            - 0
            - 0
            - {}
        name: block5_pool
      - class_name: GlobalMaxPooling2D
        config:
          data_format: channels_last
          name: global_max_pooling2d_1
          trainable: *id005
        inbound_nodes:
        - - - block5_pool
            - 0
            - 0
            - {}
        name: global_max_pooling2d_1
      name: vgg19__0
      output_layers:
      - [global_max_pooling2d_1, 0, 0]
    inbound_nodes:
    - - - conv2d_1__0
        - 0
        - 0
        - {}
    name: vgg19__0
  - class_name: Model
    config:
      input_layers:
      - [input_4, 0, 0]
      layers:
      - class_name: InputLayer
        config:
          batch_input_shape: !!python/tuple [null, null, null, 3]
          dtype: float32
          name: input_4
          sparse: false
        inbound_nodes: []
        name: input_4
      - class_name: Conv2D
        config:
          activation: linear
          activity_regularizer: null
          bias_constraint: null
          bias_initializer:
            class_name: Zeros
            config: {}
          bias_regularizer: null
          data_format: channels_last
          dilation_rate: *id001
          filters: 32
          kernel_constraint: null
          kernel_initializer:
            class_name: VarianceScaling
            config: {distribution: uniform, mode: fan_avg, scale: 1.0, seed: null}
          kernel_regularizer: null
          kernel_size: !!python/tuple [3, 3]
          name: conv2d_3
          padding: valid
          strides: !!python/tuple [2, 2]
          trainable: *id005
          use_bias: false
        inbound_nodes:
        - - - input_4
            - 0
            - 0
            - {}
        name: conv2d_3
      - class_name: BatchNormalization
        config:
          axis: 3
          beta_constraint: null
          beta_initializer:
            class_name: Zeros
            config: {}
          beta_regularizer: null
          center: true
          epsilon: 0.001
          gamma_constraint: null
          gamma_initializer:
            class_name: Ones
            config: {}
          gamma_regularizer: null
          momentum: 0.99
          moving_mean_initializer:
            class_name: Zeros
            config: {}
          moving_variance_initializer:
            class_name: Ones
            config: {}
          name: batch_normalization_1
          scale: false
          trainable: *id005
        inbound_nodes:
        - - - conv2d_3
            - 0
            - 0
            - {}
        name: batch_normalization_1
      - class_name: Activation
        config:
          activation: relu
          name: activation_1
          trainable: *id005
        inbound_nodes:
        - - - batch_normalization_1
            - 0
            - 0
            - {}
        name: activation_1
      - class_name: Conv2D
        config:
          activation: linear
          activity_regularizer: null
          bias_constraint: null
          bias_initializer:
            class_name: Zeros
            config: {}
          bias_regularizer: null
          data_format: channels_last
          dilation_rate: *id001
          filters: 32
          kernel_constraint: null
          kernel_initializer:
            class_name: VarianceScaling
            config: {distribution: uniform, mode: fan_avg, scale: 1.0, seed: null}
          kernel_regularizer: null
          kernel_size: !!python/tuple [3, 3]
          name: conv2d_4
          padding: valid
          strides: !!python/tuple [1, 1]
          trainable: *id005
          use_bias: false
        inbound_nodes:
        - - - activation_1
            - 0
            - 0
            - {}
        name: conv2d_4
      - class_name: BatchNormalization
        config:
          axis: 3
          beta_constraint: null
          beta_initializer:
            class_name: Zeros
            config: {}
          beta_regularizer: null
          center: true
          epsilon: 0.001
          gamma_constraint: null
          gamma_initializer:
            class_name: Ones
            config: {}
          gamma_regularizer: null
          momentum: 0.99
          moving_mean_initializer:
            class_name: Zeros
            config: {}
          moving_variance_initializer:
            class_name: Ones
            config: {}
          name: batch_normalization_2
          scale: false
          trainable: *id005
        inbound_nodes:
        - - - conv2d_4
            - 0
            - 0
            - {}
        name: batch_normalization_2
      - class_name: Activation
        config:
          activation: relu
          name: activation_2
          trainable: *id005
        inbound_nodes:
        - - - batch_normalization_2
            - 0
            - 0
            - {}
        name: activation_2
      - class_name: Conv2D
        config:
          activation: linear
          activity_regularizer: null
          bias_constraint: null
          bias_initializer:
            class_name: Zeros
            config: {}
          bias_regularizer: null
          data_format: channels_last
          dilation_rate: *id001
          filters: 64
          kernel_constraint: null
          kernel_initializer:
            class_name: VarianceScaling
            config: {distribution: uniform, mode: fan_avg, scale: 1.0, seed: null}
          kernel_regularizer: null
          kernel_size: !!python/tuple [3, 3]
          name: conv2d_5
          padding: same
          strides: !!python/tuple [1, 1]
          trainable: *id005
          use_bias: false
        inbound_nodes:
        - - - activation_2
            - 0
            - 0
            - {}
        name: conv2d_5
      - class_name: BatchNormalization
        config:
          axis: 3
          beta_constraint: null
          beta_initializer:
            class_name: Zeros
            config: {}
          beta_regularizer: null
          center: true
          epsilon: 0.001
          gamma_constraint: null
          gamma_initializer:
            class_name: Ones
            config: {}
          gamma_regularizer: null
          momentum: 0.99
          moving_mean_initializer:
            class_name: Zeros
            config: {}
          moving_variance_initializer:
            class_name: Ones
            config: {}
          name: batch_normalization_3
          scale: false
          trainable: *id005
        inbound_nodes:
        - - - conv2d_5
            - 0
            - 0
            - {}
        name: batch_normalization_3
      - class_name: Activation
        config:
          activation: relu
          name: activation_3
          trainable: *id005
        inbound_nodes:
        - - - batch_normalization_3
            - 0
            - 0
            - {}
        name: activation_3
      - class_name: MaxPooling2D
        config:
          data_format: channels_last
          name: max_pooling2d_1
          padding: valid
          pool_size: !!python/tuple [3, 3]
          strides: !!python/tuple [2, 2]
          trainable: *id005
        inbound_nodes:
        - - - activation_3
            - 0
            - 0
            - {}
        name: max_pooling2d_1
      - class_name: Conv2D
        config:
          activation: linear
          activity_regularizer: null
          bias_constraint: null
          bias_initializer:
            class_name: Zeros
            config: {}
          bias_regularizer: null
          data_format: channels_last
          dilation_rate: *id001
          filters: 80
          kernel_constraint: null
          kernel_initializer:
            class_name: VarianceScaling
            config: {distribution: uniform, mode: fan_avg, scale: 1.0, seed: null}
          kernel_regularizer: null
          kernel_size: !!python/tuple [1, 1]
          name: conv2d_6
          padding: valid
          strides: !!python/tuple [1, 1]
          trainable: *id005
          use_bias: false
        inbound_nodes:
        - - - max_pooling2d_1
            - 0
            - 0
            - {}
        name: conv2d_6
      - class_name: BatchNormalization
        config:
          axis: 3
          beta_constraint: null
          beta_initializer:
            class_name: Zeros
            config: {}
          beta_regularizer: null
          center: true
          epsilon: 0.001
          gamma_constraint: null
          gamma_initializer:
            class_name: Ones
            config: {}
          gamma_regularizer: null
          momentum: 0.99
          moving_mean_initializer:
            class_name: Zeros
            config: {}
          moving_variance_initializer:
            class_name: Ones
            config: {}
          name: batch_normalization_4
          scale: false
          trainable: *id005
        inbound_nodes:
        - - - conv2d_6
            - 0
            - 0
            - {}
        name: batch_normalization_4
      - class_name: Activation
        config:
          activation: relu
          name: activation_4
          trainable: *id005
        inbound_nodes:
        - - - batch_normalization_4
            - 0
            - 0
            - {}
        name: activation_4
      - class_name: Conv2D
        config:
          activation: linear
          activity_regularizer: null
          bias_constraint: null
          bias_initializer:
            class_name: Zeros
            config: {}
          bias_regularizer: null
          data_format: channels_last
          dilation_rate: *id001
          filters: 192
          kernel_constraint: null
          kernel_initializer:
            class_name: VarianceScaling
            config: {distribution: uniform, mode: fan_avg, scale: 1.0, seed: null}
          kernel_regularizer: null
          kernel_size: !!python/tuple [3, 3]
          name: conv2d_7
          padding: valid
          strides: !!python/tuple [1, 1]
          trainable: *id005
          use_bias: false
        inbound_nodes:
        - - - activation_4
            - 0
            - 0
            - {}
        name: conv2d_7
      - class_name: BatchNormalization
        config:
          axis: 3
          beta_constraint: null
          beta_initializer:
            class_name: Zeros
            config: {}
          beta_regularizer: null
          center: true
          epsilon: 0.001
          gamma_constraint: null
          gamma_initializer:
            class_name: Ones
            config: {}
          gamma_regularizer: null
          momentum: 0.99
          moving_mean_initializer:
            class_name: Zeros
            config: {}
          moving_variance_initializer:
            class_name: Ones
            config: {}
          name: batch_normalization_5
          scale: false
          trainable: *id005
        inbound_nodes:
        - - - conv2d_7
            - 0
            - 0
            - {}
        name: batch_normalization_5
      - class_name: Activation
        config:
          activation: relu
          name: activation_5
          trainable: *id005
        inbound_nodes:
        - - - batch_normalization_5
            - 0
            - 0
            - {}
        name: activation_5
      - class_name: MaxPooling2D
        config:
          data_format: channels_last
          name: max_pooling2d_2
          padding: valid
          pool_size: !!python/tuple [3, 3]
          strides: !!python/tuple [2, 2]
          trainable: *id005
        inbound_nodes:
        - - - activation_5
            - 0
            - 0
            - {}
        name: max_pooling2d_2
      - class_name: Conv2D
        config:
          activation: linear
          activity_regularizer: null
          bias_constraint: null
          bias_initializer:
            class_name: Zeros
            config: {}
          bias_regularizer: null
          data_format: channels_last
          dilation_rate: *id001
          filters: 64
          kernel_constraint: null
          kernel_initializer:
            class_name: VarianceScaling
            config: {distribution: uniform, mode: fan_avg, scale: 1.0, seed: null}
          kernel_regularizer: null
          kernel_size: !!python/tuple [1, 1]
          name: conv2d_11
          padding: same
          strides: !!python/tuple [1, 1]
          trainable: *id005
          use_bias: false
        inbound_nodes:
        - - - max_pooling2d_2
            - 0
            - 0
            - {}
        name: conv2d_11
      - class_name: BatchNormalization
        config:
          axis: 3
          beta_constraint: null
          beta_initializer:
            class_name: Zeros
            config: {}
          beta_regularizer: null
          center: true
          epsilon: 0.001
          gamma_constraint: null
          gamma_initializer:
            class_name: Ones
            config: {}
          gamma_regularizer: null
          momentum: 0.99
          moving_mean_initializer:
            class_name: Zeros
            config: {}
          moving_variance_initializer:
            class_name: Ones
            config: {}
          name: batch_normalization_9
          scale: false
          trainable: *id005
        inbound_nodes:
        - - - conv2d_11
            - 0
            - 0
            - {}
        name: batch_normalization_9
      - class_name: Activation
        config:
          activation: relu
          name: activation_9
          trainable: *id005
        inbound_nodes:
        - - - batch_normalization_9
            - 0
            - 0
            - {}
        name: activation_9
      - class_name: Conv2D
        config:
          activation: linear
          activity_regularizer: null
          bias_constraint: null
          bias_initializer:
            class_name: Zeros
            config: {}
          bias_regularizer: null
          data_format: channels_last
          dilation_rate: *id001
          filters: 48
          kernel_constraint: null
          kernel_initializer:
            class_name: VarianceScaling
            config: {distribution: uniform, mode: fan_avg, scale: 1.0, seed: null}
          kernel_regularizer: null
          kernel_size: !!python/tuple [1, 1]
          name: conv2d_9
          padding: same
          strides: !!python/tuple [1, 1]
          trainable: *id005
          use_bias: false
        inbound_nodes:
        - - - max_pooling2d_2
            - 0
            - 0
            - {}
        name: conv2d_9
      - class_name: Conv2D
        config:
          activation: linear
          activity_regularizer: null
          bias_constraint: null
          bias_initializer:
            class_name: Zeros
            config: {}
          bias_regularizer: null
          data_format: channels_last
          dilation_rate: *id001
          filters: 96
          kernel_constraint: null
          kernel_initializer:
            class_name: VarianceScaling
            config: {distribution: uniform, mode: fan_avg, scale: 1.0, seed: null}
          kernel_regularizer: null
          kernel_size: !!python/tuple [3, 3]
          name: conv2d_12
          padding: same
          strides: !!python/tuple [1, 1]
          trainable: *id005
          use_bias: false
        inbound_nodes:
        - - - activation_9
            - 0
            - 0
            - {}
        name: conv2d_12
      - class_name: BatchNormalization
        config:
          axis: 3
          beta_constraint: null
          beta_initializer:
            class_name: Zeros
            config: {}
          beta_regularizer: null
          center: true
          epsilon: 0.001
          gamma_constraint: null
          gamma_initializer:
            class_name: Ones
            config: {}
          gamma_regularizer: null
          momentum: 0.99
          moving_mean_initializer:
            class_name: Zeros
            config: {}
          moving_variance_initializer:
            class_name: Ones
            config: {}
          name: batch_normalization_7
          scale: false
          trainable: *id005
        inbound_nodes:
        - - - conv2d_9
            - 0
            - 0
            - {}
        name: batch_normalization_7
      - class_name: BatchNormalization
        config:
          axis: 3
          beta_constraint: null
          beta_initializer:
            class_name: Zeros
            config: {}
          beta_regularizer: null
          center: true
          epsilon: 0.001
          gamma_constraint: null
          gamma_initializer:
            class_name: Ones
            config: {}
          gamma_regularizer: null
          momentum: 0.99
          moving_mean_initializer:
            class_name: Zeros
            config: {}
          moving_variance_initializer:
            class_name: Ones
            config: {}
          name: batch_normalization_10
          scale: false
          trainable: *id005
        inbound_nodes:
        - - - conv2d_12
            - 0
            - 0
            - {}
        name: batch_normalization_10
      - class_name: Activation
        config:
          activation: relu
          name: activation_7
          trainable: *id005
        inbound_nodes:
        - - - batch_normalization_7
            - 0
            - 0
            - {}
        name: activation_7
      - class_name: Activation
        config:
          activation: relu
          name: activation_10
          trainable: *id005
        inbound_nodes:
        - - - batch_normalization_10
            - 0
            - 0
            - {}
        name: activation_10
      - class_name: AveragePooling2D
        config:
          data_format: channels_last
          name: average_pooling2d_1
          padding: same
          pool_size: !!python/tuple [3, 3]
          strides: !!python/tuple [1, 1]
          trainable: *id005
        inbound_nodes:
        - - - max_pooling2d_2
            - 0
            - 0
            - {}
        name: average_pooling2d_1
      - class_name: Conv2D
        config:
          activation: linear
          activity_regularizer: null
          bias_constraint: null
          bias_initializer:
            class_name: Zeros
            config: {}
          bias_regularizer: null
          data_format: channels_last
          dilation_rate: *id001
          filters: 96
          kernel_constraint: null
          kernel_initializer:
            class_name: VarianceScaling
            config: {distribution: uniform, mode: fan_avg, scale: 1.0, seed: null}
          kernel_regularizer: null
          kernel_size: !!python/tuple [1, 1]
          name: conv2d_8
          padding: same
          strides: !!python/tuple [1, 1]
          trainable: *id005
          use_bias: false
        inbound_nodes:
        - - - max_pooling2d_2
            - 0
            - 0
            - {}
        name: conv2d_8
      - class_name: Conv2D
        config:
          activation: linear
          activity_regularizer: null
          bias_constraint: null
          bias_initializer:
            class_name: Zeros
            config: {}
          bias_regularizer: null
          data_format: channels_last
          dilation_rate: *id001
          filters: 64
          kernel_constraint: null
          kernel_initializer:
            class_name: VarianceScaling
            config: {distribution: uniform, mode: fan_avg, scale: 1.0, seed: null}
          kernel_regularizer: null
          kernel_size: !!python/tuple [5, 5]
          name: conv2d_10
          padding: same
          strides: !!python/tuple [1, 1]
          trainable: *id005
          use_bias: false
        inbound_nodes:
        - - - activation_7
            - 0
            - 0
            - {}
        name: conv2d_10
      - class_name: Conv2D
        config:
          activation: linear
          activity_regularizer: null
          bias_constraint: null
          bias_initializer:
            class_name: Zeros
            config: {}
          bias_regularizer: null
          data_format: channels_last
          dilation_rate: *id001
          filters: 96
          kernel_constraint: null
          kernel_initializer:
            class_name: VarianceScaling
            config: {distribution: uniform, mode: fan_avg, scale: 1.0, seed: null}
          kernel_regularizer: null
          kernel_size: !!python/tuple [3, 3]
          name: conv2d_13
          padding: same
          strides: !!python/tuple [1, 1]
          trainable: *id005
          use_bias: false
        inbound_nodes:
        - - - activation_10
            - 0
            - 0
            - {}
        name: conv2d_13
      - class_name: Conv2D
        config:
          activation: linear
          activity_regularizer: null
          bias_constraint: null
          bias_initializer:
            class_name: Zeros
            config: {}
          bias_regularizer: null
          data_format: channels_last
          dilation_rate: *id001
          filters: 64
          kernel_constraint: null
          kernel_initializer:
            class_name: VarianceScaling
            config: {distribution: uniform, mode: fan_avg, scale: 1.0, seed: null}
          kernel_regularizer: null
          kernel_size: !!python/tuple [1, 1]
          name: conv2d_14
          padding: same
          strides: !!python/tuple [1, 1]
          trainable: *id005
          use_bias: false
        inbound_nodes:
        - - - average_pooling2d_1
            - 0
            - 0
            - {}
        name: conv2d_14
      - class_name: BatchNormalization
        config:
          axis: 3
          beta_constraint: null
          beta_initializer:
            class_name: Zeros
            config: {}
          beta_regularizer: null
          center: true
          epsilon: 0.001
          gamma_constraint: null
          gamma_initializer:
            class_name: Ones
            config: {}
          gamma_regularizer: null
          momentum: 0.99
          moving_mean_initializer:
            class_name: Zeros
            config: {}
          moving_variance_initializer:
            class_name: Ones
            config: {}
          name: batch_normalization_6
          scale: false
          trainable: *id005
        inbound_nodes:
        - - - conv2d_8
            - 0
            - 0
            - {}
        name: batch_normalization_6
      - class_name: BatchNormalization
        config:
          axis: 3
          beta_constraint: null
          beta_initializer:
            class_name: Zeros
            config: {}
          beta_regularizer: null
          center: true
          epsilon: 0.001
          gamma_constraint: null
          gamma_initializer:
            class_name: Ones
            config: {}
          gamma_regularizer: null
          momentum: 0.99
          moving_mean_initializer:
            class_name: Zeros
            config: {}
          moving_variance_initializer:
            class_name: Ones
            config: {}
          name: batch_normalization_8
          scale: false
          trainable: *id005
        inbound_nodes:
        - - - conv2d_10
            - 0
            - 0
            - {}
        name: batch_normalization_8
      - class_name: BatchNormalization
        config:
          axis: 3
          beta_constraint: null
          beta_initializer:
            class_name: Zeros
            config: {}
          beta_regularizer: null
          center: true
          epsilon: 0.001
          gamma_constraint: null
          gamma_initializer:
            class_name: Ones
            config: {}
          gamma_regularizer: null
          momentum: 0.99
          moving_mean_initializer:
            class_name: Zeros
            config: {}
          moving_variance_initializer:
            class_name: Ones
            config: {}
          name: batch_normalization_11
          scale: false
          trainable: *id005
        inbound_nodes:
        - - - conv2d_13
            - 0
            - 0
            - {}
        name: batch_normalization_11
      - class_name: BatchNormalization
        config:
          axis: 3
          beta_constraint: null
          beta_initializer:
            class_name: Zeros
            config: {}
          beta_regularizer: null
          center: true
          epsilon: 0.001
          gamma_constraint: null
          gamma_initializer:
            class_name: Ones
            config: {}
          gamma_regularizer: null
          momentum: 0.99
          moving_mean_initializer:
            class_name: Zeros
            config: {}
          moving_variance_initializer:
            class_name: Ones
            config: {}
          name: batch_normalization_12
          scale: false
          trainable: *id005
        inbound_nodes:
        - - - conv2d_14
            - 0
            - 0
            - {}
        name: batch_normalization_12
      - class_name: Activation
        config:
          activation: relu
          name: activation_6
          trainable: *id005
        inbound_nodes:
        - - - batch_normalization_6
            - 0
            - 0
            - {}
        name: activation_6
      - class_name: Activation
        config:
          activation: relu
          name: activation_8
          trainable: *id005
        inbound_nodes:
        - - - batch_normalization_8
            - 0
            - 0
            - {}
        name: activation_8
      - class_name: Activation
        config:
          activation: relu
          name: activation_11
          trainable: *id005
        inbound_nodes:
        - - - batch_normalization_11
            - 0
            - 0
            - {}
        name: activation_11
      - class_name: Activation
        config:
          activation: relu
          name: activation_12
          trainable: *id005
        inbound_nodes:
        - - - batch_normalization_12
            - 0
            - 0
            - {}
        name: activation_12
      - class_name: Concatenate
        config:
          axis: 3
          name: mixed_5b
          trainable: *id005
        inbound_nodes:
        - - - activation_6
            - 0
            - 0
            - &id008 {}
          - - activation_8
            - 0
            - 0
            - *id008
          - - activation_11
            - 0
            - 0
            - *id008
          - - activation_12
            - 0
            - 0
            - *id008
        name: mixed_5b
      - class_name: Conv2D
        config:
          activation: linear
          activity_regularizer: null
          bias_constraint: null
          bias_initializer:
            class_name: Zeros
            config: {}
          bias_regularizer: null
          data_format: channels_last
          dilation_rate: *id001
          filters: 32
          kernel_constraint: null
          kernel_initializer:
            class_name: VarianceScaling
            config: {distribution: uniform, mode: fan_avg, scale: 1.0, seed: null}
          kernel_regularizer: null
          kernel_size: !!python/tuple [1, 1]
          name: conv2d_18
          padding: same
          strides: !!python/tuple [1, 1]
          trainable: *id005
          use_bias: false
        inbound_nodes:
        - - - mixed_5b
            - 0
            - 0
            - {}
        name: conv2d_18
      - class_name: BatchNormalization
        config:
          axis: 3
          beta_constraint: null
          beta_initializer:
            class_name: Zeros
            config: {}
          beta_regularizer: null
          center: true
          epsilon: 0.001
          gamma_constraint: null
          gamma_initializer:
            class_name: Ones
            config: {}
          gamma_regularizer: null
          momentum: 0.99
          moving_mean_initializer:
            class_name: Zeros
            config: {}
          moving_variance_initializer:
            class_name: Ones
            config: {}
          name: batch_normalization_16
          scale: false
          trainable: *id005
        inbound_nodes:
        - - - conv2d_18
            - 0
            - 0
            - {}
        name: batch_normalization_16
      - class_name: Activation
        config:
          activation: relu
          name: activation_16
          trainable: *id005
        inbound_nodes:
        - - - batch_normalization_16
            - 0
            - 0
            - {}
        name: activation_16
      - class_name: Conv2D
        config:
          activation: linear
          activity_regularizer: null
          bias_constraint: null
          bias_initializer:
            class_name: Zeros
            config: {}
          bias_regularizer: null
          data_format: channels_last
          dilation_rate: *id001
          filters: 32
          kernel_constraint: null
          kernel_initializer:
            class_name: VarianceScaling
            config: {distribution: uniform, mode: fan_avg, scale: 1.0, seed: null}
          kernel_regularizer: null
          kernel_size: !!python/tuple [1, 1]
          name: conv2d_16
          padding: same
          strides: !!python/tuple [1, 1]
          trainable: *id005
          use_bias: false
        inbound_nodes:
        - - - mixed_5b
            - 0
            - 0
            - {}
        name: conv2d_16
      - class_name: Conv2D
        config:
          activation: linear
          activity_regularizer: null
          bias_constraint: null
          bias_initializer:
            class_name: Zeros
            config: {}
          bias_regularizer: null
          data_format: channels_last
          dilation_rate: *id001
          filters: 48
          kernel_constraint: null
          kernel_initializer:
            class_name: VarianceScaling
            config: {distribution: uniform, mode: fan_avg, scale: 1.0, seed: null}
          kernel_regularizer: null
          kernel_size: !!python/tuple [3, 3]
          name: conv2d_19
          padding: same
          strides: !!python/tuple [1, 1]
          trainable: *id005
          use_bias: false
        inbound_nodes:
        - - - activation_16
            - 0
            - 0
            - {}
        name: conv2d_19
      - class_name: BatchNormalization
        config:
          axis: 3
          beta_constraint: null
          beta_initializer:
            class_name: Zeros
            config: {}
          beta_regularizer: null
          center: true
          epsilon: 0.001
          gamma_constraint: null
          gamma_initializer:
            class_name: Ones
            config: {}
          gamma_regularizer: null
          momentum: 0.99
          moving_mean_initializer:
            class_name: Zeros
            config: {}
          moving_variance_initializer:
            class_name: Ones
            config: {}
          name: batch_normalization_14
          scale: false
          trainable: *id005
        inbound_nodes:
        - - - conv2d_16
            - 0
            - 0
            - {}
        name: batch_normalization_14
      - class_name: BatchNormalization
        config:
          axis: 3
          beta_constraint: null
          beta_initializer:
            class_name: Zeros
            config: {}
          beta_regularizer: null
          center: true
          epsilon: 0.001
          gamma_constraint: null
          gamma_initializer:
            class_name: Ones
            config: {}
          gamma_regularizer: null
          momentum: 0.99
          moving_mean_initializer:
            class_name: Zeros
            config: {}
          moving_variance_initializer:
            class_name: Ones
            config: {}
          name: batch_normalization_17
          scale: false
          trainable: *id005
        inbound_nodes:
        - - - conv2d_19
            - 0
            - 0
            - {}
        name: batch_normalization_17
      - class_name: Activation
        config:
          activation: relu
          name: activation_14
          trainable: *id005
        inbound_nodes:
        - - - batch_normalization_14
            - 0
            - 0
            - {}
        name: activation_14
      - class_name: Activation
        config:
          activation: relu
          name: activation_17
          trainable: *id005
        inbound_nodes:
        - - - batch_normalization_17
            - 0
            - 0
            - {}
        name: activation_17
      - class_name: Conv2D
        config:
          activation: linear
          activity_regularizer: null
          bias_constraint: null
          bias_initializer:
            class_name: Zeros
            config: {}
          bias_regularizer: null
          data_format: channels_last
          dilation_rate: *id001
          filters: 32
          kernel_constraint: null
          kernel_initializer:
            class_name: VarianceScaling
            config: {distribution: uniform, mode: fan_avg, scale: 1.0, seed: null}
          kernel_regularizer: null
          kernel_size: !!python/tuple [1, 1]
          name: conv2d_15
          padding: same
          strides: !!python/tuple [1, 1]
          trainable: *id005
          use_bias: false
        inbound_nodes:
        - - - mixed_5b
            - 0
            - 0
            - {}
        name: conv2d_15
      - class_name: Conv2D
        config:
          activation: linear
          activity_regularizer: null
          bias_constraint: null
          bias_initializer:
            class_name: Zeros
            config: {}
          bias_regularizer: null
          data_format: channels_last
          dilation_rate: *id001
          filters: 32
          kernel_constraint: null
          kernel_initializer:
            class_name: VarianceScaling
            config: {distribution: uniform, mode: fan_avg, scale: 1.0, seed: null}
          kernel_regularizer: null
          kernel_size: !!python/tuple [3, 3]
          name: conv2d_17
          padding: same
          strides: !!python/tuple [1, 1]
          trainable: *id005
          use_bias: false
        inbound_nodes:
        - - - activation_14
            - 0
            - 0
            - {}
        name: conv2d_17
      - class_name: Conv2D
        config:
          activation: linear
          activity_regularizer: null
          bias_constraint: null
          bias_initializer:
            class_name: Zeros
            config: {}
          bias_regularizer: null
          data_format: channels_last
          dilation_rate: *id001
          filters: 64
          kernel_constraint: null
          kernel_initializer:
            class_name: VarianceScaling
            config: {distribution: uniform, mode: fan_avg, scale: 1.0, seed: null}
          kernel_regularizer: null
          kernel_size: !!python/tuple [3, 3]
          name: conv2d_20
          padding: same
          strides: !!python/tuple [1, 1]
          trainable: *id005
          use_bias: false
        inbound_nodes:
        - - - activation_17
            - 0
            - 0
            - {}
        name: conv2d_20
      - class_name: BatchNormalization
        config:
          axis: 3
          beta_constraint: null
          beta_initializer:
            class_name: Zeros
            config: {}
          beta_regularizer: null
          center: true
          epsilon: 0.001
          gamma_constraint: null
          gamma_initializer:
            class_name: Ones
            config: {}
          gamma_regularizer: null
          momentum: 0.99
          moving_mean_initializer:
            class_name: Zeros
            config: {}
          moving_variance_initializer:
            class_name: Ones
            config: {}
          name: batch_normalization_13
          scale: false
          trainable: *id005
        inbound_nodes:
        - - - conv2d_15
            - 0
            - 0
            - {}
        name: batch_normalization_13
      - class_name: BatchNormalization
        config:
          axis: 3
          beta_constraint: null
          beta_initializer:
            class_name: Zeros
            config: {}
          beta_regularizer: null
          center: true
          epsilon: 0.001
          gamma_constraint: null
          gamma_initializer:
            class_name: Ones
            config: {}
          gamma_regularizer: null
          momentum: 0.99
          moving_mean_initializer:
            class_name: Zeros
            config: {}
          moving_variance_initializer:
            class_name: Ones
            config: {}
          name: batch_normalization_15
          scale: false
          trainable: *id005
        inbound_nodes:
        - - - conv2d_17
            - 0
            - 0
            - {}
        name: batch_normalization_15
      - class_name: BatchNormalization
        config:
          axis: 3
          beta_constraint: null
          beta_initializer:
            class_name: Zeros
            config: {}
          beta_regularizer: null
          center: true
          epsilon: 0.001
          gamma_constraint: null
          gamma_initializer:
            class_name: Ones
            config: {}
          gamma_regularizer: null
          momentum: 0.99
          moving_mean_initializer:
            class_name: Zeros
            config: {}
          moving_variance_initializer:
            class_name: Ones
            config: {}
          name: batch_normalization_18
          scale: false
          trainable: *id005
        inbound_nodes:
        - - - conv2d_20
            - 0
            - 0
            - {}
        name: batch_normalization_18
      - class_name: Activation
        config:
          activation: relu
          name: activation_13
          trainable: *id005
        inbound_nodes:
        - - - batch_normalization_13
            - 0
            - 0
            - {}
        name: activation_13
      - class_name: Activation
        config:
          activation: relu
          name: activation_15
          trainable: *id005
        inbound_nodes:
        - - - batch_normalization_15
            - 0
            - 0
            - {}
        name: activation_15
      - class_name: Activation
        config:
          activation: relu
          name: activation_18
          trainable: *id005
        inbound_nodes:
        - - - batch_normalization_18
            - 0
            - 0
            - {}
        name: activation_18
      - class_name: Concatenate
        config:
          axis: 3
          name: block35_1_mixed
          trainable: *id005
        inbound_nodes:
        - - - activation_13
            - 0
            - 0
            - &id009 {}
          - - activation_15
            - 0
            - 0
            - *id009
          - - activation_18
            - 0
            - 0
            - *id009
        name: block35_1_mixed
      - class_name: Conv2D
        config:
          activation: linear
          activity_regularizer: null
          bias_constraint: null
          bias_initializer:
            class_name: Zeros
            config: {}
          bias_regularizer: null
          data_format: channels_last
          dilation_rate: *id001
          filters: 320
          kernel_constraint: null
          kernel_initializer:
            class_name: VarianceScaling
            config: {distribution: uniform, mode: fan_avg, scale: 1.0, seed: null}
          kernel_regularizer: null
          kernel_size: !!python/tuple [1, 1]
          name: block35_1_conv
          padding: same
          strides: !!python/tuple [1, 1]
          trainable: *id005
          use_bias: true
        inbound_nodes:
        - - - block35_1_mixed
            - 0
            - 0
            - {}
        name: block35_1_conv
      - class_name: Lambda
        config:
          arguments: {scale: 0.17}
          function: !!python/tuple ['4wIAAAAAAAAAAgAAAAMAAABTAAAAcxQAAAB8AGQBGQB8AGQCGQB8ARQAFwBTACkDTukAAAAA6QEA

              AACpACkC2gZpbnB1dHPaBXNjYWxlcgMAAAByAwAAAPpyL29wdC9wYWNrYWdlcy9BSS9hbmFjb25k

              YTMtNS4xLjBfZ3B1LjIwMTgtMDgvbGliL3B5dGhvbjMuNi9zaXRlLXBhY2thZ2VzL2tlcmFzX2Fw

              cGxpY2F0aW9ucy9pbmNlcHRpb25fcmVzbmV0X3YyLnB52gg8bGFtYmRhPqoAAADzAAAAAA==

              ', null, null]
          function_type: lambda
          name: block35_1
          output_shape: !!python/tuple [null, null, 320]
          output_shape_type: raw
          trainable: *id005
        inbound_nodes:
        - - - mixed_5b
            - 0
            - 0
            - &id010 {}
          - - block35_1_conv
            - 0
            - 0
            - *id010
        name: block35_1
      - class_name: Activation
        config:
          activation: relu
          name: block35_1_ac
          trainable: *id005
        inbound_nodes:
        - - - block35_1
            - 0
            - 0
            - {}
        name: block35_1_ac
      - class_name: Conv2D
        config:
          activation: linear
          activity_regularizer: null
          bias_constraint: null
          bias_initializer:
            class_name: Zeros
            config: {}
          bias_regularizer: null
          data_format: channels_last
          dilation_rate: *id001
          filters: 32
          kernel_constraint: null
          kernel_initializer:
            class_name: VarianceScaling
            config: {distribution: uniform, mode: fan_avg, scale: 1.0, seed: null}
          kernel_regularizer: null
          kernel_size: !!python/tuple [1, 1]
          name: conv2d_24
          padding: same
          strides: !!python/tuple [1, 1]
          trainable: *id005
          use_bias: false
        inbound_nodes:
        - - - block35_1_ac
            - 0
            - 0
            - {}
        name: conv2d_24
      - class_name: BatchNormalization
        config:
          axis: 3
          beta_constraint: null
          beta_initializer:
            class_name: Zeros
            config: {}
          beta_regularizer: null
          center: true
          epsilon: 0.001
          gamma_constraint: null
          gamma_initializer:
            class_name: Ones
            config: {}
          gamma_regularizer: null
          momentum: 0.99
          moving_mean_initializer:
            class_name: Zeros
            config: {}
          moving_variance_initializer:
            class_name: Ones
            config: {}
          name: batch_normalization_22
          scale: false
          trainable: *id005
        inbound_nodes:
        - - - conv2d_24
            - 0
            - 0
            - {}
        name: batch_normalization_22
      - class_name: Activation
        config:
          activation: relu
          name: activation_22
          trainable: *id005
        inbound_nodes:
        - - - batch_normalization_22
            - 0
            - 0
            - {}
        name: activation_22
      - class_name: Conv2D
        config:
          activation: linear
          activity_regularizer: null
          bias_constraint: null
          bias_initializer:
            class_name: Zeros
            config: {}
          bias_regularizer: null
          data_format: channels_last
          dilation_rate: *id001
          filters: 32
          kernel_constraint: null
          kernel_initializer:
            class_name: VarianceScaling
            config: {distribution: uniform, mode: fan_avg, scale: 1.0, seed: null}
          kernel_regularizer: null
          kernel_size: !!python/tuple [1, 1]
          name: conv2d_22
          padding: same
          strides: !!python/tuple [1, 1]
          trainable: *id005
          use_bias: false
        inbound_nodes:
        - - - block35_1_ac
            - 0
            - 0
            - {}
        name: conv2d_22
      - class_name: Conv2D
        config:
          activation: linear
          activity_regularizer: null
          bias_constraint: null
          bias_initializer:
            class_name: Zeros
            config: {}
          bias_regularizer: null
          data_format: channels_last
          dilation_rate: *id001
          filters: 48
          kernel_constraint: null
          kernel_initializer:
            class_name: VarianceScaling
            config: {distribution: uniform, mode: fan_avg, scale: 1.0, seed: null}
          kernel_regularizer: null
          kernel_size: !!python/tuple [3, 3]
          name: conv2d_25
          padding: same
          strides: !!python/tuple [1, 1]
          trainable: *id005
          use_bias: false
        inbound_nodes:
        - - - activation_22
            - 0
            - 0
            - {}
        name: conv2d_25
      - class_name: BatchNormalization
        config:
          axis: 3
          beta_constraint: null
          beta_initializer:
            class_name: Zeros
            config: {}
          beta_regularizer: null
          center: true
          epsilon: 0.001
          gamma_constraint: null
          gamma_initializer:
            class_name: Ones
            config: {}
          gamma_regularizer: null
          momentum: 0.99
          moving_mean_initializer:
            class_name: Zeros
            config: {}
          moving_variance_initializer:
            class_name: Ones
            config: {}
          name: batch_normalization_20
          scale: false
          trainable: *id005
        inbound_nodes:
        - - - conv2d_22
            - 0
            - 0
            - {}
        name: batch_normalization_20
      - class_name: BatchNormalization
        config:
          axis: 3
          beta_constraint: null
          beta_initializer:
            class_name: Zeros
            config: {}
          beta_regularizer: null
          center: true
          epsilon: 0.001
          gamma_constraint: null
          gamma_initializer:
            class_name: Ones
            config: {}
          gamma_regularizer: null
          momentum: 0.99
          moving_mean_initializer:
            class_name: Zeros
            config: {}
          moving_variance_initializer:
            class_name: Ones
            config: {}
          name: batch_normalization_23
          scale: false
          trainable: *id005
        inbound_nodes:
        - - - conv2d_25
            - 0
            - 0
            - {}
        name: batch_normalization_23
      - class_name: Activation
        config:
          activation: relu
          name: activation_20
          trainable: *id005
        inbound_nodes:
        - - - batch_normalization_20
            - 0
            - 0
            - {}
        name: activation_20
      - class_name: Activation
        config:
          activation: relu
          name: activation_23
          trainable: *id005
        inbound_nodes:
        - - - batch_normalization_23
            - 0
            - 0
            - {}
        name: activation_23
      - class_name: Conv2D
        config:
          activation: linear
          activity_regularizer: null
          bias_constraint: null
          bias_initializer:
            class_name: Zeros
            config: {}
          bias_regularizer: null
          data_format: channels_last
          dilation_rate: *id001
          filters: 32
          kernel_constraint: null
          kernel_initializer:
            class_name: VarianceScaling
            config: {distribution: uniform, mode: fan_avg, scale: 1.0, seed: null}
          kernel_regularizer: null
          kernel_size: !!python/tuple [1, 1]
          name: conv2d_21
          padding: same
          strides: !!python/tuple [1, 1]
          trainable: *id005
          use_bias: false
        inbound_nodes:
        - - - block35_1_ac
            - 0
            - 0
            - {}
        name: conv2d_21
      - class_name: Conv2D
        config:
          activation: linear
          activity_regularizer: null
          bias_constraint: null
          bias_initializer:
            class_name: Zeros
            config: {}
          bias_regularizer: null
          data_format: channels_last
          dilation_rate: *id001
          filters: 32
          kernel_constraint: null
          kernel_initializer:
            class_name: VarianceScaling
            config: {distribution: uniform, mode: fan_avg, scale: 1.0, seed: null}
          kernel_regularizer: null
          kernel_size: !!python/tuple [3, 3]
          name: conv2d_23
          padding: same
          strides: !!python/tuple [1, 1]
          trainable: *id005
          use_bias: false
        inbound_nodes:
        - - - activation_20
            - 0
            - 0
            - {}
        name: conv2d_23
      - class_name: Conv2D
        config:
          activation: linear
          activity_regularizer: null
          bias_constraint: null
          bias_initializer:
            class_name: Zeros
            config: {}
          bias_regularizer: null
          data_format: channels_last
          dilation_rate: *id001
          filters: 64
          kernel_constraint: null
          kernel_initializer:
            class_name: VarianceScaling
            config: {distribution: uniform, mode: fan_avg, scale: 1.0, seed: null}
          kernel_regularizer: null
          kernel_size: !!python/tuple [3, 3]
          name: conv2d_26
          padding: same
          strides: !!python/tuple [1, 1]
          trainable: *id005
          use_bias: false
        inbound_nodes:
        - - - activation_23
            - 0
            - 0
            - {}
        name: conv2d_26
      - class_name: BatchNormalization
        config:
          axis: 3
          beta_constraint: null
          beta_initializer:
            class_name: Zeros
            config: {}
          beta_regularizer: null
          center: true
          epsilon: 0.001
          gamma_constraint: null
          gamma_initializer:
            class_name: Ones
            config: {}
          gamma_regularizer: null
          momentum: 0.99
          moving_mean_initializer:
            class_name: Zeros
            config: {}
          moving_variance_initializer:
            class_name: Ones
            config: {}
          name: batch_normalization_19
          scale: false
          trainable: *id005
        inbound_nodes:
        - - - conv2d_21
            - 0
            - 0
            - {}
        name: batch_normalization_19
      - class_name: BatchNormalization
        config:
          axis: 3
          beta_constraint: null
          beta_initializer:
            class_name: Zeros
            config: {}
          beta_regularizer: null
          center: true
          epsilon: 0.001
          gamma_constraint: null
          gamma_initializer:
            class_name: Ones
            config: {}
          gamma_regularizer: null
          momentum: 0.99
          moving_mean_initializer:
            class_name: Zeros
            config: {}
          moving_variance_initializer:
            class_name: Ones
            config: {}
          name: batch_normalization_21
          scale: false
          trainable: *id005
        inbound_nodes:
        - - - conv2d_23
            - 0
            - 0
            - {}
        name: batch_normalization_21
      - class_name: BatchNormalization
        config:
          axis: 3
          beta_constraint: null
          beta_initializer:
            class_name: Zeros
            config: {}
          beta_regularizer: null
          center: true
          epsilon: 0.001
          gamma_constraint: null
          gamma_initializer:
            class_name: Ones
            config: {}
          gamma_regularizer: null
          momentum: 0.99
          moving_mean_initializer:
            class_name: Zeros
            config: {}
          moving_variance_initializer:
            class_name: Ones
            config: {}
          name: batch_normalization_24
          scale: false
          trainable: *id005
        inbound_nodes:
        - - - conv2d_26
            - 0
            - 0
            - {}
        name: batch_normalization_24
      - class_name: Activation
        config:
          activation: relu
          name: activation_19
          trainable: *id005
        inbound_nodes:
        - - - batch_normalization_19
            - 0
            - 0
            - {}
        name: activation_19
      - class_name: Activation
        config:
          activation: relu
          name: activation_21
          trainable: *id005
        inbound_nodes:
        - - - batch_normalization_21
            - 0
            - 0
            - {}
        name: activation_21
      - class_name: Activation
        config:
          activation: relu
          name: activation_24
          trainable: *id005
        inbound_nodes:
        - - - batch_normalization_24
            - 0
            - 0
            - {}
        name: activation_24
      - class_name: Concatenate
        config:
          axis: 3
          name: block35_2_mixed
          trainable: *id005
        inbound_nodes:
        - - - activation_19
            - 0
            - 0
            - &id011 {}
          - - activation_21
            - 0
            - 0
            - *id011
          - - activation_24
            - 0
            - 0
            - *id011
        name: block35_2_mixed
      - class_name: Conv2D
        config:
          activation: linear
          activity_regularizer: null
          bias_constraint: null
          bias_initializer:
            class_name: Zeros
            config: {}
          bias_regularizer: null
          data_format: channels_last
          dilation_rate: *id001
          filters: 320
          kernel_constraint: null
          kernel_initializer:
            class_name: VarianceScaling
            config: {distribution: uniform, mode: fan_avg, scale: 1.0, seed: null}
          kernel_regularizer: null
          kernel_size: !!python/tuple [1, 1]
          name: block35_2_conv
          padding: same
          strides: !!python/tuple [1, 1]
          trainable: *id005
          use_bias: true
        inbound_nodes:
        - - - block35_2_mixed
            - 0
            - 0
            - {}
        name: block35_2_conv
      - class_name: Lambda
        config:
          arguments: {scale: 0.17}
          function: !!python/tuple ['4wIAAAAAAAAAAgAAAAMAAABTAAAAcxQAAAB8AGQBGQB8AGQCGQB8ARQAFwBTACkDTukAAAAA6QEA

              AACpACkC2gZpbnB1dHPaBXNjYWxlcgMAAAByAwAAAPpyL29wdC9wYWNrYWdlcy9BSS9hbmFjb25k

              YTMtNS4xLjBfZ3B1LjIwMTgtMDgvbGliL3B5dGhvbjMuNi9zaXRlLXBhY2thZ2VzL2tlcmFzX2Fw

              cGxpY2F0aW9ucy9pbmNlcHRpb25fcmVzbmV0X3YyLnB52gg8bGFtYmRhPqoAAADzAAAAAA==

              ', null, null]
          function_type: lambda
          name: block35_2
          output_shape: !!python/tuple [null, null, 320]
          output_shape_type: raw
          trainable: *id005
        inbound_nodes:
        - - - block35_1_ac
            - 0
            - 0
            - &id012 {}
          - - block35_2_conv
            - 0
            - 0
            - *id012
        name: block35_2
      - class_name: Activation
        config:
          activation: relu
          name: block35_2_ac
          trainable: *id005
        inbound_nodes:
        - - - block35_2
            - 0
            - 0
            - {}
        name: block35_2_ac
      - class_name: Conv2D
        config:
          activation: linear
          activity_regularizer: null
          bias_constraint: null
          bias_initializer:
            class_name: Zeros
            config: {}
          bias_regularizer: null
          data_format: channels_last
          dilation_rate: *id001
          filters: 32
          kernel_constraint: null
          kernel_initializer:
            class_name: VarianceScaling
            config: {distribution: uniform, mode: fan_avg, scale: 1.0, seed: null}
          kernel_regularizer: null
          kernel_size: !!python/tuple [1, 1]
          name: conv2d_30
          padding: same
          strides: !!python/tuple [1, 1]
          trainable: *id005
          use_bias: false
        inbound_nodes:
        - - - block35_2_ac
            - 0
            - 0
            - {}
        name: conv2d_30
      - class_name: BatchNormalization
        config:
          axis: 3
          beta_constraint: null
          beta_initializer:
            class_name: Zeros
            config: {}
          beta_regularizer: null
          center: true
          epsilon: 0.001
          gamma_constraint: null
          gamma_initializer:
            class_name: Ones
            config: {}
          gamma_regularizer: null
          momentum: 0.99
          moving_mean_initializer:
            class_name: Zeros
            config: {}
          moving_variance_initializer:
            class_name: Ones
            config: {}
          name: batch_normalization_28
          scale: false
          trainable: *id005
        inbound_nodes:
        - - - conv2d_30
            - 0
            - 0
            - {}
        name: batch_normalization_28
      - class_name: Activation
        config:
          activation: relu
          name: activation_28
          trainable: *id005
        inbound_nodes:
        - - - batch_normalization_28
            - 0
            - 0
            - {}
        name: activation_28
      - class_name: Conv2D
        config:
          activation: linear
          activity_regularizer: null
          bias_constraint: null
          bias_initializer:
            class_name: Zeros
            config: {}
          bias_regularizer: null
          data_format: channels_last
          dilation_rate: *id001
          filters: 32
          kernel_constraint: null
          kernel_initializer:
            class_name: VarianceScaling
            config: {distribution: uniform, mode: fan_avg, scale: 1.0, seed: null}
          kernel_regularizer: null
          kernel_size: !!python/tuple [1, 1]
          name: conv2d_28
          padding: same
          strides: !!python/tuple [1, 1]
          trainable: *id005
          use_bias: false
        inbound_nodes:
        - - - block35_2_ac
            - 0
            - 0
            - {}
        name: conv2d_28
      - class_name: Conv2D
        config:
          activation: linear
          activity_regularizer: null
          bias_constraint: null
          bias_initializer:
            class_name: Zeros
            config: {}
          bias_regularizer: null
          data_format: channels_last
          dilation_rate: *id001
          filters: 48
          kernel_constraint: null
          kernel_initializer:
            class_name: VarianceScaling
            config: {distribution: uniform, mode: fan_avg, scale: 1.0, seed: null}
          kernel_regularizer: null
          kernel_size: !!python/tuple [3, 3]
          name: conv2d_31
          padding: same
          strides: !!python/tuple [1, 1]
          trainable: *id005
          use_bias: false
        inbound_nodes:
        - - - activation_28
            - 0
            - 0
            - {}
        name: conv2d_31
      - class_name: BatchNormalization
        config:
          axis: 3
          beta_constraint: null
          beta_initializer:
            class_name: Zeros
            config: {}
          beta_regularizer: null
          center: true
          epsilon: 0.001
          gamma_constraint: null
          gamma_initializer:
            class_name: Ones
            config: {}
          gamma_regularizer: null
          momentum: 0.99
          moving_mean_initializer:
            class_name: Zeros
            config: {}
          moving_variance_initializer:
            class_name: Ones
            config: {}
          name: batch_normalization_26
          scale: false
          trainable: *id005
        inbound_nodes:
        - - - conv2d_28
            - 0
            - 0
            - {}
        name: batch_normalization_26
      - class_name: BatchNormalization
        config:
          axis: 3
          beta_constraint: null
          beta_initializer:
            class_name: Zeros
            config: {}
          beta_regularizer: null
          center: true
          epsilon: 0.001
          gamma_constraint: null
          gamma_initializer:
            class_name: Ones
            config: {}
          gamma_regularizer: null
          momentum: 0.99
          moving_mean_initializer:
            class_name: Zeros
            config: {}
          moving_variance_initializer:
            class_name: Ones
            config: {}
          name: batch_normalization_29
          scale: false
          trainable: *id005
        inbound_nodes:
        - - - conv2d_31
            - 0
            - 0
            - {}
        name: batch_normalization_29
      - class_name: Activation
        config:
          activation: relu
          name: activation_26
          trainable: *id005
        inbound_nodes:
        - - - batch_normalization_26
            - 0
            - 0
            - {}
        name: activation_26
      - class_name: Activation
        config:
          activation: relu
          name: activation_29
          trainable: *id005
        inbound_nodes:
        - - - batch_normalization_29
            - 0
            - 0
            - {}
        name: activation_29
      - class_name: Conv2D
        config:
          activation: linear
          activity_regularizer: null
          bias_constraint: null
          bias_initializer:
            class_name: Zeros
            config: {}
          bias_regularizer: null
          data_format: channels_last
          dilation_rate: *id001
          filters: 32
          kernel_constraint: null
          kernel_initializer:
            class_name: VarianceScaling
            config: {distribution: uniform, mode: fan_avg, scale: 1.0, seed: null}
          kernel_regularizer: null
          kernel_size: !!python/tuple [1, 1]
          name: conv2d_27
          padding: same
          strides: !!python/tuple [1, 1]
          trainable: *id005
          use_bias: false
        inbound_nodes:
        - - - block35_2_ac
            - 0
            - 0
            - {}
        name: conv2d_27
      - class_name: Conv2D
        config:
          activation: linear
          activity_regularizer: null
          bias_constraint: null
          bias_initializer:
            class_name: Zeros
            config: {}
          bias_regularizer: null
          data_format: channels_last
          dilation_rate: *id001
          filters: 32
          kernel_constraint: null
          kernel_initializer:
            class_name: VarianceScaling
            config: {distribution: uniform, mode: fan_avg, scale: 1.0, seed: null}
          kernel_regularizer: null
          kernel_size: !!python/tuple [3, 3]
          name: conv2d_29
          padding: same
          strides: !!python/tuple [1, 1]
          trainable: *id005
          use_bias: false
        inbound_nodes:
        - - - activation_26
            - 0
            - 0
            - {}
        name: conv2d_29
      - class_name: Conv2D
        config:
          activation: linear
          activity_regularizer: null
          bias_constraint: null
          bias_initializer:
            class_name: Zeros
            config: {}
          bias_regularizer: null
          data_format: channels_last
          dilation_rate: *id001
          filters: 64
          kernel_constraint: null
          kernel_initializer:
            class_name: VarianceScaling
            config: {distribution: uniform, mode: fan_avg, scale: 1.0, seed: null}
          kernel_regularizer: null
          kernel_size: !!python/tuple [3, 3]
          name: conv2d_32
          padding: same
          strides: !!python/tuple [1, 1]
          trainable: *id005
          use_bias: false
        inbound_nodes:
        - - - activation_29
            - 0
            - 0
            - {}
        name: conv2d_32
      - class_name: BatchNormalization
        config:
          axis: 3
          beta_constraint: null
          beta_initializer:
            class_name: Zeros
            config: {}
          beta_regularizer: null
          center: true
          epsilon: 0.001
          gamma_constraint: null
          gamma_initializer:
            class_name: Ones
            config: {}
          gamma_regularizer: null
          momentum: 0.99
          moving_mean_initializer:
            class_name: Zeros
            config: {}
          moving_variance_initializer:
            class_name: Ones
            config: {}
          name: batch_normalization_25
          scale: false
          trainable: *id005
        inbound_nodes:
        - - - conv2d_27
            - 0
            - 0
            - {}
        name: batch_normalization_25
      - class_name: BatchNormalization
        config:
          axis: 3
          beta_constraint: null
          beta_initializer:
            class_name: Zeros
            config: {}
          beta_regularizer: null
          center: true
          epsilon: 0.001
          gamma_constraint: null
          gamma_initializer:
            class_name: Ones
            config: {}
          gamma_regularizer: null
          momentum: 0.99
          moving_mean_initializer:
            class_name: Zeros
            config: {}
          moving_variance_initializer:
            class_name: Ones
            config: {}
          name: batch_normalization_27
          scale: false
          trainable: *id005
        inbound_nodes:
        - - - conv2d_29
            - 0
            - 0
            - {}
        name: batch_normalization_27
      - class_name: BatchNormalization
        config:
          axis: 3
          beta_constraint: null
          beta_initializer:
            class_name: Zeros
            config: {}
          beta_regularizer: null
          center: true
          epsilon: 0.001
          gamma_constraint: null
          gamma_initializer:
            class_name: Ones
            config: {}
          gamma_regularizer: null
          momentum: 0.99
          moving_mean_initializer:
            class_name: Zeros
            config: {}
          moving_variance_initializer:
            class_name: Ones
            config: {}
          name: batch_normalization_30
          scale: false
          trainable: *id005
        inbound_nodes:
        - - - conv2d_32
            - 0
            - 0
            - {}
        name: batch_normalization_30
      - class_name: Activation
        config:
          activation: relu
          name: activation_25
          trainable: *id005
        inbound_nodes:
        - - - batch_normalization_25
            - 0
            - 0
            - {}
        name: activation_25
      - class_name: Activation
        config:
          activation: relu
          name: activation_27
          trainable: *id005
        inbound_nodes:
        - - - batch_normalization_27
            - 0
            - 0
            - {}
        name: activation_27
      - class_name: Activation
        config:
          activation: relu
          name: activation_30
          trainable: *id005
        inbound_nodes:
        - - - batch_normalization_30
            - 0
            - 0
            - {}
        name: activation_30
      - class_name: Concatenate
        config:
          axis: 3
          name: block35_3_mixed
          trainable: *id005
        inbound_nodes:
        - - - activation_25
            - 0
            - 0
            - &id013 {}
          - - activation_27
            - 0
            - 0
            - *id013
          - - activation_30
            - 0
            - 0
            - *id013
        name: block35_3_mixed
      - class_name: Conv2D
        config:
          activation: linear
          activity_regularizer: null
          bias_constraint: null
          bias_initializer:
            class_name: Zeros
            config: {}
          bias_regularizer: null
          data_format: channels_last
          dilation_rate: *id001
          filters: 320
          kernel_constraint: null
          kernel_initializer:
            class_name: VarianceScaling
            config: {distribution: uniform, mode: fan_avg, scale: 1.0, seed: null}
          kernel_regularizer: null
          kernel_size: !!python/tuple [1, 1]
          name: block35_3_conv
          padding: same
          strides: !!python/tuple [1, 1]
          trainable: *id005
          use_bias: true
        inbound_nodes:
        - - - block35_3_mixed
            - 0
            - 0
            - {}
        name: block35_3_conv
      - class_name: Lambda
        config:
          arguments: {scale: 0.17}
          function: !!python/tuple ['4wIAAAAAAAAAAgAAAAMAAABTAAAAcxQAAAB8AGQBGQB8AGQCGQB8ARQAFwBTACkDTukAAAAA6QEA

              AACpACkC2gZpbnB1dHPaBXNjYWxlcgMAAAByAwAAAPpyL29wdC9wYWNrYWdlcy9BSS9hbmFjb25k

              YTMtNS4xLjBfZ3B1LjIwMTgtMDgvbGliL3B5dGhvbjMuNi9zaXRlLXBhY2thZ2VzL2tlcmFzX2Fw

              cGxpY2F0aW9ucy9pbmNlcHRpb25fcmVzbmV0X3YyLnB52gg8bGFtYmRhPqoAAADzAAAAAA==

              ', null, null]
          function_type: lambda
          name: block35_3
          output_shape: !!python/tuple [null, null, 320]
          output_shape_type: raw
          trainable: *id005
        inbound_nodes:
        - - - block35_2_ac
            - 0
            - 0
            - &id014 {}
          - - block35_3_conv
            - 0
            - 0
            - *id014
        name: block35_3
      - class_name: Activation
        config:
          activation: relu
          name: block35_3_ac
          trainable: *id005
        inbound_nodes:
        - - - block35_3
            - 0
            - 0
            - {}
        name: block35_3_ac
      - class_name: Conv2D
        config:
          activation: linear
          activity_regularizer: null
          bias_constraint: null
          bias_initializer:
            class_name: Zeros
            config: {}
          bias_regularizer: null
          data_format: channels_last
          dilation_rate: *id001
          filters: 32
          kernel_constraint: null
          kernel_initializer:
            class_name: VarianceScaling
            config: {distribution: uniform, mode: fan_avg, scale: 1.0, seed: null}
          kernel_regularizer: null
          kernel_size: !!python/tuple [1, 1]
          name: conv2d_36
          padding: same
          strides: !!python/tuple [1, 1]
          trainable: *id005
          use_bias: false
        inbound_nodes:
        - - - block35_3_ac
            - 0
            - 0
            - {}
        name: conv2d_36
      - class_name: BatchNormalization
        config:
          axis: 3
          beta_constraint: null
          beta_initializer:
            class_name: Zeros
            config: {}
          beta_regularizer: null
          center: true
          epsilon: 0.001
          gamma_constraint: null
          gamma_initializer:
            class_name: Ones
            config: {}
          gamma_regularizer: null
          momentum: 0.99
          moving_mean_initializer:
            class_name: Zeros
            config: {}
          moving_variance_initializer:
            class_name: Ones
            config: {}
          name: batch_normalization_34
          scale: false
          trainable: *id005
        inbound_nodes:
        - - - conv2d_36
            - 0
            - 0
            - {}
        name: batch_normalization_34
      - class_name: Activation
        config:
          activation: relu
          name: activation_34
          trainable: *id005
        inbound_nodes:
        - - - batch_normalization_34
            - 0
            - 0
            - {}
        name: activation_34
      - class_name: Conv2D
        config:
          activation: linear
          activity_regularizer: null
          bias_constraint: null
          bias_initializer:
            class_name: Zeros
            config: {}
          bias_regularizer: null
          data_format: channels_last
          dilation_rate: *id001
          filters: 32
          kernel_constraint: null
          kernel_initializer:
            class_name: VarianceScaling
            config: {distribution: uniform, mode: fan_avg, scale: 1.0, seed: null}
          kernel_regularizer: null
          kernel_size: !!python/tuple [1, 1]
          name: conv2d_34
          padding: same
          strides: !!python/tuple [1, 1]
          trainable: *id005
          use_bias: false
        inbound_nodes:
        - - - block35_3_ac
            - 0
            - 0
            - {}
        name: conv2d_34
      - class_name: Conv2D
        config:
          activation: linear
          activity_regularizer: null
          bias_constraint: null
          bias_initializer:
            class_name: Zeros
            config: {}
          bias_regularizer: null
          data_format: channels_last
          dilation_rate: *id001
          filters: 48
          kernel_constraint: null
          kernel_initializer:
            class_name: VarianceScaling
            config: {distribution: uniform, mode: fan_avg, scale: 1.0, seed: null}
          kernel_regularizer: null
          kernel_size: !!python/tuple [3, 3]
          name: conv2d_37
          padding: same
          strides: !!python/tuple [1, 1]
          trainable: *id005
          use_bias: false
        inbound_nodes:
        - - - activation_34
            - 0
            - 0
            - {}
        name: conv2d_37
      - class_name: BatchNormalization
        config:
          axis: 3
          beta_constraint: null
          beta_initializer:
            class_name: Zeros
            config: {}
          beta_regularizer: null
          center: true
          epsilon: 0.001
          gamma_constraint: null
          gamma_initializer:
            class_name: Ones
            config: {}
          gamma_regularizer: null
          momentum: 0.99
          moving_mean_initializer:
            class_name: Zeros
            config: {}
          moving_variance_initializer:
            class_name: Ones
            config: {}
          name: batch_normalization_32
          scale: false
          trainable: *id005
        inbound_nodes:
        - - - conv2d_34
            - 0
            - 0
            - {}
        name: batch_normalization_32
      - class_name: BatchNormalization
        config:
          axis: 3
          beta_constraint: null
          beta_initializer:
            class_name: Zeros
            config: {}
          beta_regularizer: null
          center: true
          epsilon: 0.001
          gamma_constraint: null
          gamma_initializer:
            class_name: Ones
            config: {}
          gamma_regularizer: null
          momentum: 0.99
          moving_mean_initializer:
            class_name: Zeros
            config: {}
          moving_variance_initializer:
            class_name: Ones
            config: {}
          name: batch_normalization_35
          scale: false
          trainable: *id005
        inbound_nodes:
        - - - conv2d_37
            - 0
            - 0
            - {}
        name: batch_normalization_35
      - class_name: Activation
        config:
          activation: relu
          name: activation_32
          trainable: *id005
        inbound_nodes:
        - - - batch_normalization_32
            - 0
            - 0
            - {}
        name: activation_32
      - class_name: Activation
        config:
          activation: relu
          name: activation_35
          trainable: *id005
        inbound_nodes:
        - - - batch_normalization_35
            - 0
            - 0
            - {}
        name: activation_35
      - class_name: Conv2D
        config:
          activation: linear
          activity_regularizer: null
          bias_constraint: null
          bias_initializer:
            class_name: Zeros
            config: {}
          bias_regularizer: null
          data_format: channels_last
          dilation_rate: *id001
          filters: 32
          kernel_constraint: null
          kernel_initializer:
            class_name: VarianceScaling
            config: {distribution: uniform, mode: fan_avg, scale: 1.0, seed: null}
          kernel_regularizer: null
          kernel_size: !!python/tuple [1, 1]
          name: conv2d_33
          padding: same
          strides: !!python/tuple [1, 1]
          trainable: *id005
          use_bias: false
        inbound_nodes:
        - - - block35_3_ac
            - 0
            - 0
            - {}
        name: conv2d_33
      - class_name: Conv2D
        config:
          activation: linear
          activity_regularizer: null
          bias_constraint: null
          bias_initializer:
            class_name: Zeros
            config: {}
          bias_regularizer: null
          data_format: channels_last
          dilation_rate: *id001
          filters: 32
          kernel_constraint: null
          kernel_initializer:
            class_name: VarianceScaling
            config: {distribution: uniform, mode: fan_avg, scale: 1.0, seed: null}
          kernel_regularizer: null
          kernel_size: !!python/tuple [3, 3]
          name: conv2d_35
          padding: same
          strides: !!python/tuple [1, 1]
          trainable: *id005
          use_bias: false
        inbound_nodes:
        - - - activation_32
            - 0
            - 0
            - {}
        name: conv2d_35
      - class_name: Conv2D
        config:
          activation: linear
          activity_regularizer: null
          bias_constraint: null
          bias_initializer:
            class_name: Zeros
            config: {}
          bias_regularizer: null
          data_format: channels_last
          dilation_rate: *id001
          filters: 64
          kernel_constraint: null
          kernel_initializer:
            class_name: VarianceScaling
            config: {distribution: uniform, mode: fan_avg, scale: 1.0, seed: null}
          kernel_regularizer: null
          kernel_size: !!python/tuple [3, 3]
          name: conv2d_38
          padding: same
          strides: !!python/tuple [1, 1]
          trainable: *id005
          use_bias: false
        inbound_nodes:
        - - - activation_35
            - 0
            - 0
            - {}
        name: conv2d_38
      - class_name: BatchNormalization
        config:
          axis: 3
          beta_constraint: null
          beta_initializer:
            class_name: Zeros
            config: {}
          beta_regularizer: null
          center: true
          epsilon: 0.001
          gamma_constraint: null
          gamma_initializer:
            class_name: Ones
            config: {}
          gamma_regularizer: null
          momentum: 0.99
          moving_mean_initializer:
            class_name: Zeros
            config: {}
          moving_variance_initializer:
            class_name: Ones
            config: {}
          name: batch_normalization_31
          scale: false
          trainable: *id005
        inbound_nodes:
        - - - conv2d_33
            - 0
            - 0
            - {}
        name: batch_normalization_31
      - class_name: BatchNormalization
        config:
          axis: 3
          beta_constraint: null
          beta_initializer:
            class_name: Zeros
            config: {}
          beta_regularizer: null
          center: true
          epsilon: 0.001
          gamma_constraint: null
          gamma_initializer:
            class_name: Ones
            config: {}
          gamma_regularizer: null
          momentum: 0.99
          moving_mean_initializer:
            class_name: Zeros
            config: {}
          moving_variance_initializer:
            class_name: Ones
            config: {}
          name: batch_normalization_33
          scale: false
          trainable: *id005
        inbound_nodes:
        - - - conv2d_35
            - 0
            - 0
            - {}
        name: batch_normalization_33
      - class_name: BatchNormalization
        config:
          axis: 3
          beta_constraint: null
          beta_initializer:
            class_name: Zeros
            config: {}
          beta_regularizer: null
          center: true
          epsilon: 0.001
          gamma_constraint: null
          gamma_initializer:
            class_name: Ones
            config: {}
          gamma_regularizer: null
          momentum: 0.99
          moving_mean_initializer:
            class_name: Zeros
            config: {}
          moving_variance_initializer:
            class_name: Ones
            config: {}
          name: batch_normalization_36
          scale: false
          trainable: *id005
        inbound_nodes:
        - - - conv2d_38
            - 0
            - 0
            - {}
        name: batch_normalization_36
      - class_name: Activation
        config:
          activation: relu
          name: activation_31
          trainable: *id005
        inbound_nodes:
        - - - batch_normalization_31
            - 0
            - 0
            - {}
        name: activation_31
      - class_name: Activation
        config:
          activation: relu
          name: activation_33
          trainable: *id005
        inbound_nodes:
        - - - batch_normalization_33
            - 0
            - 0
            - {}
        name: activation_33
      - class_name: Activation
        config:
          activation: relu
          name: activation_36
          trainable: *id005
        inbound_nodes:
        - - - batch_normalization_36
            - 0
            - 0
            - {}
        name: activation_36
      - class_name: Concatenate
        config:
          axis: 3
          name: block35_4_mixed
          trainable: *id005
        inbound_nodes:
        - - - activation_31
            - 0
            - 0
            - &id015 {}
          - - activation_33
            - 0
            - 0
            - *id015
          - - activation_36
            - 0
            - 0
            - *id015
        name: block35_4_mixed
      - class_name: Conv2D
        config:
          activation: linear
          activity_regularizer: null
          bias_constraint: null
          bias_initializer:
            class_name: Zeros
            config: {}
          bias_regularizer: null
          data_format: channels_last
          dilation_rate: *id001
          filters: 320
          kernel_constraint: null
          kernel_initializer:
            class_name: VarianceScaling
            config: {distribution: uniform, mode: fan_avg, scale: 1.0, seed: null}
          kernel_regularizer: null
          kernel_size: !!python/tuple [1, 1]
          name: block35_4_conv
          padding: same
          strides: !!python/tuple [1, 1]
          trainable: *id005
          use_bias: true
        inbound_nodes:
        - - - block35_4_mixed
            - 0
            - 0
            - {}
        name: block35_4_conv
      - class_name: Lambda
        config:
          arguments: {scale: 0.17}
          function: !!python/tuple ['4wIAAAAAAAAAAgAAAAMAAABTAAAAcxQAAAB8AGQBGQB8AGQCGQB8ARQAFwBTACkDTukAAAAA6QEA

              AACpACkC2gZpbnB1dHPaBXNjYWxlcgMAAAByAwAAAPpyL29wdC9wYWNrYWdlcy9BSS9hbmFjb25k

              YTMtNS4xLjBfZ3B1LjIwMTgtMDgvbGliL3B5dGhvbjMuNi9zaXRlLXBhY2thZ2VzL2tlcmFzX2Fw

              cGxpY2F0aW9ucy9pbmNlcHRpb25fcmVzbmV0X3YyLnB52gg8bGFtYmRhPqoAAADzAAAAAA==

              ', null, null]
          function_type: lambda
          name: block35_4
          output_shape: !!python/tuple [null, null, 320]
          output_shape_type: raw
          trainable: *id005
        inbound_nodes:
        - - - block35_3_ac
            - 0
            - 0
            - &id016 {}
          - - block35_4_conv
            - 0
            - 0
            - *id016
        name: block35_4
      - class_name: Activation
        config:
          activation: relu
          name: block35_4_ac
          trainable: *id005
        inbound_nodes:
        - - - block35_4
            - 0
            - 0
            - {}
        name: block35_4_ac
      - class_name: Conv2D
        config:
          activation: linear
          activity_regularizer: null
          bias_constraint: null
          bias_initializer:
            class_name: Zeros
            config: {}
          bias_regularizer: null
          data_format: channels_last
          dilation_rate: *id001
          filters: 32
          kernel_constraint: null
          kernel_initializer:
            class_name: VarianceScaling
            config: {distribution: uniform, mode: fan_avg, scale: 1.0, seed: null}
          kernel_regularizer: null
          kernel_size: !!python/tuple [1, 1]
          name: conv2d_42
          padding: same
          strides: !!python/tuple [1, 1]
          trainable: *id005
          use_bias: false
        inbound_nodes:
        - - - block35_4_ac
            - 0
            - 0
            - {}
        name: conv2d_42
      - class_name: BatchNormalization
        config:
          axis: 3
          beta_constraint: null
          beta_initializer:
            class_name: Zeros
            config: {}
          beta_regularizer: null
          center: true
          epsilon: 0.001
          gamma_constraint: null
          gamma_initializer:
            class_name: Ones
            config: {}
          gamma_regularizer: null
          momentum: 0.99
          moving_mean_initializer:
            class_name: Zeros
            config: {}
          moving_variance_initializer:
            class_name: Ones
            config: {}
          name: batch_normalization_40
          scale: false
          trainable: *id005
        inbound_nodes:
        - - - conv2d_42
            - 0
            - 0
            - {}
        name: batch_normalization_40
      - class_name: Activation
        config:
          activation: relu
          name: activation_40
          trainable: *id005
        inbound_nodes:
        - - - batch_normalization_40
            - 0
            - 0
            - {}
        name: activation_40
      - class_name: Conv2D
        config:
          activation: linear
          activity_regularizer: null
          bias_constraint: null
          bias_initializer:
            class_name: Zeros
            config: {}
          bias_regularizer: null
          data_format: channels_last
          dilation_rate: *id001
          filters: 32
          kernel_constraint: null
          kernel_initializer:
            class_name: VarianceScaling
            config: {distribution: uniform, mode: fan_avg, scale: 1.0, seed: null}
          kernel_regularizer: null
          kernel_size: !!python/tuple [1, 1]
          name: conv2d_40
          padding: same
          strides: !!python/tuple [1, 1]
          trainable: *id005
          use_bias: false
        inbound_nodes:
        - - - block35_4_ac
            - 0
            - 0
            - {}
        name: conv2d_40
      - class_name: Conv2D
        config:
          activation: linear
          activity_regularizer: null
          bias_constraint: null
          bias_initializer:
            class_name: Zeros
            config: {}
          bias_regularizer: null
          data_format: channels_last
          dilation_rate: *id001
          filters: 48
          kernel_constraint: null
          kernel_initializer:
            class_name: VarianceScaling
            config: {distribution: uniform, mode: fan_avg, scale: 1.0, seed: null}
          kernel_regularizer: null
          kernel_size: !!python/tuple [3, 3]
          name: conv2d_43
          padding: same
          strides: !!python/tuple [1, 1]
          trainable: *id005
          use_bias: false
        inbound_nodes:
        - - - activation_40
            - 0
            - 0
            - {}
        name: conv2d_43
      - class_name: BatchNormalization
        config:
          axis: 3
          beta_constraint: null
          beta_initializer:
            class_name: Zeros
            config: {}
          beta_regularizer: null
          center: true
          epsilon: 0.001
          gamma_constraint: null
          gamma_initializer:
            class_name: Ones
            config: {}
          gamma_regularizer: null
          momentum: 0.99
          moving_mean_initializer:
            class_name: Zeros
            config: {}
          moving_variance_initializer:
            class_name: Ones
            config: {}
          name: batch_normalization_38
          scale: false
          trainable: *id005
        inbound_nodes:
        - - - conv2d_40
            - 0
            - 0
            - {}
        name: batch_normalization_38
      - class_name: BatchNormalization
        config:
          axis: 3
          beta_constraint: null
          beta_initializer:
            class_name: Zeros
            config: {}
          beta_regularizer: null
          center: true
          epsilon: 0.001
          gamma_constraint: null
          gamma_initializer:
            class_name: Ones
            config: {}
          gamma_regularizer: null
          momentum: 0.99
          moving_mean_initializer:
            class_name: Zeros
            config: {}
          moving_variance_initializer:
            class_name: Ones
            config: {}
          name: batch_normalization_41
          scale: false
          trainable: *id005
        inbound_nodes:
        - - - conv2d_43
            - 0
            - 0
            - {}
        name: batch_normalization_41
      - class_name: Activation
        config:
          activation: relu
          name: activation_38
          trainable: *id005
        inbound_nodes:
        - - - batch_normalization_38
            - 0
            - 0
            - {}
        name: activation_38
      - class_name: Activation
        config:
          activation: relu
          name: activation_41
          trainable: *id005
        inbound_nodes:
        - - - batch_normalization_41
            - 0
            - 0
            - {}
        name: activation_41
      - class_name: Conv2D
        config:
          activation: linear
          activity_regularizer: null
          bias_constraint: null
          bias_initializer:
            class_name: Zeros
            config: {}
          bias_regularizer: null
          data_format: channels_last
          dilation_rate: *id001
          filters: 32
          kernel_constraint: null
          kernel_initializer:
            class_name: VarianceScaling
            config: {distribution: uniform, mode: fan_avg, scale: 1.0, seed: null}
          kernel_regularizer: null
          kernel_size: !!python/tuple [1, 1]
          name: conv2d_39
          padding: same
          strides: !!python/tuple [1, 1]
          trainable: *id005
          use_bias: false
        inbound_nodes:
        - - - block35_4_ac
            - 0
            - 0
            - {}
        name: conv2d_39
      - class_name: Conv2D
        config:
          activation: linear
          activity_regularizer: null
          bias_constraint: null
          bias_initializer:
            class_name: Zeros
            config: {}
          bias_regularizer: null
          data_format: channels_last
          dilation_rate: *id001
          filters: 32
          kernel_constraint: null
          kernel_initializer:
            class_name: VarianceScaling
            config: {distribution: uniform, mode: fan_avg, scale: 1.0, seed: null}
          kernel_regularizer: null
          kernel_size: !!python/tuple [3, 3]
          name: conv2d_41
          padding: same
          strides: !!python/tuple [1, 1]
          trainable: *id005
          use_bias: false
        inbound_nodes:
        - - - activation_38
            - 0
            - 0
            - {}
        name: conv2d_41
      - class_name: Conv2D
        config:
          activation: linear
          activity_regularizer: null
          bias_constraint: null
          bias_initializer:
            class_name: Zeros
            config: {}
          bias_regularizer: null
          data_format: channels_last
          dilation_rate: *id001
          filters: 64
          kernel_constraint: null
          kernel_initializer:
            class_name: VarianceScaling
            config: {distribution: uniform, mode: fan_avg, scale: 1.0, seed: null}
          kernel_regularizer: null
          kernel_size: !!python/tuple [3, 3]
          name: conv2d_44
          padding: same
          strides: !!python/tuple [1, 1]
          trainable: *id005
          use_bias: false
        inbound_nodes:
        - - - activation_41
            - 0
            - 0
            - {}
        name: conv2d_44
      - class_name: BatchNormalization
        config:
          axis: 3
          beta_constraint: null
          beta_initializer:
            class_name: Zeros
            config: {}
          beta_regularizer: null
          center: true
          epsilon: 0.001
          gamma_constraint: null
          gamma_initializer:
            class_name: Ones
            config: {}
          gamma_regularizer: null
          momentum: 0.99
          moving_mean_initializer:
            class_name: Zeros
            config: {}
          moving_variance_initializer:
            class_name: Ones
            config: {}
          name: batch_normalization_37
          scale: false
          trainable: *id005
        inbound_nodes:
        - - - conv2d_39
            - 0
            - 0
            - {}
        name: batch_normalization_37
      - class_name: BatchNormalization
        config:
          axis: 3
          beta_constraint: null
          beta_initializer:
            class_name: Zeros
            config: {}
          beta_regularizer: null
          center: true
          epsilon: 0.001
          gamma_constraint: null
          gamma_initializer:
            class_name: Ones
            config: {}
          gamma_regularizer: null
          momentum: 0.99
          moving_mean_initializer:
            class_name: Zeros
            config: {}
          moving_variance_initializer:
            class_name: Ones
            config: {}
          name: batch_normalization_39
          scale: false
          trainable: *id005
        inbound_nodes:
        - - - conv2d_41
            - 0
            - 0
            - {}
        name: batch_normalization_39
      - class_name: BatchNormalization
        config:
          axis: 3
          beta_constraint: null
          beta_initializer:
            class_name: Zeros
            config: {}
          beta_regularizer: null
          center: true
          epsilon: 0.001
          gamma_constraint: null
          gamma_initializer:
            class_name: Ones
            config: {}
          gamma_regularizer: null
          momentum: 0.99
          moving_mean_initializer:
            class_name: Zeros
            config: {}
          moving_variance_initializer:
            class_name: Ones
            config: {}
          name: batch_normalization_42
          scale: false
          trainable: *id005
        inbound_nodes:
        - - - conv2d_44
            - 0
            - 0
            - {}
        name: batch_normalization_42
      - class_name: Activation
        config:
          activation: relu
          name: activation_37
          trainable: *id005
        inbound_nodes:
        - - - batch_normalization_37
            - 0
            - 0
            - {}
        name: activation_37
      - class_name: Activation
        config:
          activation: relu
          name: activation_39
          trainable: *id005
        inbound_nodes:
        - - - batch_normalization_39
            - 0
            - 0
            - {}
        name: activation_39
      - class_name: Activation
        config:
          activation: relu
          name: activation_42
          trainable: *id005
        inbound_nodes:
        - - - batch_normalization_42
            - 0
            - 0
            - {}
        name: activation_42
      - class_name: Concatenate
        config:
          axis: 3
          name: block35_5_mixed
          trainable: *id005
        inbound_nodes:
        - - - activation_37
            - 0
            - 0
            - &id017 {}
          - - activation_39
            - 0
            - 0
            - *id017
          - - activation_42
            - 0
            - 0
            - *id017
        name: block35_5_mixed
      - class_name: Conv2D
        config:
          activation: linear
          activity_regularizer: null
          bias_constraint: null
          bias_initializer:
            class_name: Zeros
            config: {}
          bias_regularizer: null
          data_format: channels_last
          dilation_rate: *id001
          filters: 320
          kernel_constraint: null
          kernel_initializer:
            class_name: VarianceScaling
            config: {distribution: uniform, mode: fan_avg, scale: 1.0, seed: null}
          kernel_regularizer: null
          kernel_size: !!python/tuple [1, 1]
          name: block35_5_conv
          padding: same
          strides: !!python/tuple [1, 1]
          trainable: *id005
          use_bias: true
        inbound_nodes:
        - - - block35_5_mixed
            - 0
            - 0
            - {}
        name: block35_5_conv
      - class_name: Lambda
        config:
          arguments: {scale: 0.17}
          function: !!python/tuple ['4wIAAAAAAAAAAgAAAAMAAABTAAAAcxQAAAB8AGQBGQB8AGQCGQB8ARQAFwBTACkDTukAAAAA6QEA

              AACpACkC2gZpbnB1dHPaBXNjYWxlcgMAAAByAwAAAPpyL29wdC9wYWNrYWdlcy9BSS9hbmFjb25k

              YTMtNS4xLjBfZ3B1LjIwMTgtMDgvbGliL3B5dGhvbjMuNi9zaXRlLXBhY2thZ2VzL2tlcmFzX2Fw

              cGxpY2F0aW9ucy9pbmNlcHRpb25fcmVzbmV0X3YyLnB52gg8bGFtYmRhPqoAAADzAAAAAA==

              ', null, null]
          function_type: lambda
          name: block35_5
          output_shape: !!python/tuple [null, null, 320]
          output_shape_type: raw
          trainable: *id005
        inbound_nodes:
        - - - block35_4_ac
            - 0
            - 0
            - &id018 {}
          - - block35_5_conv
            - 0
            - 0
            - *id018
        name: block35_5
      - class_name: Activation
        config:
          activation: relu
          name: block35_5_ac
          trainable: *id005
        inbound_nodes:
        - - - block35_5
            - 0
            - 0
            - {}
        name: block35_5_ac
      - class_name: Conv2D
        config:
          activation: linear
          activity_regularizer: null
          bias_constraint: null
          bias_initializer:
            class_name: Zeros
            config: {}
          bias_regularizer: null
          data_format: channels_last
          dilation_rate: *id001
          filters: 32
          kernel_constraint: null
          kernel_initializer:
            class_name: VarianceScaling
            config: {distribution: uniform, mode: fan_avg, scale: 1.0, seed: null}
          kernel_regularizer: null
          kernel_size: !!python/tuple [1, 1]
          name: conv2d_48
          padding: same
          strides: !!python/tuple [1, 1]
          trainable: *id005
          use_bias: false
        inbound_nodes:
        - - - block35_5_ac
            - 0
            - 0
            - {}
        name: conv2d_48
      - class_name: BatchNormalization
        config:
          axis: 3
          beta_constraint: null
          beta_initializer:
            class_name: Zeros
            config: {}
          beta_regularizer: null
          center: true
          epsilon: 0.001
          gamma_constraint: null
          gamma_initializer:
            class_name: Ones
            config: {}
          gamma_regularizer: null
          momentum: 0.99
          moving_mean_initializer:
            class_name: Zeros
            config: {}
          moving_variance_initializer:
            class_name: Ones
            config: {}
          name: batch_normalization_46
          scale: false
          trainable: *id005
        inbound_nodes:
        - - - conv2d_48
            - 0
            - 0
            - {}
        name: batch_normalization_46
      - class_name: Activation
        config:
          activation: relu
          name: activation_46
          trainable: *id005
        inbound_nodes:
        - - - batch_normalization_46
            - 0
            - 0
            - {}
        name: activation_46
      - class_name: Conv2D
        config:
          activation: linear
          activity_regularizer: null
          bias_constraint: null
          bias_initializer:
            class_name: Zeros
            config: {}
          bias_regularizer: null
          data_format: channels_last
          dilation_rate: *id001
          filters: 32
          kernel_constraint: null
          kernel_initializer:
            class_name: VarianceScaling
            config: {distribution: uniform, mode: fan_avg, scale: 1.0, seed: null}
          kernel_regularizer: null
          kernel_size: !!python/tuple [1, 1]
          name: conv2d_46
          padding: same
          strides: !!python/tuple [1, 1]
          trainable: *id005
          use_bias: false
        inbound_nodes:
        - - - block35_5_ac
            - 0
            - 0
            - {}
        name: conv2d_46
      - class_name: Conv2D
        config:
          activation: linear
          activity_regularizer: null
          bias_constraint: null
          bias_initializer:
            class_name: Zeros
            config: {}
          bias_regularizer: null
          data_format: channels_last
          dilation_rate: *id001
          filters: 48
          kernel_constraint: null
          kernel_initializer:
            class_name: VarianceScaling
            config: {distribution: uniform, mode: fan_avg, scale: 1.0, seed: null}
          kernel_regularizer: null
          kernel_size: !!python/tuple [3, 3]
          name: conv2d_49
          padding: same
          strides: !!python/tuple [1, 1]
          trainable: *id005
          use_bias: false
        inbound_nodes:
        - - - activation_46
            - 0
            - 0
            - {}
        name: conv2d_49
      - class_name: BatchNormalization
        config:
          axis: 3
          beta_constraint: null
          beta_initializer:
            class_name: Zeros
            config: {}
          beta_regularizer: null
          center: true
          epsilon: 0.001
          gamma_constraint: null
          gamma_initializer:
            class_name: Ones
            config: {}
          gamma_regularizer: null
          momentum: 0.99
          moving_mean_initializer:
            class_name: Zeros
            config: {}
          moving_variance_initializer:
            class_name: Ones
            config: {}
          name: batch_normalization_44
          scale: false
          trainable: *id005
        inbound_nodes:
        - - - conv2d_46
            - 0
            - 0
            - {}
        name: batch_normalization_44
      - class_name: BatchNormalization
        config:
          axis: 3
          beta_constraint: null
          beta_initializer:
            class_name: Zeros
            config: {}
          beta_regularizer: null
          center: true
          epsilon: 0.001
          gamma_constraint: null
          gamma_initializer:
            class_name: Ones
            config: {}
          gamma_regularizer: null
          momentum: 0.99
          moving_mean_initializer:
            class_name: Zeros
            config: {}
          moving_variance_initializer:
            class_name: Ones
            config: {}
          name: batch_normalization_47
          scale: false
          trainable: *id005
        inbound_nodes:
        - - - conv2d_49
            - 0
            - 0
            - {}
        name: batch_normalization_47
      - class_name: Activation
        config:
          activation: relu
          name: activation_44
          trainable: *id005
        inbound_nodes:
        - - - batch_normalization_44
            - 0
            - 0
            - {}
        name: activation_44
      - class_name: Activation
        config:
          activation: relu
          name: activation_47
          trainable: *id005
        inbound_nodes:
        - - - batch_normalization_47
            - 0
            - 0
            - {}
        name: activation_47
      - class_name: Conv2D
        config:
          activation: linear
          activity_regularizer: null
          bias_constraint: null
          bias_initializer:
            class_name: Zeros
            config: {}
          bias_regularizer: null
          data_format: channels_last
          dilation_rate: *id001
          filters: 32
          kernel_constraint: null
          kernel_initializer:
            class_name: VarianceScaling
            config: {distribution: uniform, mode: fan_avg, scale: 1.0, seed: null}
          kernel_regularizer: null
          kernel_size: !!python/tuple [1, 1]
          name: conv2d_45
          padding: same
          strides: !!python/tuple [1, 1]
          trainable: *id005
          use_bias: false
        inbound_nodes:
        - - - block35_5_ac
            - 0
            - 0
            - {}
        name: conv2d_45
      - class_name: Conv2D
        config:
          activation: linear
          activity_regularizer: null
          bias_constraint: null
          bias_initializer:
            class_name: Zeros
            config: {}
          bias_regularizer: null
          data_format: channels_last
          dilation_rate: *id001
          filters: 32
          kernel_constraint: null
          kernel_initializer:
            class_name: VarianceScaling
            config: {distribution: uniform, mode: fan_avg, scale: 1.0, seed: null}
          kernel_regularizer: null
          kernel_size: !!python/tuple [3, 3]
          name: conv2d_47
          padding: same
          strides: !!python/tuple [1, 1]
          trainable: *id005
          use_bias: false
        inbound_nodes:
        - - - activation_44
            - 0
            - 0
            - {}
        name: conv2d_47
      - class_name: Conv2D
        config:
          activation: linear
          activity_regularizer: null
          bias_constraint: null
          bias_initializer:
            class_name: Zeros
            config: {}
          bias_regularizer: null
          data_format: channels_last
          dilation_rate: *id001
          filters: 64
          kernel_constraint: null
          kernel_initializer:
            class_name: VarianceScaling
            config: {distribution: uniform, mode: fan_avg, scale: 1.0, seed: null}
          kernel_regularizer: null
          kernel_size: !!python/tuple [3, 3]
          name: conv2d_50
          padding: same
          strides: !!python/tuple [1, 1]
          trainable: *id005
          use_bias: false
        inbound_nodes:
        - - - activation_47
            - 0
            - 0
            - {}
        name: conv2d_50
      - class_name: BatchNormalization
        config:
          axis: 3
          beta_constraint: null
          beta_initializer:
            class_name: Zeros
            config: {}
          beta_regularizer: null
          center: true
          epsilon: 0.001
          gamma_constraint: null
          gamma_initializer:
            class_name: Ones
            config: {}
          gamma_regularizer: null
          momentum: 0.99
          moving_mean_initializer:
            class_name: Zeros
            config: {}
          moving_variance_initializer:
            class_name: Ones
            config: {}
          name: batch_normalization_43
          scale: false
          trainable: *id005
        inbound_nodes:
        - - - conv2d_45
            - 0
            - 0
            - {}
        name: batch_normalization_43
      - class_name: BatchNormalization
        config:
          axis: 3
          beta_constraint: null
          beta_initializer:
            class_name: Zeros
            config: {}
          beta_regularizer: null
          center: true
          epsilon: 0.001
          gamma_constraint: null
          gamma_initializer:
            class_name: Ones
            config: {}
          gamma_regularizer: null
          momentum: 0.99
          moving_mean_initializer:
            class_name: Zeros
            config: {}
          moving_variance_initializer:
            class_name: Ones
            config: {}
          name: batch_normalization_45
          scale: false
          trainable: *id005
        inbound_nodes:
        - - - conv2d_47
            - 0
            - 0
            - {}
        name: batch_normalization_45
      - class_name: BatchNormalization
        config:
          axis: 3
          beta_constraint: null
          beta_initializer:
            class_name: Zeros
            config: {}
          beta_regularizer: null
          center: true
          epsilon: 0.001
          gamma_constraint: null
          gamma_initializer:
            class_name: Ones
            config: {}
          gamma_regularizer: null
          momentum: 0.99
          moving_mean_initializer:
            class_name: Zeros
            config: {}
          moving_variance_initializer:
            class_name: Ones
            config: {}
          name: batch_normalization_48
          scale: false
          trainable: *id005
        inbound_nodes:
        - - - conv2d_50
            - 0
            - 0
            - {}
        name: batch_normalization_48
      - class_name: Activation
        config:
          activation: relu
          name: activation_43
          trainable: *id005
        inbound_nodes:
        - - - batch_normalization_43
            - 0
            - 0
            - {}
        name: activation_43
      - class_name: Activation
        config:
          activation: relu
          name: activation_45
          trainable: *id005
        inbound_nodes:
        - - - batch_normalization_45
            - 0
            - 0
            - {}
        name: activation_45
      - class_name: Activation
        config:
          activation: relu
          name: activation_48
          trainable: *id005
        inbound_nodes:
        - - - batch_normalization_48
            - 0
            - 0
            - {}
        name: activation_48
      - class_name: Concatenate
        config:
          axis: 3
          name: block35_6_mixed
          trainable: *id005
        inbound_nodes:
        - - - activation_43
            - 0
            - 0
            - &id019 {}
          - - activation_45
            - 0
            - 0
            - *id019
          - - activation_48
            - 0
            - 0
            - *id019
        name: block35_6_mixed
      - class_name: Conv2D
        config:
          activation: linear
          activity_regularizer: null
          bias_constraint: null
          bias_initializer:
            class_name: Zeros
            config: {}
          bias_regularizer: null
          data_format: channels_last
          dilation_rate: *id001
          filters: 320
          kernel_constraint: null
          kernel_initializer:
            class_name: VarianceScaling
            config: {distribution: uniform, mode: fan_avg, scale: 1.0, seed: null}
          kernel_regularizer: null
          kernel_size: !!python/tuple [1, 1]
          name: block35_6_conv
          padding: same
          strides: !!python/tuple [1, 1]
          trainable: *id005
          use_bias: true
        inbound_nodes:
        - - - block35_6_mixed
            - 0
            - 0
            - {}
        name: block35_6_conv
      - class_name: Lambda
        config:
          arguments: {scale: 0.17}
          function: !!python/tuple ['4wIAAAAAAAAAAgAAAAMAAABTAAAAcxQAAAB8AGQBGQB8AGQCGQB8ARQAFwBTACkDTukAAAAA6QEA

              AACpACkC2gZpbnB1dHPaBXNjYWxlcgMAAAByAwAAAPpyL29wdC9wYWNrYWdlcy9BSS9hbmFjb25k

              YTMtNS4xLjBfZ3B1LjIwMTgtMDgvbGliL3B5dGhvbjMuNi9zaXRlLXBhY2thZ2VzL2tlcmFzX2Fw

              cGxpY2F0aW9ucy9pbmNlcHRpb25fcmVzbmV0X3YyLnB52gg8bGFtYmRhPqoAAADzAAAAAA==

              ', null, null]
          function_type: lambda
          name: block35_6
          output_shape: !!python/tuple [null, null, 320]
          output_shape_type: raw
          trainable: *id005
        inbound_nodes:
        - - - block35_5_ac
            - 0
            - 0
            - &id020 {}
          - - block35_6_conv
            - 0
            - 0
            - *id020
        name: block35_6
      - class_name: Activation
        config:
          activation: relu
          name: block35_6_ac
          trainable: *id005
        inbound_nodes:
        - - - block35_6
            - 0
            - 0
            - {}
        name: block35_6_ac
      - class_name: Conv2D
        config:
          activation: linear
          activity_regularizer: null
          bias_constraint: null
          bias_initializer:
            class_name: Zeros
            config: {}
          bias_regularizer: null
          data_format: channels_last
          dilation_rate: *id001
          filters: 32
          kernel_constraint: null
          kernel_initializer:
            class_name: VarianceScaling
            config: {distribution: uniform, mode: fan_avg, scale: 1.0, seed: null}
          kernel_regularizer: null
          kernel_size: !!python/tuple [1, 1]
          name: conv2d_54
          padding: same
          strides: !!python/tuple [1, 1]
          trainable: *id005
          use_bias: false
        inbound_nodes:
        - - - block35_6_ac
            - 0
            - 0
            - {}
        name: conv2d_54
      - class_name: BatchNormalization
        config:
          axis: 3
          beta_constraint: null
          beta_initializer:
            class_name: Zeros
            config: {}
          beta_regularizer: null
          center: true
          epsilon: 0.001
          gamma_constraint: null
          gamma_initializer:
            class_name: Ones
            config: {}
          gamma_regularizer: null
          momentum: 0.99
          moving_mean_initializer:
            class_name: Zeros
            config: {}
          moving_variance_initializer:
            class_name: Ones
            config: {}
          name: batch_normalization_52
          scale: false
          trainable: *id005
        inbound_nodes:
        - - - conv2d_54
            - 0
            - 0
            - {}
        name: batch_normalization_52
      - class_name: Activation
        config:
          activation: relu
          name: activation_52
          trainable: *id005
        inbound_nodes:
        - - - batch_normalization_52
            - 0
            - 0
            - {}
        name: activation_52
      - class_name: Conv2D
        config:
          activation: linear
          activity_regularizer: null
          bias_constraint: null
          bias_initializer:
            class_name: Zeros
            config: {}
          bias_regularizer: null
          data_format: channels_last
          dilation_rate: *id001
          filters: 32
          kernel_constraint: null
          kernel_initializer:
            class_name: VarianceScaling
            config: {distribution: uniform, mode: fan_avg, scale: 1.0, seed: null}
          kernel_regularizer: null
          kernel_size: !!python/tuple [1, 1]
          name: conv2d_52
          padding: same
          strides: !!python/tuple [1, 1]
          trainable: *id005
          use_bias: false
        inbound_nodes:
        - - - block35_6_ac
            - 0
            - 0
            - {}
        name: conv2d_52
      - class_name: Conv2D
        config:
          activation: linear
          activity_regularizer: null
          bias_constraint: null
          bias_initializer:
            class_name: Zeros
            config: {}
          bias_regularizer: null
          data_format: channels_last
          dilation_rate: *id001
          filters: 48
          kernel_constraint: null
          kernel_initializer:
            class_name: VarianceScaling
            config: {distribution: uniform, mode: fan_avg, scale: 1.0, seed: null}
          kernel_regularizer: null
          kernel_size: !!python/tuple [3, 3]
          name: conv2d_55
          padding: same
          strides: !!python/tuple [1, 1]
          trainable: *id005
          use_bias: false
        inbound_nodes:
        - - - activation_52
            - 0
            - 0
            - {}
        name: conv2d_55
      - class_name: BatchNormalization
        config:
          axis: 3
          beta_constraint: null
          beta_initializer:
            class_name: Zeros
            config: {}
          beta_regularizer: null
          center: true
          epsilon: 0.001
          gamma_constraint: null
          gamma_initializer:
            class_name: Ones
            config: {}
          gamma_regularizer: null
          momentum: 0.99
          moving_mean_initializer:
            class_name: Zeros
            config: {}
          moving_variance_initializer:
            class_name: Ones
            config: {}
          name: batch_normalization_50
          scale: false
          trainable: *id005
        inbound_nodes:
        - - - conv2d_52
            - 0
            - 0
            - {}
        name: batch_normalization_50
      - class_name: BatchNormalization
        config:
          axis: 3
          beta_constraint: null
          beta_initializer:
            class_name: Zeros
            config: {}
          beta_regularizer: null
          center: true
          epsilon: 0.001
          gamma_constraint: null
          gamma_initializer:
            class_name: Ones
            config: {}
          gamma_regularizer: null
          momentum: 0.99
          moving_mean_initializer:
            class_name: Zeros
            config: {}
          moving_variance_initializer:
            class_name: Ones
            config: {}
          name: batch_normalization_53
          scale: false
          trainable: *id005
        inbound_nodes:
        - - - conv2d_55
            - 0
            - 0
            - {}
        name: batch_normalization_53
      - class_name: Activation
        config:
          activation: relu
          name: activation_50
          trainable: *id005
        inbound_nodes:
        - - - batch_normalization_50
            - 0
            - 0
            - {}
        name: activation_50
      - class_name: Activation
        config:
          activation: relu
          name: activation_53
          trainable: *id005
        inbound_nodes:
        - - - batch_normalization_53
            - 0
            - 0
            - {}
        name: activation_53
      - class_name: Conv2D
        config:
          activation: linear
          activity_regularizer: null
          bias_constraint: null
          bias_initializer:
            class_name: Zeros
            config: {}
          bias_regularizer: null
          data_format: channels_last
          dilation_rate: *id001
          filters: 32
          kernel_constraint: null
          kernel_initializer:
            class_name: VarianceScaling
            config: {distribution: uniform, mode: fan_avg, scale: 1.0, seed: null}
          kernel_regularizer: null
          kernel_size: !!python/tuple [1, 1]
          name: conv2d_51
          padding: same
          strides: !!python/tuple [1, 1]
          trainable: *id005
          use_bias: false
        inbound_nodes:
        - - - block35_6_ac
            - 0
            - 0
            - {}
        name: conv2d_51
      - class_name: Conv2D
        config:
          activation: linear
          activity_regularizer: null
          bias_constraint: null
          bias_initializer:
            class_name: Zeros
            config: {}
          bias_regularizer: null
          data_format: channels_last
          dilation_rate: *id001
          filters: 32
          kernel_constraint: null
          kernel_initializer:
            class_name: VarianceScaling
            config: {distribution: uniform, mode: fan_avg, scale: 1.0, seed: null}
          kernel_regularizer: null
          kernel_size: !!python/tuple [3, 3]
          name: conv2d_53
          padding: same
          strides: !!python/tuple [1, 1]
          trainable: *id005
          use_bias: false
        inbound_nodes:
        - - - activation_50
            - 0
            - 0
            - {}
        name: conv2d_53
      - class_name: Conv2D
        config:
          activation: linear
          activity_regularizer: null
          bias_constraint: null
          bias_initializer:
            class_name: Zeros
            config: {}
          bias_regularizer: null
          data_format: channels_last
          dilation_rate: *id001
          filters: 64
          kernel_constraint: null
          kernel_initializer:
            class_name: VarianceScaling
            config: {distribution: uniform, mode: fan_avg, scale: 1.0, seed: null}
          kernel_regularizer: null
          kernel_size: !!python/tuple [3, 3]
          name: conv2d_56
          padding: same
          strides: !!python/tuple [1, 1]
          trainable: *id005
          use_bias: false
        inbound_nodes:
        - - - activation_53
            - 0
            - 0
            - {}
        name: conv2d_56
      - class_name: BatchNormalization
        config:
          axis: 3
          beta_constraint: null
          beta_initializer:
            class_name: Zeros
            config: {}
          beta_regularizer: null
          center: true
          epsilon: 0.001
          gamma_constraint: null
          gamma_initializer:
            class_name: Ones
            config: {}
          gamma_regularizer: null
          momentum: 0.99
          moving_mean_initializer:
            class_name: Zeros
            config: {}
          moving_variance_initializer:
            class_name: Ones
            config: {}
          name: batch_normalization_49
          scale: false
          trainable: *id005
        inbound_nodes:
        - - - conv2d_51
            - 0
            - 0
            - {}
        name: batch_normalization_49
      - class_name: BatchNormalization
        config:
          axis: 3
          beta_constraint: null
          beta_initializer:
            class_name: Zeros
            config: {}
          beta_regularizer: null
          center: true
          epsilon: 0.001
          gamma_constraint: null
          gamma_initializer:
            class_name: Ones
            config: {}
          gamma_regularizer: null
          momentum: 0.99
          moving_mean_initializer:
            class_name: Zeros
            config: {}
          moving_variance_initializer:
            class_name: Ones
            config: {}
          name: batch_normalization_51
          scale: false
          trainable: *id005
        inbound_nodes:
        - - - conv2d_53
            - 0
            - 0
            - {}
        name: batch_normalization_51
      - class_name: BatchNormalization
        config:
          axis: 3
          beta_constraint: null
          beta_initializer:
            class_name: Zeros
            config: {}
          beta_regularizer: null
          center: true
          epsilon: 0.001
          gamma_constraint: null
          gamma_initializer:
            class_name: Ones
            config: {}
          gamma_regularizer: null
          momentum: 0.99
          moving_mean_initializer:
            class_name: Zeros
            config: {}
          moving_variance_initializer:
            class_name: Ones
            config: {}
          name: batch_normalization_54
          scale: false
          trainable: *id005
        inbound_nodes:
        - - - conv2d_56
            - 0
            - 0
            - {}
        name: batch_normalization_54
      - class_name: Activation
        config:
          activation: relu
          name: activation_49
          trainable: *id005
        inbound_nodes:
        - - - batch_normalization_49
            - 0
            - 0
            - {}
        name: activation_49
      - class_name: Activation
        config:
          activation: relu
          name: activation_51
          trainable: *id005
        inbound_nodes:
        - - - batch_normalization_51
            - 0
            - 0
            - {}
        name: activation_51
      - class_name: Activation
        config:
          activation: relu
          name: activation_54
          trainable: *id005
        inbound_nodes:
        - - - batch_normalization_54
            - 0
            - 0
            - {}
        name: activation_54
      - class_name: Concatenate
        config:
          axis: 3
          name: block35_7_mixed
          trainable: *id005
        inbound_nodes:
        - - - activation_49
            - 0
            - 0
            - &id021 {}
          - - activation_51
            - 0
            - 0
            - *id021
          - - activation_54
            - 0
            - 0
            - *id021
        name: block35_7_mixed
      - class_name: Conv2D
        config:
          activation: linear
          activity_regularizer: null
          bias_constraint: null
          bias_initializer:
            class_name: Zeros
            config: {}
          bias_regularizer: null
          data_format: channels_last
          dilation_rate: *id001
          filters: 320
          kernel_constraint: null
          kernel_initializer:
            class_name: VarianceScaling
            config: {distribution: uniform, mode: fan_avg, scale: 1.0, seed: null}
          kernel_regularizer: null
          kernel_size: !!python/tuple [1, 1]
          name: block35_7_conv
          padding: same
          strides: !!python/tuple [1, 1]
          trainable: *id005
          use_bias: true
        inbound_nodes:
        - - - block35_7_mixed
            - 0
            - 0
            - {}
        name: block35_7_conv
      - class_name: Lambda
        config:
          arguments: {scale: 0.17}
          function: !!python/tuple ['4wIAAAAAAAAAAgAAAAMAAABTAAAAcxQAAAB8AGQBGQB8AGQCGQB8ARQAFwBTACkDTukAAAAA6QEA

              AACpACkC2gZpbnB1dHPaBXNjYWxlcgMAAAByAwAAAPpyL29wdC9wYWNrYWdlcy9BSS9hbmFjb25k

              YTMtNS4xLjBfZ3B1LjIwMTgtMDgvbGliL3B5dGhvbjMuNi9zaXRlLXBhY2thZ2VzL2tlcmFzX2Fw

              cGxpY2F0aW9ucy9pbmNlcHRpb25fcmVzbmV0X3YyLnB52gg8bGFtYmRhPqoAAADzAAAAAA==

              ', null, null]
          function_type: lambda
          name: block35_7
          output_shape: !!python/tuple [null, null, 320]
          output_shape_type: raw
          trainable: *id005
        inbound_nodes:
        - - - block35_6_ac
            - 0
            - 0
            - &id022 {}
          - - block35_7_conv
            - 0
            - 0
            - *id022
        name: block35_7
      - class_name: Activation
        config:
          activation: relu
          name: block35_7_ac
          trainable: *id005
        inbound_nodes:
        - - - block35_7
            - 0
            - 0
            - {}
        name: block35_7_ac
      - class_name: Conv2D
        config:
          activation: linear
          activity_regularizer: null
          bias_constraint: null
          bias_initializer:
            class_name: Zeros
            config: {}
          bias_regularizer: null
          data_format: channels_last
          dilation_rate: *id001
          filters: 32
          kernel_constraint: null
          kernel_initializer:
            class_name: VarianceScaling
            config: {distribution: uniform, mode: fan_avg, scale: 1.0, seed: null}
          kernel_regularizer: null
          kernel_size: !!python/tuple [1, 1]
          name: conv2d_60
          padding: same
          strides: !!python/tuple [1, 1]
          trainable: *id005
          use_bias: false
        inbound_nodes:
        - - - block35_7_ac
            - 0
            - 0
            - {}
        name: conv2d_60
      - class_name: BatchNormalization
        config:
          axis: 3
          beta_constraint: null
          beta_initializer:
            class_name: Zeros
            config: {}
          beta_regularizer: null
          center: true
          epsilon: 0.001
          gamma_constraint: null
          gamma_initializer:
            class_name: Ones
            config: {}
          gamma_regularizer: null
          momentum: 0.99
          moving_mean_initializer:
            class_name: Zeros
            config: {}
          moving_variance_initializer:
            class_name: Ones
            config: {}
          name: batch_normalization_58
          scale: false
          trainable: *id005
        inbound_nodes:
        - - - conv2d_60
            - 0
            - 0
            - {}
        name: batch_normalization_58
      - class_name: Activation
        config:
          activation: relu
          name: activation_58
          trainable: *id005
        inbound_nodes:
        - - - batch_normalization_58
            - 0
            - 0
            - {}
        name: activation_58
      - class_name: Conv2D
        config:
          activation: linear
          activity_regularizer: null
          bias_constraint: null
          bias_initializer:
            class_name: Zeros
            config: {}
          bias_regularizer: null
          data_format: channels_last
          dilation_rate: *id001
          filters: 32
          kernel_constraint: null
          kernel_initializer:
            class_name: VarianceScaling
            config: {distribution: uniform, mode: fan_avg, scale: 1.0, seed: null}
          kernel_regularizer: null
          kernel_size: !!python/tuple [1, 1]
          name: conv2d_58
          padding: same
          strides: !!python/tuple [1, 1]
          trainable: *id005
          use_bias: false
        inbound_nodes:
        - - - block35_7_ac
            - 0
            - 0
            - {}
        name: conv2d_58
      - class_name: Conv2D
        config:
          activation: linear
          activity_regularizer: null
          bias_constraint: null
          bias_initializer:
            class_name: Zeros
            config: {}
          bias_regularizer: null
          data_format: channels_last
          dilation_rate: *id001
          filters: 48
          kernel_constraint: null
          kernel_initializer:
            class_name: VarianceScaling
            config: {distribution: uniform, mode: fan_avg, scale: 1.0, seed: null}
          kernel_regularizer: null
          kernel_size: !!python/tuple [3, 3]
          name: conv2d_61
          padding: same
          strides: !!python/tuple [1, 1]
          trainable: *id005
          use_bias: false
        inbound_nodes:
        - - - activation_58
            - 0
            - 0
            - {}
        name: conv2d_61
      - class_name: BatchNormalization
        config:
          axis: 3
          beta_constraint: null
          beta_initializer:
            class_name: Zeros
            config: {}
          beta_regularizer: null
          center: true
          epsilon: 0.001
          gamma_constraint: null
          gamma_initializer:
            class_name: Ones
            config: {}
          gamma_regularizer: null
          momentum: 0.99
          moving_mean_initializer:
…
          name: block8_6_conv
          padding: same
          strides: !!python/tuple [1, 1]
          trainable: *id005
          use_bias: true
        inbound_nodes:
        - - - block8_6_mixed
            - 0
            - 0
            - {}
        name: block8_6_conv
      - class_name: Lambda
        config:
          arguments: {scale: 0.2}
          function: !!python/tuple ['4wIAAAAAAAAAAgAAAAMAAABTAAAAcxQAAAB8AGQBGQB8AGQCGQB8ARQAFwBTACkDTukAAAAA6QEA

              AACpACkC2gZpbnB1dHPaBXNjYWxlcgMAAAByAwAAAPpyL29wdC9wYWNrYWdlcy9BSS9hbmFjb25k

              YTMtNS4xLjBfZ3B1LjIwMTgtMDgvbGliL3B5dGhvbjMuNi9zaXRlLXBhY2thZ2VzL2tlcmFzX2Fw

              cGxpY2F0aW9ucy9pbmNlcHRpb25fcmVzbmV0X3YyLnB52gg8bGFtYmRhPqoAAADzAAAAAA==

              ', null, null]
          function_type: lambda
          name: block8_6
          output_shape: !!python/tuple [null, null, 2080]
          output_shape_type: raw
          trainable: *id005
        inbound_nodes:
        - - - block8_5_ac
            - 0
            - 0
            - &id082 {}
          - - block8_6_conv
            - 0
            - 0
            - *id082
        name: block8_6
      - class_name: Activation
        config:
          activation: relu
          name: block8_6_ac
          trainable: *id005
        inbound_nodes:
        - - - block8_6
            - 0
            - 0
            - {}
        name: block8_6_ac
      - class_name: Conv2D
        config:
          activation: linear
          activity_regularizer: null
          bias_constraint: null
          bias_initializer:
            class_name: Zeros
            config: {}
          bias_regularizer: null
          data_format: channels_last
          dilation_rate: *id001
          filters: 192
          kernel_constraint: null
          kernel_initializer:
            class_name: VarianceScaling
            config: {distribution: uniform, mode: fan_avg, scale: 1.0, seed: null}
          kernel_regularizer: null
          kernel_size: !!python/tuple [1, 1]
          name: conv2d_191
          padding: same
          strides: !!python/tuple [1, 1]
          trainable: *id005
          use_bias: false
        inbound_nodes:
        - - - block8_6_ac
            - 0
            - 0
            - {}
        name: conv2d_191
      - class_name: BatchNormalization
        config:
          axis: 3
          beta_constraint: null
          beta_initializer:
            class_name: Zeros
            config: {}
          beta_regularizer: null
          center: true
          epsilon: 0.001
          gamma_constraint: null
          gamma_initializer:
            class_name: Ones
            config: {}
          gamma_regularizer: null
          momentum: 0.99
          moving_mean_initializer:
            class_name: Zeros
            config: {}
          moving_variance_initializer:
            class_name: Ones
            config: {}
          name: batch_normalization_189
          scale: false
          trainable: *id005
        inbound_nodes:
        - - - conv2d_191
            - 0
            - 0
            - {}
        name: batch_normalization_189
      - class_name: Activation
        config:
          activation: relu
          name: activation_189
          trainable: *id005
        inbound_nodes:
        - - - batch_normalization_189
            - 0
            - 0
            - {}
        name: activation_189
      - class_name: Conv2D
        config:
          activation: linear
          activity_regularizer: null
          bias_constraint: null
          bias_initializer:
            class_name: Zeros
            config: {}
          bias_regularizer: null
          data_format: channels_last
          dilation_rate: *id001
          filters: 224
          kernel_constraint: null
          kernel_initializer:
            class_name: VarianceScaling
            config: {distribution: uniform, mode: fan_avg, scale: 1.0, seed: null}
          kernel_regularizer: null
          kernel_size: !!python/tuple [1, 3]
          name: conv2d_192
          padding: same
          strides: !!python/tuple [1, 1]
          trainable: *id005
          use_bias: false
        inbound_nodes:
        - - - activation_189
            - 0
            - 0
            - {}
        name: conv2d_192
      - class_name: BatchNormalization
        config:
          axis: 3
          beta_constraint: null
          beta_initializer:
            class_name: Zeros
            config: {}
          beta_regularizer: null
          center: true
          epsilon: 0.001
          gamma_constraint: null
          gamma_initializer:
            class_name: Ones
            config: {}
          gamma_regularizer: null
          momentum: 0.99
          moving_mean_initializer:
            class_name: Zeros
            config: {}
          moving_variance_initializer:
            class_name: Ones
            config: {}
          name: batch_normalization_190
          scale: false
          trainable: *id005
        inbound_nodes:
        - - - conv2d_192
            - 0
            - 0
            - {}
        name: batch_normalization_190
      - class_name: Activation
        config:
          activation: relu
          name: activation_190
          trainable: *id005
        inbound_nodes:
        - - - batch_normalization_190
            - 0
            - 0
            - {}
        name: activation_190
      - class_name: Conv2D
        config:
          activation: linear
          activity_regularizer: null
          bias_constraint: null
          bias_initializer:
            class_name: Zeros
            config: {}
          bias_regularizer: null
          data_format: channels_last
          dilation_rate: *id001
          filters: 192
          kernel_constraint: null
          kernel_initializer:
            class_name: VarianceScaling
            config: {distribution: uniform, mode: fan_avg, scale: 1.0, seed: null}
          kernel_regularizer: null
          kernel_size: !!python/tuple [1, 1]
          name: conv2d_190
          padding: same
          strides: !!python/tuple [1, 1]
          trainable: *id005
          use_bias: false
        inbound_nodes:
        - - - block8_6_ac
            - 0
            - 0
            - {}
        name: conv2d_190
      - class_name: Conv2D
        config:
          activation: linear
          activity_regularizer: null
          bias_constraint: null
          bias_initializer:
            class_name: Zeros
            config: {}
          bias_regularizer: null
          data_format: channels_last
          dilation_rate: *id001
          filters: 256
          kernel_constraint: null
          kernel_initializer:
            class_name: VarianceScaling
            config: {distribution: uniform, mode: fan_avg, scale: 1.0, seed: null}
          kernel_regularizer: null
          kernel_size: !!python/tuple [3, 1]
          name: conv2d_193
          padding: same
          strides: !!python/tuple [1, 1]
          trainable: *id005
          use_bias: false
        inbound_nodes:
        - - - activation_190
            - 0
            - 0
            - {}
        name: conv2d_193
      - class_name: BatchNormalization
        config:
          axis: 3
          beta_constraint: null
          beta_initializer:
            class_name: Zeros
            config: {}
          beta_regularizer: null
          center: true
          epsilon: 0.001
          gamma_constraint: null
          gamma_initializer:
            class_name: Ones
            config: {}
          gamma_regularizer: null
          momentum: 0.99
          moving_mean_initializer:
            class_name: Zeros
            config: {}
          moving_variance_initializer:
            class_name: Ones
            config: {}
          name: batch_normalization_188
          scale: false
          trainable: *id005
        inbound_nodes:
        - - - conv2d_190
            - 0
            - 0
            - {}
        name: batch_normalization_188
      - class_name: BatchNormalization
        config:
          axis: 3
          beta_constraint: null
          beta_initializer:
            class_name: Zeros
            config: {}
          beta_regularizer: null
          center: true
          epsilon: 0.001
          gamma_constraint: null
          gamma_initializer:
            class_name: Ones
            config: {}
          gamma_regularizer: null
          momentum: 0.99
          moving_mean_initializer:
            class_name: Zeros
            config: {}
          moving_variance_initializer:
            class_name: Ones
            config: {}
          name: batch_normalization_191
          scale: false
          trainable: *id005
        inbound_nodes:
        - - - conv2d_193
            - 0
            - 0
            - {}
        name: batch_normalization_191
      - class_name: Activation
        config:
          activation: relu
          name: activation_188
          trainable: *id005
        inbound_nodes:
        - - - batch_normalization_188
            - 0
            - 0
            - {}
        name: activation_188
      - class_name: Activation
        config:
          activation: relu
          name: activation_191
          trainable: *id005
        inbound_nodes:
        - - - batch_normalization_191
            - 0
            - 0
            - {}
        name: activation_191
      - class_name: Concatenate
        config:
          axis: 3
          name: block8_7_mixed
          trainable: *id005
        inbound_nodes:
        - - - activation_188
            - 0
            - 0
            - &id083 {}
          - - activation_191
            - 0
            - 0
            - *id083
        name: block8_7_mixed
      - class_name: Conv2D
        config:
          activation: linear
          activity_regularizer: null
          bias_constraint: null
          bias_initializer:
            class_name: Zeros
            config: {}
          bias_regularizer: null
          data_format: channels_last
          dilation_rate: *id001
          filters: 2080
          kernel_constraint: null
          kernel_initializer:
            class_name: VarianceScaling
            config: {distribution: uniform, mode: fan_avg, scale: 1.0, seed: null}
          kernel_regularizer: null
          kernel_size: !!python/tuple [1, 1]
          name: block8_7_conv
          padding: same
          strides: !!python/tuple [1, 1]
          trainable: *id005
          use_bias: true
        inbound_nodes:
        - - - block8_7_mixed
            - 0
            - 0
            - {}
        name: block8_7_conv
      - class_name: Lambda
        config:
          arguments: {scale: 0.2}
          function: !!python/tuple ['4wIAAAAAAAAAAgAAAAMAAABTAAAAcxQAAAB8AGQBGQB8AGQCGQB8ARQAFwBTACkDTukAAAAA6QEA

              AACpACkC2gZpbnB1dHPaBXNjYWxlcgMAAAByAwAAAPpyL29wdC9wYWNrYWdlcy9BSS9hbmFjb25k

              YTMtNS4xLjBfZ3B1LjIwMTgtMDgvbGliL3B5dGhvbjMuNi9zaXRlLXBhY2thZ2VzL2tlcmFzX2Fw

              cGxpY2F0aW9ucy9pbmNlcHRpb25fcmVzbmV0X3YyLnB52gg8bGFtYmRhPqoAAADzAAAAAA==

              ', null, null]
          function_type: lambda
          name: block8_7
          output_shape: !!python/tuple [null, null, 2080]
          output_shape_type: raw
          trainable: *id005
        inbound_nodes:
        - - - block8_6_ac
            - 0
            - 0
            - &id084 {}
          - - block8_7_conv
            - 0
            - 0
            - *id084
        name: block8_7
      - class_name: Activation
        config:
          activation: relu
          name: block8_7_ac
          trainable: *id005
        inbound_nodes:
        - - - block8_7
            - 0
            - 0
            - {}
        name: block8_7_ac
      - class_name: Conv2D
        config:
          activation: linear
          activity_regularizer: null
          bias_constraint: null
          bias_initializer:
            class_name: Zeros
            config: {}
          bias_regularizer: null
          data_format: channels_last
          dilation_rate: *id001
          filters: 192
          kernel_constraint: null
          kernel_initializer:
            class_name: VarianceScaling
            config: {distribution: uniform, mode: fan_avg, scale: 1.0, seed: null}
          kernel_regularizer: null
          kernel_size: !!python/tuple [1, 1]
          name: conv2d_195
          padding: same
          strides: !!python/tuple [1, 1]
          trainable: *id005
          use_bias: false
        inbound_nodes:
        - - - block8_7_ac
            - 0
            - 0
            - {}
        name: conv2d_195
      - class_name: BatchNormalization
        config:
          axis: 3
          beta_constraint: null
          beta_initializer:
            class_name: Zeros
            config: {}
          beta_regularizer: null
          center: true
          epsilon: 0.001
          gamma_constraint: null
          gamma_initializer:
            class_name: Ones
            config: {}
          gamma_regularizer: null
          momentum: 0.99
          moving_mean_initializer:
            class_name: Zeros
            config: {}
          moving_variance_initializer:
            class_name: Ones
            config: {}
          name: batch_normalization_193
          scale: false
          trainable: *id005
        inbound_nodes:
        - - - conv2d_195
            - 0
            - 0
            - {}
        name: batch_normalization_193
      - class_name: Activation
        config:
          activation: relu
          name: activation_193
          trainable: *id005
        inbound_nodes:
        - - - batch_normalization_193
            - 0
            - 0
            - {}
        name: activation_193
      - class_name: Conv2D
        config:
          activation: linear
          activity_regularizer: null
          bias_constraint: null
          bias_initializer:
            class_name: Zeros
            config: {}
          bias_regularizer: null
          data_format: channels_last
          dilation_rate: *id001
          filters: 224
          kernel_constraint: null
          kernel_initializer:
            class_name: VarianceScaling
            config: {distribution: uniform, mode: fan_avg, scale: 1.0, seed: null}
          kernel_regularizer: null
          kernel_size: !!python/tuple [1, 3]
          name: conv2d_196
          padding: same
          strides: !!python/tuple [1, 1]
          trainable: *id005
          use_bias: false
        inbound_nodes:
        - - - activation_193
            - 0
            - 0
            - {}
        name: conv2d_196
      - class_name: BatchNormalization
        config:
          axis: 3
          beta_constraint: null
          beta_initializer:
            class_name: Zeros
            config: {}
          beta_regularizer: null
          center: true
          epsilon: 0.001
          gamma_constraint: null
          gamma_initializer:
            class_name: Ones
            config: {}
          gamma_regularizer: null
          momentum: 0.99
          moving_mean_initializer:
            class_name: Zeros
            config: {}
          moving_variance_initializer:
            class_name: Ones
            config: {}
          name: batch_normalization_194
          scale: false
          trainable: *id005
        inbound_nodes:
        - - - conv2d_196
            - 0
            - 0
            - {}
        name: batch_normalization_194
      - class_name: Activation
        config:
          activation: relu
          name: activation_194
          trainable: *id005
        inbound_nodes:
        - - - batch_normalization_194
            - 0
            - 0
            - {}
        name: activation_194
      - class_name: Conv2D
        config:
          activation: linear
          activity_regularizer: null
          bias_constraint: null
          bias_initializer:
            class_name: Zeros
            config: {}
          bias_regularizer: null
          data_format: channels_last
          dilation_rate: *id001
          filters: 192
          kernel_constraint: null
          kernel_initializer:
            class_name: VarianceScaling
            config: {distribution: uniform, mode: fan_avg, scale: 1.0, seed: null}
          kernel_regularizer: null
          kernel_size: !!python/tuple [1, 1]
          name: conv2d_194
          padding: same
          strides: !!python/tuple [1, 1]
          trainable: *id005
          use_bias: false
        inbound_nodes:
        - - - block8_7_ac
            - 0
            - 0
            - {}
        name: conv2d_194
      - class_name: Conv2D
        config:
          activation: linear
          activity_regularizer: null
          bias_constraint: null
          bias_initializer:
            class_name: Zeros
            config: {}
          bias_regularizer: null
          data_format: channels_last
          dilation_rate: *id001
          filters: 256
          kernel_constraint: null
          kernel_initializer:
            class_name: VarianceScaling
            config: {distribution: uniform, mode: fan_avg, scale: 1.0, seed: null}
          kernel_regularizer: null
          kernel_size: !!python/tuple [3, 1]
          name: conv2d_197
          padding: same
          strides: !!python/tuple [1, 1]
          trainable: *id005
          use_bias: false
        inbound_nodes:
        - - - activation_194
            - 0
            - 0
            - {}
        name: conv2d_197
      - class_name: BatchNormalization
        config:
          axis: 3
          beta_constraint: null
          beta_initializer:
            class_name: Zeros
            config: {}
          beta_regularizer: null
          center: true
          epsilon: 0.001
          gamma_constraint: null
          gamma_initializer:
            class_name: Ones
            config: {}
          gamma_regularizer: null
          momentum: 0.99
          moving_mean_initializer:
            class_name: Zeros
            config: {}
          moving_variance_initializer:
            class_name: Ones
            config: {}
          name: batch_normalization_192
          scale: false
          trainable: *id005
        inbound_nodes:
        - - - conv2d_194
            - 0
            - 0
            - {}
        name: batch_normalization_192
      - class_name: BatchNormalization
        config:
          axis: 3
          beta_constraint: null
          beta_initializer:
            class_name: Zeros
            config: {}
          beta_regularizer: null
          center: true
          epsilon: 0.001
          gamma_constraint: null
          gamma_initializer:
            class_name: Ones
            config: {}
          gamma_regularizer: null
          momentum: 0.99
          moving_mean_initializer:
            class_name: Zeros
            config: {}
          moving_variance_initializer:
            class_name: Ones
            config: {}
          name: batch_normalization_195
          scale: false
          trainable: *id005
        inbound_nodes:
        - - - conv2d_197
            - 0
            - 0
            - {}
        name: batch_normalization_195
      - class_name: Activation
        config:
          activation: relu
          name: activation_192
          trainable: *id005
        inbound_nodes:
        - - - batch_normalization_192
            - 0
            - 0
            - {}
        name: activation_192
      - class_name: Activation
        config:
          activation: relu
          name: activation_195
          trainable: *id005
        inbound_nodes:
        - - - batch_normalization_195
            - 0
            - 0
            - {}
        name: activation_195
      - class_name: Concatenate
        config:
          axis: 3
          name: block8_8_mixed
          trainable: *id005
        inbound_nodes:
        - - - activation_192
            - 0
            - 0
            - &id085 {}
          - - activation_195
            - 0
            - 0
            - *id085
        name: block8_8_mixed
      - class_name: Conv2D
        config:
          activation: linear
          activity_regularizer: null
          bias_constraint: null
          bias_initializer:
            class_name: Zeros
            config: {}
          bias_regularizer: null
          data_format: channels_last
          dilation_rate: *id001
          filters: 2080
          kernel_constraint: null
          kernel_initializer:
            class_name: VarianceScaling
            config: {distribution: uniform, mode: fan_avg, scale: 1.0, seed: null}
          kernel_regularizer: null
          kernel_size: !!python/tuple [1, 1]
          name: block8_8_conv
          padding: same
          strides: !!python/tuple [1, 1]
          trainable: *id005
          use_bias: true
        inbound_nodes:
        - - - block8_8_mixed
            - 0
            - 0
            - {}
        name: block8_8_conv
      - class_name: Lambda
        config:
          arguments: {scale: 0.2}
          function: !!python/tuple ['4wIAAAAAAAAAAgAAAAMAAABTAAAAcxQAAAB8AGQBGQB8AGQCGQB8ARQAFwBTACkDTukAAAAA6QEA

              AACpACkC2gZpbnB1dHPaBXNjYWxlcgMAAAByAwAAAPpyL29wdC9wYWNrYWdlcy9BSS9hbmFjb25k

              YTMtNS4xLjBfZ3B1LjIwMTgtMDgvbGliL3B5dGhvbjMuNi9zaXRlLXBhY2thZ2VzL2tlcmFzX2Fw

              cGxpY2F0aW9ucy9pbmNlcHRpb25fcmVzbmV0X3YyLnB52gg8bGFtYmRhPqoAAADzAAAAAA==

              ', null, null]
          function_type: lambda
          name: block8_8
          output_shape: !!python/tuple [null, null, 2080]
          output_shape_type: raw
          trainable: *id005
        inbound_nodes:
        - - - block8_7_ac
            - 0
            - 0
            - &id086 {}
          - - block8_8_conv
            - 0
            - 0
            - *id086
        name: block8_8
      - class_name: Activation
        config:
          activation: relu
          name: block8_8_ac
          trainable: *id005
        inbound_nodes:
        - - - block8_8
            - 0
            - 0
            - {}
        name: block8_8_ac
      - class_name: Conv2D
        config:
          activation: linear
          activity_regularizer: null
          bias_constraint: null
          bias_initializer:
            class_name: Zeros
            config: {}
          bias_regularizer: null
          data_format: channels_last
          dilation_rate: *id001
          filters: 192
          kernel_constraint: null
          kernel_initializer:
            class_name: VarianceScaling
            config: {distribution: uniform, mode: fan_avg, scale: 1.0, seed: null}
          kernel_regularizer: null
          kernel_size: !!python/tuple [1, 1]
          name: conv2d_199
          padding: same
          strides: !!python/tuple [1, 1]
          trainable: *id007
          use_bias: false
        inbound_nodes:
        - - - block8_8_ac
            - 0
            - 0
            - {}
        name: conv2d_199
      - class_name: BatchNormalization
        config:
          axis: 3
          beta_constraint: null
          beta_initializer:
            class_name: Zeros
            config: {}
          beta_regularizer: null
          center: true
          epsilon: 0.001
          gamma_constraint: null
          gamma_initializer:
            class_name: Ones
            config: {}
          gamma_regularizer: null
          momentum: 0.99
          moving_mean_initializer:
            class_name: Zeros
            config: {}
          moving_variance_initializer:
            class_name: Ones
            config: {}
          name: batch_normalization_197
          scale: false
          trainable: *id007
        inbound_nodes:
        - - - conv2d_199
            - 0
            - 0
            - {}
        name: batch_normalization_197
      - class_name: Activation
        config:
          activation: relu
          name: activation_197
          trainable: *id005
        inbound_nodes:
        - - - batch_normalization_197
            - 0
            - 0
            - {}
        name: activation_197
      - class_name: Conv2D
        config:
          activation: linear
          activity_regularizer: null
          bias_constraint: null
          bias_initializer:
            class_name: Zeros
            config: {}
          bias_regularizer: null
          data_format: channels_last
          dilation_rate: *id001
          filters: 224
          kernel_constraint: null
          kernel_initializer:
            class_name: VarianceScaling
            config: {distribution: uniform, mode: fan_avg, scale: 1.0, seed: null}
          kernel_regularizer: null
          kernel_size: !!python/tuple [1, 3]
          name: conv2d_200
          padding: same
          strides: !!python/tuple [1, 1]
          trainable: *id007
          use_bias: false
        inbound_nodes:
        - - - activation_197
            - 0
            - 0
            - {}
        name: conv2d_200
      - class_name: BatchNormalization
        config:
          axis: 3
          beta_constraint: null
          beta_initializer:
            class_name: Zeros
            config: {}
          beta_regularizer: null
          center: true
          epsilon: 0.001
          gamma_constraint: null
          gamma_initializer:
            class_name: Ones
            config: {}
          gamma_regularizer: null
          momentum: 0.99
          moving_mean_initializer:
            class_name: Zeros
            config: {}
          moving_variance_initializer:
            class_name: Ones
            config: {}
          name: batch_normalization_198
          scale: false
          trainable: *id007
        inbound_nodes:
        - - - conv2d_200
            - 0
            - 0
            - {}
        name: batch_normalization_198
      - class_name: Activation
        config:
          activation: relu
          name: activation_198
          trainable: *id005
        inbound_nodes:
        - - - batch_normalization_198
            - 0
            - 0
            - {}
        name: activation_198
      - class_name: Conv2D
        config:
          activation: linear
          activity_regularizer: null
          bias_constraint: null
          bias_initializer:
            class_name: Zeros
            config: {}
          bias_regularizer: null
          data_format: channels_last
          dilation_rate: *id001
          filters: 192
          kernel_constraint: null
          kernel_initializer:
            class_name: VarianceScaling
            config: {distribution: uniform, mode: fan_avg, scale: 1.0, seed: null}
          kernel_regularizer: null
          kernel_size: !!python/tuple [1, 1]
          name: conv2d_198
          padding: same
          strides: !!python/tuple [1, 1]
          trainable: *id007
          use_bias: false
        inbound_nodes:
        - - - block8_8_ac
            - 0
            - 0
            - {}
        name: conv2d_198
      - class_name: Conv2D
        config:
          activation: linear
          activity_regularizer: null
          bias_constraint: null
          bias_initializer:
            class_name: Zeros
            config: {}
          bias_regularizer: null
          data_format: channels_last
          dilation_rate: *id001
          filters: 256
          kernel_constraint: null
          kernel_initializer:
            class_name: VarianceScaling
            config: {distribution: uniform, mode: fan_avg, scale: 1.0, seed: null}
          kernel_regularizer: null
          kernel_size: !!python/tuple [3, 1]
          name: conv2d_201
          padding: same
          strides: !!python/tuple [1, 1]
          trainable: *id007
          use_bias: false
        inbound_nodes:
        - - - activation_198
            - 0
            - 0
            - {}
        name: conv2d_201
      - class_name: BatchNormalization
        config:
          axis: 3
          beta_constraint: null
          beta_initializer:
            class_name: Zeros
            config: {}
          beta_regularizer: null
          center: true
          epsilon: 0.001
          gamma_constraint: null
          gamma_initializer:
            class_name: Ones
            config: {}
          gamma_regularizer: null
          momentum: 0.99
          moving_mean_initializer:
            class_name: Zeros
            config: {}
          moving_variance_initializer:
            class_name: Ones
            config: {}
          name: batch_normalization_196
          scale: false
          trainable: *id007
        inbound_nodes:
        - - - conv2d_198
            - 0
            - 0
            - {}
        name: batch_normalization_196
      - class_name: BatchNormalization
        config:
          axis: 3
          beta_constraint: null
          beta_initializer:
            class_name: Zeros
            config: {}
          beta_regularizer: null
          center: true
          epsilon: 0.001
          gamma_constraint: null
          gamma_initializer:
            class_name: Ones
            config: {}
          gamma_regularizer: null
          momentum: 0.99
          moving_mean_initializer:
            class_name: Zeros
            config: {}
          moving_variance_initializer:
            class_name: Ones
            config: {}
          name: batch_normalization_199
          scale: false
          trainable: *id007
        inbound_nodes:
        - - - conv2d_201
            - 0
            - 0
            - {}
        name: batch_normalization_199
      - class_name: Activation
        config:
          activation: relu
          name: activation_196
          trainable: *id005
        inbound_nodes:
        - - - batch_normalization_196
            - 0
            - 0
            - {}
        name: activation_196
      - class_name: Activation
        config:
          activation: relu
          name: activation_199
          trainable: *id005
        inbound_nodes:
        - - - batch_normalization_199
            - 0
            - 0
            - {}
        name: activation_199
      - class_name: Concatenate
        config:
          axis: 3
          name: block8_9_mixed
          trainable: *id005
        inbound_nodes:
        - - - activation_196
            - 0
            - 0
            - &id087 {}
          - - activation_199
            - 0
            - 0
            - *id087
        name: block8_9_mixed
      - class_name: Conv2D
        config:
          activation: linear
          activity_regularizer: null
          bias_constraint: null
          bias_initializer:
            class_name: Zeros
            config: {}
          bias_regularizer: null
          data_format: channels_last
          dilation_rate: *id001
          filters: 2080
          kernel_constraint: null
          kernel_initializer:
            class_name: VarianceScaling
            config: {distribution: uniform, mode: fan_avg, scale: 1.0, seed: null}
          kernel_regularizer: null
          kernel_size: !!python/tuple [1, 1]
          name: block8_9_conv
          padding: same
          strides: !!python/tuple [1, 1]
          trainable: *id007
          use_bias: true
        inbound_nodes:
        - - - block8_9_mixed
            - 0
            - 0
            - {}
        name: block8_9_conv
      - class_name: Lambda
        config:
          arguments: {scale: 0.2}
          function: !!python/tuple ['4wIAAAAAAAAAAgAAAAMAAABTAAAAcxQAAAB8AGQBGQB8AGQCGQB8ARQAFwBTACkDTukAAAAA6QEA

              AACpACkC2gZpbnB1dHPaBXNjYWxlcgMAAAByAwAAAPpyL29wdC9wYWNrYWdlcy9BSS9hbmFjb25k

              YTMtNS4xLjBfZ3B1LjIwMTgtMDgvbGliL3B5dGhvbjMuNi9zaXRlLXBhY2thZ2VzL2tlcmFzX2Fw

              cGxpY2F0aW9ucy9pbmNlcHRpb25fcmVzbmV0X3YyLnB52gg8bGFtYmRhPqoAAADzAAAAAA==

              ', null, null]
          function_type: lambda
          name: block8_9
          output_shape: !!python/tuple [null, null, 2080]
          output_shape_type: raw
          trainable: *id005
        inbound_nodes:
        - - - block8_8_ac
            - 0
            - 0
            - &id088 {}
          - - block8_9_conv
            - 0
            - 0
            - *id088
        name: block8_9
      - class_name: Activation
        config:
          activation: relu
          name: block8_9_ac
          trainable: *id005
        inbound_nodes:
        - - - block8_9
            - 0
            - 0
            - {}
        name: block8_9_ac
      - class_name: Conv2D
        config:
          activation: linear
          activity_regularizer: null
          bias_constraint: null
          bias_initializer:
            class_name: Zeros
            config: {}
          bias_regularizer: null
          data_format: channels_last
          dilation_rate: *id001
          filters: 192
          kernel_constraint: null
          kernel_initializer:
            class_name: VarianceScaling
            config: {distribution: uniform, mode: fan_avg, scale: 1.0, seed: null}
          kernel_regularizer: null
          kernel_size: !!python/tuple [1, 1]
          name: conv2d_203
          padding: same
          strides: !!python/tuple [1, 1]
          trainable: *id007
          use_bias: false
        inbound_nodes:
        - - - block8_9_ac
            - 0
            - 0
            - {}
        name: conv2d_203
      - class_name: BatchNormalization
        config:
          axis: 3
          beta_constraint: null
          beta_initializer:
            class_name: Zeros
            config: {}
          beta_regularizer: null
          center: true
          epsilon: 0.001
          gamma_constraint: null
          gamma_initializer:
            class_name: Ones
            config: {}
          gamma_regularizer: null
          momentum: 0.99
          moving_mean_initializer:
            class_name: Zeros
            config: {}
          moving_variance_initializer:
            class_name: Ones
            config: {}
          name: batch_normalization_201
          scale: false
          trainable: *id007
        inbound_nodes:
        - - - conv2d_203
            - 0
            - 0
            - {}
        name: batch_normalization_201
      - class_name: Activation
        config:
          activation: relu
          name: activation_201
          trainable: *id005
        inbound_nodes:
        - - - batch_normalization_201
            - 0
            - 0
            - {}
        name: activation_201
      - class_name: Conv2D
        config:
          activation: linear
          activity_regularizer: null
          bias_constraint: null
          bias_initializer:
            class_name: Zeros
            config: {}
          bias_regularizer: null
          data_format: channels_last
          dilation_rate: *id001
          filters: 224
          kernel_constraint: null
          kernel_initializer:
            class_name: VarianceScaling
            config: {distribution: uniform, mode: fan_avg, scale: 1.0, seed: null}
          kernel_regularizer: null
          kernel_size: !!python/tuple [1, 3]
          name: conv2d_204
          padding: same
          strides: !!python/tuple [1, 1]
          trainable: *id007
          use_bias: false
        inbound_nodes:
        - - - activation_201
            - 0
            - 0
            - {}
        name: conv2d_204
      - class_name: BatchNormalization
        config:
          axis: 3
          beta_constraint: null
          beta_initializer:
            class_name: Zeros
            config: {}
          beta_regularizer: null
          center: true
          epsilon: 0.001
          gamma_constraint: null
          gamma_initializer:
            class_name: Ones
            config: {}
          gamma_regularizer: null
          momentum: 0.99
          moving_mean_initializer:
            class_name: Zeros
            config: {}
          moving_variance_initializer:
            class_name: Ones
            config: {}
          name: batch_normalization_202
          scale: false
          trainable: *id007
        inbound_nodes:
        - - - conv2d_204
            - 0
            - 0
            - {}
        name: batch_normalization_202
      - class_name: Activation
        config:
          activation: relu
          name: activation_202
          trainable: *id005
        inbound_nodes:
        - - - batch_normalization_202
            - 0
            - 0
            - {}
        name: activation_202
      - class_name: Conv2D
        config:
          activation: linear
          activity_regularizer: null
          bias_constraint: null
          bias_initializer:
            class_name: Zeros
            config: {}
          bias_regularizer: null
          data_format: channels_last
          dilation_rate: *id001
          filters: 192
          kernel_constraint: null
          kernel_initializer:
            class_name: VarianceScaling
            config: {distribution: uniform, mode: fan_avg, scale: 1.0, seed: null}
          kernel_regularizer: null
          kernel_size: !!python/tuple [1, 1]
          name: conv2d_202
          padding: same
          strides: !!python/tuple [1, 1]
          trainable: *id007
          use_bias: false
        inbound_nodes:
        - - - block8_9_ac
            - 0
            - 0
            - {}
        name: conv2d_202
      - class_name: Conv2D
        config:
          activation: linear
          activity_regularizer: null
          bias_constraint: null
          bias_initializer:
            class_name: Zeros
            config: {}
          bias_regularizer: null
          data_format: channels_last
          dilation_rate: *id001
          filters: 256
          kernel_constraint: null
          kernel_initializer:
            class_name: VarianceScaling
            config: {distribution: uniform, mode: fan_avg, scale: 1.0, seed: null}
          kernel_regularizer: null
          kernel_size: !!python/tuple [3, 1]
          name: conv2d_205
          padding: same
          strides: !!python/tuple [1, 1]
          trainable: *id007
          use_bias: false
        inbound_nodes:
        - - - activation_202
            - 0
            - 0
            - {}
        name: conv2d_205
      - class_name: BatchNormalization
        config:
          axis: 3
          beta_constraint: null
          beta_initializer:
            class_name: Zeros
            config: {}
          beta_regularizer: null
          center: true
          epsilon: 0.001
          gamma_constraint: null
          gamma_initializer:
            class_name: Ones
            config: {}
          gamma_regularizer: null
          momentum: 0.99
          moving_mean_initializer:
            class_name: Zeros
            config: {}
          moving_variance_initializer:
            class_name: Ones
            config: {}
          name: batch_normalization_200
          scale: false
          trainable: *id007
        inbound_nodes:
        - - - conv2d_202
            - 0
            - 0
            - {}
        name: batch_normalization_200
      - class_name: BatchNormalization
        config:
          axis: 3
          beta_constraint: null
          beta_initializer:
            class_name: Zeros
            config: {}
          beta_regularizer: null
          center: true
          epsilon: 0.001
          gamma_constraint: null
          gamma_initializer:
            class_name: Ones
            config: {}
          gamma_regularizer: null
          momentum: 0.99
          moving_mean_initializer:
            class_name: Zeros
            config: {}
          moving_variance_initializer:
            class_name: Ones
            config: {}
          name: batch_normalization_203
          scale: false
          trainable: *id007
        inbound_nodes:
        - - - conv2d_205
            - 0
            - 0
            - {}
        name: batch_normalization_203
      - class_name: Activation
        config:
          activation: relu
          name: activation_200
          trainable: *id005
        inbound_nodes:
        - - - batch_normalization_200
            - 0
            - 0
            - {}
        name: activation_200
      - class_name: Activation
        config:
          activation: relu
          name: activation_203
          trainable: *id005
        inbound_nodes:
        - - - batch_normalization_203
            - 0
            - 0
            - {}
        name: activation_203
      - class_name: Concatenate
        config:
          axis: 3
          name: block8_10_mixed
          trainable: *id005
        inbound_nodes:
        - - - activation_200
            - 0
            - 0
            - &id089 {}
          - - activation_203
            - 0
            - 0
            - *id089
        name: block8_10_mixed
      - class_name: Conv2D
        config:
          activation: linear
          activity_regularizer: null
          bias_constraint: null
          bias_initializer:
            class_name: Zeros
            config: {}
          bias_regularizer: null
          data_format: channels_last
          dilation_rate: *id001
          filters: 2080
          kernel_constraint: null
          kernel_initializer:
            class_name: VarianceScaling
            config: {distribution: uniform, mode: fan_avg, scale: 1.0, seed: null}
          kernel_regularizer: null
          kernel_size: !!python/tuple [1, 1]
          name: block8_10_conv
          padding: same
          strides: !!python/tuple [1, 1]
          trainable: *id007
          use_bias: true
        inbound_nodes:
        - - - block8_10_mixed
            - 0
            - 0
            - {}
        name: block8_10_conv
      - class_name: Lambda
        config:
          arguments: {scale: 1.0}
          function: !!python/tuple ['4wIAAAAAAAAAAgAAAAMAAABTAAAAcxQAAAB8AGQBGQB8AGQCGQB8ARQAFwBTACkDTukAAAAA6QEA

              AACpACkC2gZpbnB1dHPaBXNjYWxlcgMAAAByAwAAAPpyL29wdC9wYWNrYWdlcy9BSS9hbmFjb25k

              YTMtNS4xLjBfZ3B1LjIwMTgtMDgvbGliL3B5dGhvbjMuNi9zaXRlLXBhY2thZ2VzL2tlcmFzX2Fw

              cGxpY2F0aW9ucy9pbmNlcHRpb25fcmVzbmV0X3YyLnB52gg8bGFtYmRhPqoAAADzAAAAAA==

              ', null, null]
          function_type: lambda
          name: block8_10
          output_shape: !!python/tuple [null, null, 2080]
          output_shape_type: raw
          trainable: *id005
        inbound_nodes:
        - - - block8_9_ac
            - 0
            - 0
            - &id090 {}
          - - block8_10_conv
            - 0
            - 0
            - *id090
        name: block8_10
      - class_name: Conv2D
        config:
          activation: linear
          activity_regularizer: null
          bias_constraint: null
          bias_initializer:
            class_name: Zeros
            config: {}
          bias_regularizer: null
          data_format: channels_last
          dilation_rate: *id001
          filters: 1536
          kernel_constraint: null
          kernel_initializer:
            class_name: VarianceScaling
            config: {distribution: uniform, mode: fan_avg, scale: 1.0, seed: null}
          kernel_regularizer: null
          kernel_size: !!python/tuple [1, 1]
          name: conv_7b
          padding: same
          strides: !!python/tuple [1, 1]
          trainable: *id007
          use_bias: false
        inbound_nodes:
        - - - block8_10
            - 0
            - 0
            - {}
        name: conv_7b
      - class_name: BatchNormalization
        config:
          axis: 3
          beta_constraint: null
          beta_initializer:
            class_name: Zeros
            config: {}
          beta_regularizer: null
          center: true
          epsilon: 0.001
          gamma_constraint: null
          gamma_initializer:
            class_name: Ones
            config: {}
          gamma_regularizer: null
          momentum: 0.99
          moving_mean_initializer:
            class_name: Zeros
            config: {}
          moving_variance_initializer:
            class_name: Ones
            config: {}
          name: conv_7b_bn
          scale: false
          trainable: *id007
        inbound_nodes:
        - - - conv_7b
            - 0
            - 0
            - {}
        name: conv_7b_bn
      - class_name: Activation
        config:
          activation: relu
          name: conv_7b_ac
          trainable: *id005
        inbound_nodes:
        - - - conv_7b_bn
            - 0
            - 0
            - {}
        name: conv_7b_ac
      - class_name: GlobalMaxPooling2D
        config:
          data_format: channels_last
          name: global_max_pooling2d_2
          trainable: *id005
        inbound_nodes:
        - - - conv_7b_ac
            - 0
            - 0
            - {}
        name: global_max_pooling2d_2
      name: inception_resnet_v2__1
      output_layers:
      - [global_max_pooling2d_2, 0, 0]
    inbound_nodes:
    - - - conv2d_2__1
        - 0
        - 0
        - {}
    name: inception_resnet_v2__1
  - class_name: BatchNormalization
    config:
      axis: -1
      beta_constraint: null
      beta_initializer:
        class_name: Zeros
        config: {}
      beta_regularizer: null
      center: true
      epsilon: 0.001
      gamma_constraint: null
      gamma_initializer:
        class_name: Ones
        config: {}
      gamma_regularizer: null
      momentum: 0.99
      moving_mean_initializer:
        class_name: Zeros
        config: {}
      moving_variance_initializer:
        class_name: Ones
        config: {}
      name: batch_normalization_204
      scale: true
      trainable: true
    inbound_nodes:
    - - - vgg19__0
        - 1
        - 0
        - {}
    name: batch_normalization_204
  - class_name: BatchNormalization
    config:
      axis: -1
      beta_constraint: null
      beta_initializer:
        class_name: Zeros
        config: {}
      beta_regularizer: null
      center: true
      epsilon: 0.001
      gamma_constraint: null
      gamma_initializer:
        class_name: Ones
        config: {}
      gamma_regularizer: null
      momentum: 0.99
      moving_mean_initializer:
        class_name: Zeros
        config: {}
      moving_variance_initializer:
        class_name: Ones
        config: {}
      name: batch_normalization_205
      scale: true
      trainable: true
    inbound_nodes:
    - - - inception_resnet_v2__1
        - 1
        - 0
        - {}
    name: batch_normalization_205
  - class_name: Dropout
    config: {name: dropout_1, noise_shape: null, rate: 0.3, seed: null, trainable: true}
    inbound_nodes:
    - - - batch_normalization_204
        - 0
        - 0
        - {}
    name: dropout_1
  - class_name: Dropout
    config: {name: dropout_2, noise_shape: null, rate: 0.3, seed: null, trainable: true}
    inbound_nodes:
    - - - batch_normalization_205
        - 0
        - 0
        - {}
    name: dropout_2
  - class_name: Dense
    config:
      activation: linear
      activity_regularizer: null
      bias_constraint: null
      bias_initializer:
        class_name: Zeros
        config: {}
      bias_regularizer: null
      kernel_constraint: null
      kernel_initializer:
        class_name: VarianceScaling
        config: {distribution: uniform, mode: fan_avg, scale: 1.0, seed: null}
      kernel_regularizer: null
      name: dense_1
      trainable: true
      units: 512
      use_bias: true
    inbound_nodes:
    - - - dropout_1
        - 0
        - 0
        - {}
    name: dense_1
  - class_name: Dense
    config:
      activation: linear
      activity_regularizer: null
      bias_constraint: null
      bias_initializer:
        class_name: Zeros
        config: {}
      bias_regularizer: null
      kernel_constraint: null
      kernel_initializer:
        class_name: VarianceScaling
        config: {distribution: uniform, mode: fan_avg, scale: 1.0, seed: null}
      kernel_regularizer: null
      name: dense_2
      trainable: true
      units: 512
      use_bias: true
    inbound_nodes:
    - - - dropout_2
        - 0
        - 0
        - {}
    name: dense_2
  - class_name: Multiply
    config: {name: multiply_1, trainable: true}
    inbound_nodes:
    - - - dense_1
        - 0
        - 0
        - &id091 {}
      - - dense_2
        - 0
        - 0
        - *id091
    name: multiply_1
  - class_name: BatchNormalization
    config:
      axis: -1
      beta_constraint: null
      beta_initializer:
        class_name: Zeros
        config: {}
      beta_regularizer: null
      center: true
      epsilon: 0.001
      gamma_constraint: null
      gamma_initializer:
        class_name: Ones
        config: {}
      gamma_regularizer: null
      momentum: 0.99
      moving_mean_initializer:
        class_name: Zeros
        config: {}
      moving_variance_initializer:
        class_name: Ones
        config: {}
      name: batch_normalization_206
      scale: true
      trainable: true
    inbound_nodes:
    - - - multiply_1
        - 0
        - 0
        - {}
    name: batch_normalization_206
  - class_name: Activation
    config: {activation: relu, name: activation_204, trainable: true}
    inbound_nodes:
    - - - batch_normalization_206
        - 0
        - 0
        - {}
    name: activation_204
  - class_name: Dense
    config:
      activation: softmax
      activity_regularizer: null
      bias_constraint: null
      bias_initializer:
        class_name: Zeros
        config: {}
      bias_regularizer: null
      kernel_constraint: null
      kernel_initializer:
        class_name: VarianceScaling
        config: {distribution: uniform, mode: fan_avg, scale: 1.0, seed: null}
      kernel_regularizer: null
      name: dense_3
      trainable: true
      units: 2
      use_bias: true
    inbound_nodes:
    - - - activation_204
        - 0
        - 0
        - {}
    name: dense_3
  name: model_3
  output_layers:
  - [dense_3, 0, 0]
keras_version: 2.2.2
