backend: tensorflow
class_name: Model
config:
  input_layers:
  - [data_freq_time, 0, 0]
  - [data_dm_time, 0, 0]
  layers:
  - class_name: InputLayer
    config:
      batch_input_shape: !!python/tuple [null, 256, 256, 1]
      dtype: float32
      name: data_freq_time
      sparse: false
    inbound_nodes: []
    name: data_freq_time
  - class_name: InputLayer
    config:
      batch_input_shape: !!python/tuple [null, 256, 256, 1]
      dtype: float32
      name: data_dm_time
      sparse: false
    inbound_nodes: []
    name: data_dm_time
  - class_name: Conv2D
    config:
      activation: relu
      activity_regularizer: null
      bias_constraint: null
      bias_initializer:
        class_name: Zeros
        config: {}
      bias_regularizer: null
      data_format: channels_last
      dilation_rate: &id001 !!python/tuple [1, 1]
      filters: 3
      kernel_constraint: null
      kernel_initializer:
        class_name: VarianceScaling
        config: {distribution: uniform, mode: fan_avg, scale: 1.0, seed: null}
      kernel_regularizer: null
      kernel_size: &id002 !!python/tuple [2, 2]
      name: conv2d_1__0
      padding: valid
      strides: &id003 !!python/tuple [1, 1]
      trainable: true
      use_bias: true
    inbound_nodes:
    - - - data_freq_time
        - 0
        - 0
        - {}
    name: conv2d_1__0
  - class_name: Conv2D
    config:
      activation: relu
      activity_regularizer: null
      bias_constraint: null
      bias_initializer:
        class_name: Zeros
        config: {}
      bias_regularizer: null
      data_format: channels_last
      dilation_rate: *id001
      filters: 3
      kernel_constraint: null
      kernel_initializer:
        class_name: VarianceScaling
        config: {distribution: uniform, mode: fan_avg, scale: 1.0, seed: null}
      kernel_regularizer: null
      kernel_size: *id002
      name: conv2d_2__1
      padding: valid
      strides: *id003
      trainable: true
      use_bias: true
    inbound_nodes:
    - - - data_dm_time
        - 0
        - 0
        - {}
    name: conv2d_2__1
  - class_name: Model
    config:
      input_layers:
      - [input_2, 0, 0]
      layers:
      - class_name: InputLayer
        config:
          batch_input_shape: !!python/tuple [null, null, null, 3]
          dtype: float32
          name: input_2
          sparse: false
        inbound_nodes: []
        name: input_2
      - class_name: ZeroPadding2D
        config:
          data_format: channels_last
          name: zero_padding2d_1
          padding: !!python/tuple
          - !!python/tuple [3, 3]
          - !!python/tuple [3, 3]
          trainable: &id004 !!python/object/apply:numpy.core.multiarray.scalar
          - &id103 !!python/object/apply:numpy.dtype
            args: [b1, 0, 1]
            state: !!python/tuple [3, '|', null, null, null, -1, -1, 0]
          - !!binary |
            AA==
        inbound_nodes:
        - - - input_2
            - 0
            - 0
            - {}
        name: zero_padding2d_1
      - class_name: Conv2D
        config:
          activation: linear
          activity_regularizer: null
          bias_constraint: null
          bias_initializer:
            class_name: Zeros
            config: {}
          bias_regularizer: null
          data_format: channels_last
          dilation_rate: *id001
          filters: 64
          kernel_constraint: null
          kernel_initializer:
            class_name: VarianceScaling
            config: {distribution: uniform, mode: fan_avg, scale: 1.0, seed: null}
          kernel_regularizer: null
          kernel_size: !!python/tuple [7, 7]
          name: conv1/conv
          padding: valid
          strides: !!python/tuple [2, 2]
          trainable: *id004
          use_bias: false
        inbound_nodes:
        - - - zero_padding2d_1
            - 0
            - 0
            - {}
        name: conv1/conv
      - class_name: BatchNormalization
        config:
          axis: 3
          beta_constraint: null
          beta_initializer:
            class_name: Zeros
            config: {}
          beta_regularizer: null
          center: true
          epsilon: 1.001e-05
          gamma_constraint: null
          gamma_initializer:
            class_name: Ones
            config: {}
          gamma_regularizer: null
          momentum: 0.99
          moving_mean_initializer:
            class_name: Zeros
            config: {}
          moving_variance_initializer:
            class_name: Ones
            config: {}
          name: conv1/bn
          scale: true
          trainable: *id004
        inbound_nodes:
        - - - conv1/conv
            - 0
            - 0
            - {}
        name: conv1/bn
      - class_name: Activation
        config:
          activation: relu
          name: conv1/relu
          trainable: *id004
        inbound_nodes:
        - - - conv1/bn
            - 0
            - 0
            - {}
        name: conv1/relu
      - class_name: ZeroPadding2D
        config:
          data_format: channels_last
          name: zero_padding2d_2
          padding: !!python/tuple
          - !!python/tuple [1, 1]
          - !!python/tuple [1, 1]
          trainable: *id004
        inbound_nodes:
        - - - conv1/relu
            - 0
            - 0
            - {}
        name: zero_padding2d_2
      - class_name: MaxPooling2D
        config:
          data_format: channels_last
          name: pool1
          padding: valid
          pool_size: !!python/tuple [3, 3]
          strides: !!python/tuple [2, 2]
          trainable: *id004
        inbound_nodes:
        - - - zero_padding2d_2
            - 0
            - 0
            - {}
        name: pool1
      - class_name: BatchNormalization
        config:
          axis: 3
          beta_constraint: null
          beta_initializer:
            class_name: Zeros
            config: {}
          beta_regularizer: null
          center: true
          epsilon: 1.001e-05
          gamma_constraint: null
          gamma_initializer:
            class_name: Ones
            config: {}
          gamma_regularizer: null
          momentum: 0.99
          moving_mean_initializer:
            class_name: Zeros
            config: {}
          moving_variance_initializer:
            class_name: Ones
            config: {}
          name: conv2_block1_0_bn
          scale: true
          trainable: *id004
        inbound_nodes:
        - - - pool1
            - 0
            - 0
            - {}
        name: conv2_block1_0_bn
      - class_name: Activation
        config:
          activation: relu
          name: conv2_block1_0_relu
          trainable: *id004
        inbound_nodes:
        - - - conv2_block1_0_bn
            - 0
            - 0
            - {}
        name: conv2_block1_0_relu
      - class_name: Conv2D
        config:
          activation: linear
          activity_regularizer: null
          bias_constraint: null
          bias_initializer:
            class_name: Zeros
            config: {}
          bias_regularizer: null
          data_format: channels_last
          dilation_rate: *id001
          filters: 128
          kernel_constraint: null
          kernel_initializer:
            class_name: VarianceScaling
            config: {distribution: uniform, mode: fan_avg, scale: 1.0, seed: null}
          kernel_regularizer: null
          kernel_size: !!python/tuple [1, 1]
          name: conv2_block1_1_conv
          padding: valid
          strides: &id005 !!python/tuple [1, 1]
          trainable: *id004
          use_bias: false
        inbound_nodes:
        - - - conv2_block1_0_relu
            - 0
            - 0
            - {}
        name: conv2_block1_1_conv
      - class_name: BatchNormalization
        config:
          axis: 3
          beta_constraint: null
          beta_initializer:
            class_name: Zeros
            config: {}
          beta_regularizer: null
          center: true
          epsilon: 1.001e-05
          gamma_constraint: null
          gamma_initializer:
            class_name: Ones
            config: {}
          gamma_regularizer: null
          momentum: 0.99
          moving_mean_initializer:
            class_name: Zeros
            config: {}
          moving_variance_initializer:
            class_name: Ones
            config: {}
          name: conv2_block1_1_bn
          scale: true
          trainable: *id004
        inbound_nodes:
        - - - conv2_block1_1_conv
            - 0
            - 0
            - {}
        name: conv2_block1_1_bn
      - class_name: Activation
        config:
          activation: relu
          name: conv2_block1_1_relu
          trainable: *id004
        inbound_nodes:
        - - - conv2_block1_1_bn
            - 0
            - 0
            - {}
        name: conv2_block1_1_relu
      - class_name: Conv2D
        config:
          activation: linear
          activity_regularizer: null
          bias_constraint: null
          bias_initializer:
            class_name: Zeros
            config: {}
          bias_regularizer: null
          data_format: channels_last
          dilation_rate: *id001
          filters: 32
          kernel_constraint: null
          kernel_initializer:
            class_name: VarianceScaling
            config: {distribution: uniform, mode: fan_avg, scale: 1.0, seed: null}
          kernel_regularizer: null
          kernel_size: !!python/tuple [3, 3]
          name: conv2_block1_2_conv
          padding: same
          strides: *id005
          trainable: *id004
          use_bias: false
        inbound_nodes:
        - - - conv2_block1_1_relu
            - 0
            - 0
            - {}
        name: conv2_block1_2_conv
      - class_name: Concatenate
        config:
          axis: 3
          name: conv2_block1_concat
          trainable: *id004
        inbound_nodes:
        - - - pool1
            - 0
            - 0
            - &id006 {}
          - - conv2_block1_2_conv
            - 0
            - 0
            - *id006
        name: conv2_block1_concat
      - class_name: BatchNormalization
        config:
          axis: 3
          beta_constraint: null
          beta_initializer:
            class_name: Zeros
            config: {}
          beta_regularizer: null
          center: true
          epsilon: 1.001e-05
          gamma_constraint: null
          gamma_initializer:
            class_name: Ones
            config: {}
          gamma_regularizer: null
          momentum: 0.99
          moving_mean_initializer:
            class_name: Zeros
            config: {}
          moving_variance_initializer:
            class_name: Ones
            config: {}
          name: conv2_block2_0_bn
          scale: true
          trainable: *id004
        inbound_nodes:
        - - - conv2_block1_concat
            - 0
            - 0
            - {}
        name: conv2_block2_0_bn
      - class_name: Activation
        config:
          activation: relu
          name: conv2_block2_0_relu
          trainable: *id004
        inbound_nodes:
        - - - conv2_block2_0_bn
            - 0
            - 0
            - {}
        name: conv2_block2_0_relu
      - class_name: Conv2D
        config:
          activation: linear
          activity_regularizer: null
          bias_constraint: null
          bias_initializer:
            class_name: Zeros
            config: {}
          bias_regularizer: null
          data_format: channels_last
          dilation_rate: *id001
          filters: 128
          kernel_constraint: null
          kernel_initializer:
            class_name: VarianceScaling
            config: {distribution: uniform, mode: fan_avg, scale: 1.0, seed: null}
          kernel_regularizer: null
          kernel_size: !!python/tuple [1, 1]
          name: conv2_block2_1_conv
          padding: valid
          strides: *id005
          trainable: *id004
          use_bias: false
        inbound_nodes:
        - - - conv2_block2_0_relu
            - 0
            - 0
            - {}
        name: conv2_block2_1_conv
      - class_name: BatchNormalization
        config:
          axis: 3
          beta_constraint: null
          beta_initializer:
            class_name: Zeros
            config: {}
          beta_regularizer: null
          center: true
          epsilon: 1.001e-05
          gamma_constraint: null
          gamma_initializer:
            class_name: Ones
            config: {}
          gamma_regularizer: null
          momentum: 0.99
          moving_mean_initializer:
            class_name: Zeros
            config: {}
          moving_variance_initializer:
            class_name: Ones
            config: {}
          name: conv2_block2_1_bn
          scale: true
          trainable: *id004
        inbound_nodes:
        - - - conv2_block2_1_conv
            - 0
            - 0
            - {}
        name: conv2_block2_1_bn
      - class_name: Activation
        config:
          activation: relu
          name: conv2_block2_1_relu
          trainable: *id004
        inbound_nodes:
        - - - conv2_block2_1_bn
            - 0
            - 0
            - {}
        name: conv2_block2_1_relu
      - class_name: Conv2D
        config:
          activation: linear
          activity_regularizer: null
          bias_constraint: null
          bias_initializer:
            class_name: Zeros
            config: {}
          bias_regularizer: null
          data_format: channels_last
          dilation_rate: *id001
          filters: 32
          kernel_constraint: null
          kernel_initializer:
            class_name: VarianceScaling
            config: {distribution: uniform, mode: fan_avg, scale: 1.0, seed: null}
          kernel_regularizer: null
          kernel_size: !!python/tuple [3, 3]
          name: conv2_block2_2_conv
          padding: same
          strides: *id005
          trainable: *id004
          use_bias: false
        inbound_nodes:
        - - - conv2_block2_1_relu
            - 0
            - 0
            - {}
        name: conv2_block2_2_conv
      - class_name: Concatenate
        config:
          axis: 3
          name: conv2_block2_concat
          trainable: *id004
        inbound_nodes:
        - - - conv2_block1_concat
            - 0
            - 0
            - &id007 {}
          - - conv2_block2_2_conv
            - 0
            - 0
            - *id007
        name: conv2_block2_concat
      - class_name: BatchNormalization
        config:
          axis: 3
          beta_constraint: null
          beta_initializer:
            class_name: Zeros
            config: {}
          beta_regularizer: null
          center: true
          epsilon: 1.001e-05
          gamma_constraint: null
          gamma_initializer:
            class_name: Ones
            config: {}
          gamma_regularizer: null
          momentum: 0.99
          moving_mean_initializer:
            class_name: Zeros
            config: {}
          moving_variance_initializer:
            class_name: Ones
            config: {}
          name: conv2_block3_0_bn
          scale: true
          trainable: *id004
        inbound_nodes:
        - - - conv2_block2_concat
            - 0
            - 0
            - {}
        name: conv2_block3_0_bn
      - class_name: Activation
        config:
          activation: relu
          name: conv2_block3_0_relu
          trainable: *id004
        inbound_nodes:
        - - - conv2_block3_0_bn
            - 0
            - 0
            - {}
        name: conv2_block3_0_relu
      - class_name: Conv2D
        config:
          activation: linear
          activity_regularizer: null
          bias_constraint: null
          bias_initializer:
            class_name: Zeros
            config: {}
          bias_regularizer: null
          data_format: channels_last
          dilation_rate: *id001
          filters: 128
          kernel_constraint: null
          kernel_initializer:
            class_name: VarianceScaling
            config: {distribution: uniform, mode: fan_avg, scale: 1.0, seed: null}
          kernel_regularizer: null
          kernel_size: !!python/tuple [1, 1]
          name: conv2_block3_1_conv
          padding: valid
          strides: *id005
          trainable: *id004
          use_bias: false
        inbound_nodes:
        - - - conv2_block3_0_relu
            - 0
            - 0
            - {}
        name: conv2_block3_1_conv
      - class_name: BatchNormalization
        config:
          axis: 3
          beta_constraint: null
          beta_initializer:
            class_name: Zeros
            config: {}
          beta_regularizer: null
          center: true
          epsilon: 1.001e-05
          gamma_constraint: null
          gamma_initializer:
            class_name: Ones
            config: {}
          gamma_regularizer: null
          momentum: 0.99
          moving_mean_initializer:
            class_name: Zeros
            config: {}
          moving_variance_initializer:
            class_name: Ones
            config: {}
          name: conv2_block3_1_bn
          scale: true
          trainable: *id004
        inbound_nodes:
        - - - conv2_block3_1_conv
            - 0
            - 0
            - {}
        name: conv2_block3_1_bn
      - class_name: Activation
        config:
          activation: relu
          name: conv2_block3_1_relu
          trainable: *id004
        inbound_nodes:
        - - - conv2_block3_1_bn
            - 0
            - 0
            - {}
        name: conv2_block3_1_relu
      - class_name: Conv2D
        config:
          activation: linear
          activity_regularizer: null
          bias_constraint: null
          bias_initializer:
            class_name: Zeros
            config: {}
          bias_regularizer: null
          data_format: channels_last
          dilation_rate: *id001
          filters: 32
          kernel_constraint: null
          kernel_initializer:
            class_name: VarianceScaling
            config: {distribution: uniform, mode: fan_avg, scale: 1.0, seed: null}
          kernel_regularizer: null
          kernel_size: !!python/tuple [3, 3]
          name: conv2_block3_2_conv
          padding: same
          strides: *id005
          trainable: *id004
          use_bias: false
        inbound_nodes:
        - - - conv2_block3_1_relu
            - 0
            - 0
            - {}
        name: conv2_block3_2_conv
      - class_name: Concatenate
        config:
          axis: 3
          name: conv2_block3_concat
          trainable: *id004
        inbound_nodes:
        - - - conv2_block2_concat
            - 0
            - 0
            - &id008 {}
          - - conv2_block3_2_conv
            - 0
            - 0
            - *id008
        name: conv2_block3_concat
      - class_name: BatchNormalization
        config:
          axis: 3
          beta_constraint: null
          beta_initializer:
            class_name: Zeros
            config: {}
          beta_regularizer: null
          center: true
          epsilon: 1.001e-05
          gamma_constraint: null
          gamma_initializer:
            class_name: Ones
            config: {}
          gamma_regularizer: null
          momentum: 0.99
          moving_mean_initializer:
            class_name: Zeros
            config: {}
          moving_variance_initializer:
            class_name: Ones
            config: {}
          name: conv2_block4_0_bn
          scale: true
          trainable: *id004
        inbound_nodes:
        - - - conv2_block3_concat
            - 0
            - 0
            - {}
        name: conv2_block4_0_bn
      - class_name: Activation
        config:
          activation: relu
          name: conv2_block4_0_relu
          trainable: *id004
        inbound_nodes:
        - - - conv2_block4_0_bn
            - 0
            - 0
            - {}
        name: conv2_block4_0_relu
      - class_name: Conv2D
        config:
          activation: linear
          activity_regularizer: null
          bias_constraint: null
          bias_initializer:
            class_name: Zeros
            config: {}
          bias_regularizer: null
          data_format: channels_last
          dilation_rate: *id001
          filters: 128
          kernel_constraint: null
          kernel_initializer:
            class_name: VarianceScaling
            config: {distribution: uniform, mode: fan_avg, scale: 1.0, seed: null}
          kernel_regularizer: null
          kernel_size: !!python/tuple [1, 1]
          name: conv2_block4_1_conv
          padding: valid
          strides: *id005
          trainable: *id004
          use_bias: false
        inbound_nodes:
        - - - conv2_block4_0_relu
            - 0
            - 0
            - {}
        name: conv2_block4_1_conv
      - class_name: BatchNormalization
        config:
          axis: 3
          beta_constraint: null
          beta_initializer:
            class_name: Zeros
            config: {}
          beta_regularizer: null
          center: true
          epsilon: 1.001e-05
          gamma_constraint: null
          gamma_initializer:
            class_name: Ones
            config: {}
          gamma_regularizer: null
          momentum: 0.99
          moving_mean_initializer:
            class_name: Zeros
            config: {}
          moving_variance_initializer:
            class_name: Ones
            config: {}
          name: conv2_block4_1_bn
          scale: true
          trainable: *id004
        inbound_nodes:
        - - - conv2_block4_1_conv
            - 0
            - 0
            - {}
        name: conv2_block4_1_bn
      - class_name: Activation
        config:
          activation: relu
          name: conv2_block4_1_relu
          trainable: *id004
        inbound_nodes:
        - - - conv2_block4_1_bn
            - 0
            - 0
            - {}
        name: conv2_block4_1_relu
      - class_name: Conv2D
        config:
          activation: linear
          activity_regularizer: null
          bias_constraint: null
          bias_initializer:
            class_name: Zeros
            config: {}
          bias_regularizer: null
          data_format: channels_last
          dilation_rate: *id001
          filters: 32
          kernel_constraint: null
          kernel_initializer:
            class_name: VarianceScaling
            config: {distribution: uniform, mode: fan_avg, scale: 1.0, seed: null}
          kernel_regularizer: null
          kernel_size: !!python/tuple [3, 3]
          name: conv2_block4_2_conv
          padding: same
          strides: *id005
          trainable: *id004
          use_bias: false
        inbound_nodes:
        - - - conv2_block4_1_relu
            - 0
            - 0
            - {}
        name: conv2_block4_2_conv
      - class_name: Concatenate
        config:
          axis: 3
          name: conv2_block4_concat
          trainable: *id004
        inbound_nodes:
        - - - conv2_block3_concat
            - 0
            - 0
            - &id009 {}
          - - conv2_block4_2_conv
            - 0
            - 0
            - *id009
        name: conv2_block4_concat
      - class_name: BatchNormalization
        config:
          axis: 3
          beta_constraint: null
          beta_initializer:
            class_name: Zeros
            config: {}
          beta_regularizer: null
          center: true
          epsilon: 1.001e-05
          gamma_constraint: null
          gamma_initializer:
            class_name: Ones
            config: {}
          gamma_regularizer: null
          momentum: 0.99
          moving_mean_initializer:
            class_name: Zeros
            config: {}
          moving_variance_initializer:
            class_name: Ones
            config: {}
          name: conv2_block5_0_bn
          scale: true
          trainable: *id004
        inbound_nodes:
        - - - conv2_block4_concat
            - 0
            - 0
            - {}
        name: conv2_block5_0_bn
      - class_name: Activation
        config:
          activation: relu
          name: conv2_block5_0_relu
          trainable: *id004
        inbound_nodes:
        - - - conv2_block5_0_bn
            - 0
            - 0
            - {}
        name: conv2_block5_0_relu
      - class_name: Conv2D
        config:
          activation: linear
          activity_regularizer: null
          bias_constraint: null
          bias_initializer:
            class_name: Zeros
            config: {}
          bias_regularizer: null
          data_format: channels_last
          dilation_rate: *id001
          filters: 128
          kernel_constraint: null
          kernel_initializer:
            class_name: VarianceScaling
            config: {distribution: uniform, mode: fan_avg, scale: 1.0, seed: null}
          kernel_regularizer: null
          kernel_size: !!python/tuple [1, 1]
          name: conv2_block5_1_conv
          padding: valid
          strides: *id005
          trainable: *id004
          use_bias: false
        inbound_nodes:
        - - - conv2_block5_0_relu
            - 0
            - 0
            - {}
        name: conv2_block5_1_conv
      - class_name: BatchNormalization
        config:
          axis: 3
          beta_constraint: null
          beta_initializer:
            class_name: Zeros
            config: {}
          beta_regularizer: null
          center: true
          epsilon: 1.001e-05
          gamma_constraint: null
          gamma_initializer:
            class_name: Ones
            config: {}
          gamma_regularizer: null
          momentum: 0.99
          moving_mean_initializer:
            class_name: Zeros
            config: {}
          moving_variance_initializer:
            class_name: Ones
            config: {}
          name: conv2_block5_1_bn
          scale: true
          trainable: *id004
        inbound_nodes:
        - - - conv2_block5_1_conv
            - 0
            - 0
            - {}
        name: conv2_block5_1_bn
      - class_name: Activation
        config:
          activation: relu
          name: conv2_block5_1_relu
          trainable: *id004
        inbound_nodes:
        - - - conv2_block5_1_bn
            - 0
            - 0
            - {}
        name: conv2_block5_1_relu
      - class_name: Conv2D
        config:
          activation: linear
          activity_regularizer: null
          bias_constraint: null
          bias_initializer:
            class_name: Zeros
            config: {}
          bias_regularizer: null
          data_format: channels_last
          dilation_rate: *id001
          filters: 32
          kernel_constraint: null
          kernel_initializer:
            class_name: VarianceScaling
            config: {distribution: uniform, mode: fan_avg, scale: 1.0, seed: null}
          kernel_regularizer: null
          kernel_size: !!python/tuple [3, 3]
          name: conv2_block5_2_conv
          padding: same
          strides: *id005
          trainable: *id004
          use_bias: false
        inbound_nodes:
        - - - conv2_block5_1_relu
            - 0
            - 0
            - {}
        name: conv2_block5_2_conv
      - class_name: Concatenate
        config:
          axis: 3
          name: conv2_block5_concat
          trainable: *id004
        inbound_nodes:
        - - - conv2_block4_concat
            - 0
            - 0
            - &id010 {}
          - - conv2_block5_2_conv
            - 0
            - 0
            - *id010
        name: conv2_block5_concat
      - class_name: BatchNormalization
        config:
          axis: 3
          beta_constraint: null
          beta_initializer:
            class_name: Zeros
            config: {}
          beta_regularizer: null
          center: true
          epsilon: 1.001e-05
          gamma_constraint: null
          gamma_initializer:
            class_name: Ones
            config: {}
          gamma_regularizer: null
          momentum: 0.99
          moving_mean_initializer:
            class_name: Zeros
            config: {}
          moving_variance_initializer:
            class_name: Ones
            config: {}
          name: conv2_block6_0_bn
          scale: true
          trainable: *id004
        inbound_nodes:
        - - - conv2_block5_concat
            - 0
            - 0
            - {}
        name: conv2_block6_0_bn
      - class_name: Activation
        config:
          activation: relu
          name: conv2_block6_0_relu
          trainable: *id004
        inbound_nodes:
        - - - conv2_block6_0_bn
            - 0
            - 0
            - {}
        name: conv2_block6_0_relu
      - class_name: Conv2D
        config:
          activation: linear
          activity_regularizer: null
          bias_constraint: null
          bias_initializer:
            class_name: Zeros
            config: {}
          bias_regularizer: null
          data_format: channels_last
          dilation_rate: *id001
          filters: 128
          kernel_constraint: null
          kernel_initializer:
            class_name: VarianceScaling
            config: {distribution: uniform, mode: fan_avg, scale: 1.0, seed: null}
          kernel_regularizer: null
          kernel_size: !!python/tuple [1, 1]
          name: conv2_block6_1_conv
          padding: valid
          strides: *id005
          trainable: *id004
          use_bias: false
        inbound_nodes:
        - - - conv2_block6_0_relu
            - 0
            - 0
            - {}
        name: conv2_block6_1_conv
      - class_name: BatchNormalization
        config:
          axis: 3
          beta_constraint: null
          beta_initializer:
            class_name: Zeros
            config: {}
          beta_regularizer: null
          center: true
          epsilon: 1.001e-05
          gamma_constraint: null
          gamma_initializer:
            class_name: Ones
            config: {}
          gamma_regularizer: null
          momentum: 0.99
          moving_mean_initializer:
            class_name: Zeros
            config: {}
          moving_variance_initializer:
            class_name: Ones
            config: {}
          name: conv2_block6_1_bn
          scale: true
          trainable: *id004
        inbound_nodes:
        - - - conv2_block6_1_conv
            - 0
            - 0
            - {}
        name: conv2_block6_1_bn
      - class_name: Activation
        config:
          activation: relu
          name: conv2_block6_1_relu
          trainable: *id004
        inbound_nodes:
        - - - conv2_block6_1_bn
            - 0
            - 0
            - {}
        name: conv2_block6_1_relu
      - class_name: Conv2D
        config:
          activation: linear
          activity_regularizer: null
          bias_constraint: null
          bias_initializer:
            class_name: Zeros
            config: {}
          bias_regularizer: null
          data_format: channels_last
          dilation_rate: *id001
          filters: 32
          kernel_constraint: null
          kernel_initializer:
            class_name: VarianceScaling
            config: {distribution: uniform, mode: fan_avg, scale: 1.0, seed: null}
          kernel_regularizer: null
          kernel_size: !!python/tuple [3, 3]
          name: conv2_block6_2_conv
          padding: same
          strides: *id005
          trainable: *id004
          use_bias: false
        inbound_nodes:
        - - - conv2_block6_1_relu
            - 0
            - 0
            - {}
        name: conv2_block6_2_conv
      - class_name: Concatenate
        config:
          axis: 3
          name: conv2_block6_concat
          trainable: *id004
        inbound_nodes:
        - - - conv2_block5_concat
            - 0
            - 0
            - &id011 {}
          - - conv2_block6_2_conv
            - 0
            - 0
            - *id011
        name: conv2_block6_concat
      - class_name: BatchNormalization
        config:
          axis: 3
          beta_constraint: null
          beta_initializer:
            class_name: Zeros
            config: {}
          beta_regularizer: null
          center: true
          epsilon: 1.001e-05
          gamma_constraint: null
          gamma_initializer:
            class_name: Ones
            config: {}
          gamma_regularizer: null
          momentum: 0.99
          moving_mean_initializer:
            class_name: Zeros
            config: {}
          moving_variance_initializer:
            class_name: Ones
            config: {}
          name: pool2_bn
          scale: true
          trainable: *id004
        inbound_nodes:
        - - - conv2_block6_concat
            - 0
            - 0
            - {}
        name: pool2_bn
      - class_name: Activation
        config:
          activation: relu
          name: pool2_relu
          trainable: *id004
        inbound_nodes:
        - - - pool2_bn
            - 0
            - 0
            - {}
        name: pool2_relu
      - class_name: Conv2D
        config:
          activation: linear
          activity_regularizer: null
          bias_constraint: null
          bias_initializer:
            class_name: Zeros
            config: {}
          bias_regularizer: null
          data_format: channels_last
          dilation_rate: *id001
          filters: 128
          kernel_constraint: null
          kernel_initializer:
            class_name: VarianceScaling
            config: {distribution: uniform, mode: fan_avg, scale: 1.0, seed: null}
          kernel_regularizer: null
          kernel_size: !!python/tuple [1, 1]
          name: pool2_conv
          padding: valid
          strides: *id005
          trainable: *id004
          use_bias: false
        inbound_nodes:
        - - - pool2_relu
            - 0
            - 0
            - {}
        name: pool2_conv
      - class_name: AveragePooling2D
        config:
          data_format: channels_last
          name: pool2_pool
          padding: valid
          pool_size: !!python/tuple [2, 2]
          strides: !!python/tuple [2, 2]
          trainable: *id004
        inbound_nodes:
        - - - pool2_conv
            - 0
            - 0
            - {}
        name: pool2_pool
      - class_name: BatchNormalization
        config:
          axis: 3
          beta_constraint: null
          beta_initializer:
            class_name: Zeros
            config: {}
          beta_regularizer: null
          center: true
          epsilon: 1.001e-05
          gamma_constraint: null
          gamma_initializer:
            class_name: Ones
            config: {}
          gamma_regularizer: null
          momentum: 0.99
          moving_mean_initializer:
            class_name: Zeros
            config: {}
          moving_variance_initializer:
            class_name: Ones
            config: {}
          name: conv3_block1_0_bn
          scale: true
          trainable: *id004
        inbound_nodes:
        - - - pool2_pool
            - 0
            - 0
            - {}
        name: conv3_block1_0_bn
      - class_name: Activation
        config:
          activation: relu
          name: conv3_block1_0_relu
          trainable: *id004
        inbound_nodes:
        - - - conv3_block1_0_bn
            - 0
            - 0
            - {}
        name: conv3_block1_0_relu
      - class_name: Conv2D
        config:
          activation: linear
          activity_regularizer: null
          bias_constraint: null
          bias_initializer:
            class_name: Zeros
            config: {}
          bias_regularizer: null
          data_format: channels_last
          dilation_rate: *id001
          filters: 128
          kernel_constraint: null
          kernel_initializer:
            class_name: VarianceScaling
            config: {distribution: uniform, mode: fan_avg, scale: 1.0, seed: null}
          kernel_regularizer: null
          kernel_size: !!python/tuple [1, 1]
          name: conv3_block1_1_conv
          padding: valid
          strides: *id005
          trainable: *id004
          use_bias: false
        inbound_nodes:
        - - - conv3_block1_0_relu
            - 0
            - 0
            - {}
        name: conv3_block1_1_conv
      - class_name: BatchNormalization
        config:
          axis: 3
          beta_constraint: null
          beta_initializer:
            class_name: Zeros
            config: {}
          beta_regularizer: null
          center: true
          epsilon: 1.001e-05
          gamma_constraint: null
          gamma_initializer:
            class_name: Ones
            config: {}
          gamma_regularizer: null
          momentum: 0.99
          moving_mean_initializer:
            class_name: Zeros
            config: {}
          moving_variance_initializer:
            class_name: Ones
            config: {}
          name: conv3_block1_1_bn
          scale: true
          trainable: *id004
        inbound_nodes:
        - - - conv3_block1_1_conv
            - 0
            - 0
            - {}
        name: conv3_block1_1_bn
      - class_name: Activation
        config:
          activation: relu
          name: conv3_block1_1_relu
          trainable: *id004
        inbound_nodes:
        - - - conv3_block1_1_bn
            - 0
            - 0
            - {}
        name: conv3_block1_1_relu
      - class_name: Conv2D
        config:
          activation: linear
          activity_regularizer: null
          bias_constraint: null
          bias_initializer:
            class_name: Zeros
            config: {}
          bias_regularizer: null
          data_format: channels_last
          dilation_rate: *id001
          filters: 32
          kernel_constraint: null
          kernel_initializer:
            class_name: VarianceScaling
            config: {distribution: uniform, mode: fan_avg, scale: 1.0, seed: null}
          kernel_regularizer: null
          kernel_size: !!python/tuple [3, 3]
          name: conv3_block1_2_conv
          padding: same
          strides: *id005
          trainable: *id004
          use_bias: false
        inbound_nodes:
        - - - conv3_block1_1_relu
            - 0
            - 0
            - {}
        name: conv3_block1_2_conv
      - class_name: Concatenate
        config:
          axis: 3
          name: conv3_block1_concat
          trainable: *id004
        inbound_nodes:
        - - - pool2_pool
            - 0
            - 0
            - &id012 {}
          - - conv3_block1_2_conv
            - 0
            - 0
            - *id012
        name: conv3_block1_concat
      - class_name: BatchNormalization
        config:
          axis: 3
          beta_constraint: null
          beta_initializer:
            class_name: Zeros
            config: {}
          beta_regularizer: null
          center: true
          epsilon: 1.001e-05
          gamma_constraint: null
          gamma_initializer:
            class_name: Ones
            config: {}
          gamma_regularizer: null
          momentum: 0.99
          moving_mean_initializer:
            class_name: Zeros
            config: {}
          moving_variance_initializer:
            class_name: Ones
            config: {}
          name: conv3_block2_0_bn
          scale: true
          trainable: *id004
        inbound_nodes:
        - - - conv3_block1_concat
            - 0
            - 0
            - {}
        name: conv3_block2_0_bn
      - class_name: Activation
        config:
          activation: relu
          name: conv3_block2_0_relu
          trainable: *id004
        inbound_nodes:
        - - - conv3_block2_0_bn
            - 0
            - 0
            - {}
        name: conv3_block2_0_relu
      - class_name: Conv2D
        config:
          activation: linear
          activity_regularizer: null
          bias_constraint: null
          bias_initializer:
            class_name: Zeros
            config: {}
          bias_regularizer: null
          data_format: channels_last
          dilation_rate: *id001
          filters: 128
          kernel_constraint: null
          kernel_initializer:
            class_name: VarianceScaling
            config: {distribution: uniform, mode: fan_avg, scale: 1.0, seed: null}
          kernel_regularizer: null
          kernel_size: !!python/tuple [1, 1]
          name: conv3_block2_1_conv
          padding: valid
          strides: *id005
          trainable: *id004
          use_bias: false
        inbound_nodes:
        - - - conv3_block2_0_relu
            - 0
            - 0
            - {}
        name: conv3_block2_1_conv
      - class_name: BatchNormalization
        config:
          axis: 3
          beta_constraint: null
          beta_initializer:
            class_name: Zeros
            config: {}
          beta_regularizer: null
          center: true
          epsilon: 1.001e-05
          gamma_constraint: null
          gamma_initializer:
            class_name: Ones
            config: {}
          gamma_regularizer: null
          momentum: 0.99
          moving_mean_initializer:
            class_name: Zeros
            config: {}
          moving_variance_initializer:
            class_name: Ones
            config: {}
          name: conv3_block2_1_bn
          scale: true
          trainable: *id004
        inbound_nodes:
        - - - conv3_block2_1_conv
            - 0
            - 0
            - {}
        name: conv3_block2_1_bn
      - class_name: Activation
        config:
          activation: relu
          name: conv3_block2_1_relu
          trainable: *id004
        inbound_nodes:
        - - - conv3_block2_1_bn
            - 0
            - 0
            - {}
        name: conv3_block2_1_relu
      - class_name: Conv2D
        config:
          activation: linear
          activity_regularizer: null
          bias_constraint: null
          bias_initializer:
            class_name: Zeros
            config: {}
          bias_regularizer: null
          data_format: channels_last
          dilation_rate: *id001
          filters: 32
          kernel_constraint: null
          kernel_initializer:
            class_name: VarianceScaling
            config: {distribution: uniform, mode: fan_avg, scale: 1.0, seed: null}
          kernel_regularizer: null
          kernel_size: !!python/tuple [3, 3]
          name: conv3_block2_2_conv
          padding: same
          strides: *id005
          trainable: *id004
          use_bias: false
        inbound_nodes:
        - - - conv3_block2_1_relu
            - 0
            - 0
            - {}
        name: conv3_block2_2_conv
      - class_name: Concatenate
        config:
          axis: 3
          name: conv3_block2_concat
          trainable: *id004
        inbound_nodes:
        - - - conv3_block1_concat
            - 0
            - 0
            - &id013 {}
          - - conv3_block2_2_conv
            - 0
            - 0
            - *id013
        name: conv3_block2_concat
      - class_name: BatchNormalization
        config:
          axis: 3
          beta_constraint: null
          beta_initializer:
            class_name: Zeros
            config: {}
          beta_regularizer: null
          center: true
          epsilon: 1.001e-05
          gamma_constraint: null
          gamma_initializer:
            class_name: Ones
            config: {}
          gamma_regularizer: null
          momentum: 0.99
          moving_mean_initializer:
            class_name: Zeros
            config: {}
          moving_variance_initializer:
            class_name: Ones
            config: {}
          name: conv3_block3_0_bn
          scale: true
          trainable: *id004
        inbound_nodes:
        - - - conv3_block2_concat
            - 0
            - 0
            - {}
        name: conv3_block3_0_bn
      - class_name: Activation
        config:
          activation: relu
          name: conv3_block3_0_relu
          trainable: *id004
        inbound_nodes:
        - - - conv3_block3_0_bn
            - 0
            - 0
            - {}
        name: conv3_block3_0_relu
      - class_name: Conv2D
        config:
          activation: linear
          activity_regularizer: null
          bias_constraint: null
          bias_initializer:
            class_name: Zeros
            config: {}
          bias_regularizer: null
          data_format: channels_last
          dilation_rate: *id001
          filters: 128
          kernel_constraint: null
          kernel_initializer:
            class_name: VarianceScaling
            config: {distribution: uniform, mode: fan_avg, scale: 1.0, seed: null}
          kernel_regularizer: null
          kernel_size: !!python/tuple [1, 1]
          name: conv3_block3_1_conv
          padding: valid
          strides: *id005
          trainable: *id004
          use_bias: false
        inbound_nodes:
        - - - conv3_block3_0_relu
            - 0
            - 0
            - {}
        name: conv3_block3_1_conv
      - class_name: BatchNormalization
        config:
          axis: 3
          beta_constraint: null
          beta_initializer:
            class_name: Zeros
            config: {}
          beta_regularizer: null
          center: true
          epsilon: 1.001e-05
          gamma_constraint: null
          gamma_initializer:
            class_name: Ones
            config: {}
          gamma_regularizer: null
          momentum: 0.99
          moving_mean_initializer:
            class_name: Zeros
            config: {}
          moving_variance_initializer:
            class_name: Ones
            config: {}
          name: conv3_block3_1_bn
          scale: true
          trainable: *id004
        inbound_nodes:
        - - - conv3_block3_1_conv
            - 0
            - 0
            - {}
        name: conv3_block3_1_bn
      - class_name: Activation
        config:
          activation: relu
          name: conv3_block3_1_relu
          trainable: *id004
        inbound_nodes:
        - - - conv3_block3_1_bn
            - 0
            - 0
            - {}
        name: conv3_block3_1_relu
      - class_name: Conv2D
        config:
          activation: linear
          activity_regularizer: null
          bias_constraint: null
          bias_initializer:
            class_name: Zeros
            config: {}
          bias_regularizer: null
          data_format: channels_last
          dilation_rate: *id001
          filters: 32
          kernel_constraint: null
          kernel_initializer:
            class_name: VarianceScaling
            config: {distribution: uniform, mode: fan_avg, scale: 1.0, seed: null}
          kernel_regularizer: null
          kernel_size: !!python/tuple [3, 3]
          name: conv3_block3_2_conv
          padding: same
          strides: *id005
          trainable: *id004
          use_bias: false
        inbound_nodes:
        - - - conv3_block3_1_relu
            - 0
            - 0
            - {}
        name: conv3_block3_2_conv
      - class_name: Concatenate
        config:
          axis: 3
          name: conv3_block3_concat
          trainable: *id004
        inbound_nodes:
        - - - conv3_block2_concat
            - 0
            - 0
            - &id014 {}
          - - conv3_block3_2_conv
            - 0
            - 0
            - *id014
        name: conv3_block3_concat
      - class_name: BatchNormalization
        config:
          axis: 3
          beta_constraint: null
          beta_initializer:
            class_name: Zeros
            config: {}
          beta_regularizer: null
          center: true
          epsilon: 1.001e-05
          gamma_constraint: null
          gamma_initializer:
            class_name: Ones
            config: {}
          gamma_regularizer: null
          momentum: 0.99
          moving_mean_initializer:
            class_name: Zeros
            config: {}
          moving_variance_initializer:
            class_name: Ones
            config: {}
          name: conv3_block4_0_bn
          scale: true
          trainable: *id004
        inbound_nodes:
        - - - conv3_block3_concat
            - 0
            - 0
            - {}
        name: conv3_block4_0_bn
      - class_name: Activation
        config:
          activation: relu
          name: conv3_block4_0_relu
          trainable: *id004
        inbound_nodes:
        - - - conv3_block4_0_bn
            - 0
            - 0
            - {}
        name: conv3_block4_0_relu
      - class_name: Conv2D
        config:
          activation: linear
          activity_regularizer: null
          bias_constraint: null
          bias_initializer:
            class_name: Zeros
            config: {}
          bias_regularizer: null
          data_format: channels_last
          dilation_rate: *id001
          filters: 128
          kernel_constraint: null
          kernel_initializer:
            class_name: VarianceScaling
            config: {distribution: uniform, mode: fan_avg, scale: 1.0, seed: null}
          kernel_regularizer: null
          kernel_size: !!python/tuple [1, 1]
          name: conv3_block4_1_conv
          padding: valid
          strides: *id005
          trainable: *id004
          use_bias: false
        inbound_nodes:
        - - - conv3_block4_0_relu
            - 0
            - 0
            - {}
        name: conv3_block4_1_conv
      - class_name: BatchNormalization
        config:
          axis: 3
          beta_constraint: null
          beta_initializer:
            class_name: Zeros
            config: {}
          beta_regularizer: null
          center: true
          epsilon: 1.001e-05
          gamma_constraint: null
          gamma_initializer:
            class_name: Ones
            config: {}
          gamma_regularizer: null
          momentum: 0.99
          moving_mean_initializer:
            class_name: Zeros
            config: {}
          moving_variance_initializer:
            class_name: Ones
            config: {}
          name: conv3_block4_1_bn
          scale: true
          trainable: *id004
        inbound_nodes:
        - - - conv3_block4_1_conv
            - 0
            - 0
            - {}
        name: conv3_block4_1_bn
      - class_name: Activation
        config:
          activation: relu
          name: conv3_block4_1_relu
          trainable: *id004
        inbound_nodes:
        - - - conv3_block4_1_bn
            - 0
            - 0
            - {}
        name: conv3_block4_1_relu
      - class_name: Conv2D
        config:
          activation: linear
          activity_regularizer: null
          bias_constraint: null
          bias_initializer:
            class_name: Zeros
            config: {}
          bias_regularizer: null
          data_format: channels_last
          dilation_rate: *id001
          filters: 32
          kernel_constraint: null
          kernel_initializer:
            class_name: VarianceScaling
            config: {distribution: uniform, mode: fan_avg, scale: 1.0, seed: null}
          kernel_regularizer: null
          kernel_size: !!python/tuple [3, 3]
          name: conv3_block4_2_conv
          padding: same
          strides: *id005
          trainable: *id004
          use_bias: false
        inbound_nodes:
        - - - conv3_block4_1_relu
            - 0
            - 0
            - {}
        name: conv3_block4_2_conv
      - class_name: Concatenate
        config:
          axis: 3
          name: conv3_block4_concat
          trainable: *id004
        inbound_nodes:
        - - - conv3_block3_concat
            - 0
            - 0
            - &id015 {}
          - - conv3_block4_2_conv
            - 0
            - 0
            - *id015
        name: conv3_block4_concat
      - class_name: BatchNormalization
        config:
          axis: 3
          beta_constraint: null
          beta_initializer:
            class_name: Zeros
            config: {}
          beta_regularizer: null
          center: true
          epsilon: 1.001e-05
          gamma_constraint: null
          gamma_initializer:
            class_name: Ones
            config: {}
          gamma_regularizer: null
          momentum: 0.99
          moving_mean_initializer:
            class_name: Zeros
            config: {}
          moving_variance_initializer:
            class_name: Ones
            config: {}
          name: conv3_block5_0_bn
          scale: true
          trainable: *id004
        inbound_nodes:
        - - - conv3_block4_concat
            - 0
            - 0
            - {}
        name: conv3_block5_0_bn
      - class_name: Activation
        config:
          activation: relu
          name: conv3_block5_0_relu
          trainable: *id004
        inbound_nodes:
        - - - conv3_block5_0_bn
            - 0
            - 0
            - {}
        name: conv3_block5_0_relu
      - class_name: Conv2D
        config:
          activation: linear
          activity_regularizer: null
          bias_constraint: null
          bias_initializer:
            class_name: Zeros
            config: {}
          bias_regularizer: null
          data_format: channels_last
          dilation_rate: *id001
          filters: 128
          kernel_constraint: null
          kernel_initializer:
            class_name: VarianceScaling
            config: {distribution: uniform, mode: fan_avg, scale: 1.0, seed: null}
          kernel_regularizer: null
          kernel_size: !!python/tuple [1, 1]
          name: conv3_block5_1_conv
          padding: valid
          strides: *id005
          trainable: *id004
          use_bias: false
        inbound_nodes:
        - - - conv3_block5_0_relu
            - 0
            - 0
            - {}
        name: conv3_block5_1_conv
      - class_name: BatchNormalization
        config:
          axis: 3
          beta_constraint: null
          beta_initializer:
            class_name: Zeros
            config: {}
          beta_regularizer: null
          center: true
          epsilon: 1.001e-05
          gamma_constraint: null
          gamma_initializer:
            class_name: Ones
            config: {}
          gamma_regularizer: null
          momentum: 0.99
          moving_mean_initializer:
            class_name: Zeros
            config: {}
          moving_variance_initializer:
            class_name: Ones
            config: {}
          name: conv3_block5_1_bn
          scale: true
          trainable: *id004
        inbound_nodes:
        - - - conv3_block5_1_conv
            - 0
            - 0
            - {}
        name: conv3_block5_1_bn
      - class_name: Activation
        config:
          activation: relu
          name: conv3_block5_1_relu
          trainable: *id004
        inbound_nodes:
        - - - conv3_block5_1_bn
            - 0
            - 0
            - {}
        name: conv3_block5_1_relu
      - class_name: Conv2D
        config:
          activation: linear
          activity_regularizer: null
          bias_constraint: null
          bias_initializer:
            class_name: Zeros
            config: {}
          bias_regularizer: null
          data_format: channels_last
          dilation_rate: *id001
          filters: 32
          kernel_constraint: null
          kernel_initializer:
            class_name: VarianceScaling
            config: {distribution: uniform, mode: fan_avg, scale: 1.0, seed: null}
          kernel_regularizer: null
          kernel_size: !!python/tuple [3, 3]
          name: conv3_block5_2_conv
          padding: same
          strides: *id005
          trainable: *id004
          use_bias: false
        inbound_nodes:
        - - - conv3_block5_1_relu
            - 0
            - 0
            - {}
        name: conv3_block5_2_conv
      - class_name: Concatenate
        config:
          axis: 3
          name: conv3_block5_concat
          trainable: *id004
        inbound_nodes:
        - - - conv3_block4_concat
            - 0
            - 0
            - &id016 {}
          - - conv3_block5_2_conv
            - 0
            - 0
            - *id016
        name: conv3_block5_concat
      - class_name: BatchNormalization
        config:
          axis: 3
          beta_constraint: null
          beta_initializer:
            class_name: Zeros
            config: {}
          beta_regularizer: null
          center: true
          epsilon: 1.001e-05
          gamma_constraint: null
          gamma_initializer:
            class_name: Ones
            config: {}
          gamma_regularizer: null
          momentum: 0.99
          moving_mean_initializer:
            class_name: Zeros
            config: {}
          moving_variance_initializer:
            class_name: Ones
            config: {}
          name: conv3_block6_0_bn
          scale: true
          trainable: *id004
        inbound_nodes:
        - - - conv3_block5_concat
            - 0
            - 0
            - {}
        name: conv3_block6_0_bn
      - class_name: Activation
        config:
          activation: relu
          name: conv3_block6_0_relu
          trainable: *id004
        inbound_nodes:
        - - - conv3_block6_0_bn
            - 0
            - 0
            - {}
        name: conv3_block6_0_relu
      - class_name: Conv2D
        config:
          activation: linear
          activity_regularizer: null
          bias_constraint: null
          bias_initializer:
            class_name: Zeros
            config: {}
          bias_regularizer: null
          data_format: channels_last
          dilation_rate: *id001
          filters: 128
          kernel_constraint: null
          kernel_initializer:
            class_name: VarianceScaling
            config: {distribution: uniform, mode: fan_avg, scale: 1.0, seed: null}
          kernel_regularizer: null
          kernel_size: !!python/tuple [1, 1]
          name: conv3_block6_1_conv
          padding: valid
          strides: *id005
          trainable: *id004
          use_bias: false
        inbound_nodes:
        - - - conv3_block6_0_relu
            - 0
            - 0
            - {}
        name: conv3_block6_1_conv
      - class_name: BatchNormalization
        config:
          axis: 3
          beta_constraint: null
          beta_initializer:
            class_name: Zeros
            config: {}
          beta_regularizer: null
          center: true
          epsilon: 1.001e-05
          gamma_constraint: null
          gamma_initializer:
            class_name: Ones
            config: {}
          gamma_regularizer: null
          momentum: 0.99
          moving_mean_initializer:
            class_name: Zeros
            config: {}
          moving_variance_initializer:
            class_name: Ones
            config: {}
          name: conv3_block6_1_bn
          scale: true
          trainable: *id004
        inbound_nodes:
        - - - conv3_block6_1_conv
            - 0
            - 0
            - {}
        name: conv3_block6_1_bn
      - class_name: Activation
        config:
          activation: relu
          name: conv3_block6_1_relu
          trainable: *id004
        inbound_nodes:
        - - - conv3_block6_1_bn
            - 0
            - 0
            - {}
        name: conv3_block6_1_relu
      - class_name: Conv2D
        config:
          activation: linear
          activity_regularizer: null
          bias_constraint: null
          bias_initializer:
            class_name: Zeros
            config: {}
          bias_regularizer: null
          data_format: channels_last
          dilation_rate: *id001
          filters: 32
          kernel_constraint: null
          kernel_initializer:
            class_name: VarianceScaling
            config: {distribution: uniform, mode: fan_avg, scale: 1.0, seed: null}
          kernel_regularizer: null
          kernel_size: !!python/tuple [3, 3]
          name: conv3_block6_2_conv
          padding: same
          strides: *id005
          trainable: *id004
          use_bias: false
        inbound_nodes:
        - - - conv3_block6_1_relu
            - 0
            - 0
            - {}
        name: conv3_block6_2_conv
      - class_name: Concatenate
        config:
          axis: 3
          name: conv3_block6_concat
          trainable: *id004
        inbound_nodes:
        - - - conv3_block5_concat
            - 0
            - 0
            - &id017 {}
          - - conv3_block6_2_conv
            - 0
            - 0
            - *id017
        name: conv3_block6_concat
      - class_name: BatchNormalization
        config:
          axis: 3
          beta_constraint: null
          beta_initializer:
            class_name: Zeros
            config: {}
          beta_regularizer: null
          center: true
          epsilon: 1.001e-05
          gamma_constraint: null
          gamma_initializer:
            class_name: Ones
            config: {}
          gamma_regularizer: null
          momentum: 0.99
          moving_mean_initializer:
            class_name: Zeros
            config: {}
          moving_variance_initializer:
            class_name: Ones
            config: {}
          name: conv3_block7_0_bn
          scale: true
          trainable: *id004
        inbound_nodes:
        - - - conv3_block6_concat
            - 0
            - 0
            - {}
        name: conv3_block7_0_bn
      - class_name: Activation
        config:
          activation: relu
          name: conv3_block7_0_relu
          trainable: *id004
        inbound_nodes:
        - - - conv3_block7_0_bn
            - 0
            - 0
            - {}
        name: conv3_block7_0_relu
      - class_name: Conv2D
        config:
          activation: linear
          activity_regularizer: null
          bias_constraint: null
          bias_initializer:
            class_name: Zeros
            config: {}
          bias_regularizer: null
          data_format: channels_last
          dilation_rate: *id001
          filters: 128
          kernel_constraint: null
          kernel_initializer:
            class_name: VarianceScaling
            config: {distribution: uniform, mode: fan_avg, scale: 1.0, seed: null}
          kernel_regularizer: null
          kernel_size: !!python/tuple [1, 1]
          name: conv3_block7_1_conv
          padding: valid
          strides: *id005
          trainable: *id004
          use_bias: false
        inbound_nodes:
        - - - conv3_block7_0_relu
            - 0
            - 0
            - {}
        name: conv3_block7_1_conv
      - class_name: BatchNormalization
        config:
          axis: 3
          beta_constraint: null
          beta_initializer:
            class_name: Zeros
            config: {}
          beta_regularizer: null
          center: true
          epsilon: 1.001e-05
          gamma_constraint: null
          gamma_initializer:
            class_name: Ones
            config: {}
          gamma_regularizer: null
          momentum: 0.99
          moving_mean_initializer:
            class_name: Zeros
            config: {}
          moving_variance_initializer:
            class_name: Ones
            config: {}
          name: conv3_block7_1_bn
          scale: true
          trainable: *id004
        inbound_nodes:
        - - - conv3_block7_1_conv
            - 0
            - 0
            - {}
        name: conv3_block7_1_bn
      - class_name: Activation
        config:
          activation: relu
          name: conv3_block7_1_relu
          trainable: *id004
        inbound_nodes:
        - - - conv3_block7_1_bn
            - 0
            - 0
            - {}
        name: conv3_block7_1_relu
      - class_name: Conv2D
        config:
          activation: linear
          activity_regularizer: null
          bias_constraint: null
          bias_initializer:
            class_name: Zeros
            config: {}
          bias_regularizer: null
          data_format: channels_last
          dilation_rate: *id001
          filters: 32
          kernel_constraint: null
          kernel_initializer:
            class_name: VarianceScaling
            config: {distribution: uniform, mode: fan_avg, scale: 1.0, seed: null}
          kernel_regularizer: null
          kernel_size: !!python/tuple [3, 3]
          name: conv3_block7_2_conv
          padding: same
          strides: *id005
          trainable: *id004
          use_bias: false
        inbound_nodes:
        - - - conv3_block7_1_relu
            - 0
            - 0
            - {}
        name: conv3_block7_2_conv
      - class_name: Concatenate
        config:
          axis: 3
          name: conv3_block7_concat
          trainable: *id004
        inbound_nodes:
        - - - conv3_block6_concat
            - 0
            - 0
            - &id018 {}
          - - conv3_block7_2_conv
            - 0
            - 0
            - *id018
        name: conv3_block7_concat
      - class_name: BatchNormalization
        config:
          axis: 3
          beta_constraint: null
          beta_initializer:
            class_name: Zeros
            config: {}
          beta_regularizer: null
          center: true
          epsilon: 1.001e-05
          gamma_constraint: null
          gamma_initializer:
            class_name: Ones
            config: {}
          gamma_regularizer: null
          momentum: 0.99
          moving_mean_initializer:
            class_name: Zeros
            config: {}
          moving_variance_initializer:
            class_name: Ones
            config: {}
          name: conv3_block8_0_bn
          scale: true
          trainable: *id004
        inbound_nodes:
        - - - conv3_block7_concat
            - 0
            - 0
            - {}
        name: conv3_block8_0_bn
      - class_name: Activation
        config:
          activation: relu
          name: conv3_block8_0_relu
          trainable: *id004
        inbound_nodes:
        - - - conv3_block8_0_bn
            - 0
            - 0
            - {}
        name: conv3_block8_0_relu
      - class_name: Conv2D
        config:
          activation: linear
          activity_regularizer: null
          bias_constraint: null
          bias_initializer:
            class_name: Zeros
            config: {}
          bias_regularizer: null
          data_format: channels_last
          dilation_rate: *id001
          filters: 128
          kernel_constraint: null
          kernel_initializer:
            class_name: VarianceScaling
            config: {distribution: uniform, mode: fan_avg, scale: 1.0, seed: null}
          kernel_regularizer: null
          kernel_size: !!python/tuple [1, 1]
          name: conv3_block8_1_conv
          padding: valid
          strides: *id005
          trainable: *id004
          use_bias: false
        inbound_nodes:
        - - - conv3_block8_0_relu
            - 0
            - 0
            - {}
        name: conv3_block8_1_conv
      - class_name: BatchNormalization
        config:
          axis: 3
          beta_constraint: null
          beta_initializer:
            class_name: Zeros
            config: {}
          beta_regularizer: null
          center: true
          epsilon: 1.001e-05
          gamma_constraint: null
          gamma_initializer:
            class_name: Ones
            config: {}
          gamma_regularizer: null
          momentum: 0.99
          moving_mean_initializer:
            class_name: Zeros
            config: {}
          moving_variance_initializer:
            class_name: Ones
            config: {}
          name: conv3_block8_1_bn
          scale: true
          trainable: *id004
        inbound_nodes:
        - - - conv3_block8_1_conv
            - 0
            - 0
            - {}
        name: conv3_block8_1_bn
      - class_name: Activation
        config:
          activation: relu
          name: conv3_block8_1_relu
          trainable: *id004
        inbound_nodes:
        - - - conv3_block8_1_bn
            - 0
            - 0
            - {}
        name: conv3_block8_1_relu
      - class_name: Conv2D
        config:
          activation: linear
          activity_regularizer: null
          bias_constraint: null
          bias_initializer:
            class_name: Zeros
            config: {}
          bias_regularizer: null
          data_format: channels_last
          dilation_rate: *id001
          filters: 32
          kernel_constraint: null
          kernel_initializer:
            class_name: VarianceScaling
            config: {distribution: uniform, mode: fan_avg, scale: 1.0, seed: null}
          kernel_regularizer: null
          kernel_size: !!python/tuple [3, 3]
          name: conv3_block8_2_conv
          padding: same
          strides: *id005
          trainable: *id004
          use_bias: false
        inbound_nodes:
        - - - conv3_block8_1_relu
            - 0
            - 0
            - {}
        name: conv3_block8_2_conv
      - class_name: Concatenate
        config:
          axis: 3
          name: conv3_block8_concat
          trainable: *id004
        inbound_nodes:
        - - - conv3_block7_concat
            - 0
            - 0
            - &id019 {}
          - - conv3_block8_2_conv
            - 0
            - 0
            - *id019
        name: conv3_block8_concat
      - class_name: BatchNormalization
        config:
          axis: 3
          beta_constraint: null
          beta_initializer:
            class_name: Zeros
            config: {}
          beta_regularizer: null
          center: true
          epsilon: 1.001e-05
          gamma_constraint: null
          gamma_initializer:
            class_name: Ones
            config: {}
          gamma_regularizer: null
          momentum: 0.99
          moving_mean_initializer:
            class_name: Zeros
            config: {}
          moving_variance_initializer:
            class_name: Ones
            config: {}
          name: conv3_block9_0_bn
          scale: true
          trainable: *id004
        inbound_nodes:
        - - - conv3_block8_concat
            - 0
            - 0
            - {}
        name: conv3_block9_0_bn
      - class_name: Activation
        config:
          activation: relu
          name: conv3_block9_0_relu
          trainable: *id004
        inbound_nodes:
        - - - conv3_block9_0_bn
            - 0
            - 0
            - {}
        name: conv3_block9_0_relu
      - class_name: Conv2D
        config:
          activation: linear
          activity_regularizer: null
          bias_constraint: null
          bias_initializer:
            class_name: Zeros
            config: {}
          bias_regularizer: null
          data_format: channels_last
          dilation_rate: *id001
          filters: 128
          kernel_constraint: null
          kernel_initializer:
            class_name: VarianceScaling
            config: {distribution: uniform, mode: fan_avg, scale: 1.0, seed: null}
          kernel_regularizer: null
          kernel_size: !!python/tuple [1, 1]
          name: conv3_block9_1_conv
          padding: valid
          strides: *id005
          trainable: *id004
          use_bias: false
        inbound_nodes:
        - - - conv3_block9_0_relu
            - 0
            - 0
            - {}
        name: conv3_block9_1_conv
      - class_name: BatchNormalization
        config:
          axis: 3
          beta_constraint: null
          beta_initializer:
            class_name: Zeros
            config: {}
          beta_regularizer: null
          center: true
          epsilon: 1.001e-05
          gamma_constraint: null
          gamma_initializer:
            class_name: Ones
            config: {}
          gamma_regularizer: null
          momentum: 0.99
          moving_mean_initializer:
            class_name: Zeros
            config: {}
          moving_variance_initializer:
            class_name: Ones
            config: {}
          name: conv3_block9_1_bn
          scale: true
          trainable: *id004
        inbound_nodes:
        - - - conv3_block9_1_conv
            - 0
            - 0
            - {}
        name: conv3_block9_1_bn
      - class_name: Activation
        config:
          activation: relu
          name: conv3_block9_1_relu
          trainable: *id004
        inbound_nodes:
        - - - conv3_block9_1_bn
            - 0
            - 0
            - {}
        name: conv3_block9_1_relu
      - class_name: Conv2D
        config:
          activation: linear
          activity_regularizer: null
          bias_constraint: null
          bias_initializer:
            class_name: Zeros
            config: {}
          bias_regularizer: null
          data_format: channels_last
          dilation_rate: *id001
          filters: 32
          kernel_constraint: null
          kernel_initializer:
            class_name: VarianceScaling
            config: {distribution: uniform, mode: fan_avg, scale: 1.0, seed: null}
          kernel_regularizer: null
          kernel_size: !!python/tuple [3, 3]
          name: conv3_block9_2_conv
          padding: same
          strides: *id005
          trainable: *id004
          use_bias: false
        inbound_nodes:
        - - - conv3_block9_1_relu
            - 0
            - 0
            - {}
        name: conv3_block9_2_conv
      - class_name: Concatenate
        config:
          axis: 3
          name: conv3_block9_concat
          trainable: *id004
        inbound_nodes:
        - - - conv3_block8_concat
            - 0
            - 0
            - &id020 {}
          - - conv3_block9_2_conv
            - 0
            - 0
            - *id020
        name: conv3_block9_concat
      - class_name: BatchNormalization
        config:
          axis: 3
          beta_constraint: null
          beta_initializer:
            class_name: Zeros
            config: {}
          beta_regularizer: null
          center: true
          epsilon: 1.001e-05
          gamma_constraint: null
          gamma_initializer:
            class_name: Ones
            config: {}
          gamma_regularizer: null
          momentum: 0.99
          moving_mean_initializer:
            class_name: Zeros
            config: {}
          moving_variance_initializer:
            class_name: Ones
            config: {}
          name: conv3_block10_0_bn
          scale: true
          trainable: *id004
        inbound_nodes:
        - - - conv3_block9_concat
            - 0
            - 0
            - {}
        name: conv3_block10_0_bn
      - class_name: Activation
        config:
          activation: relu
          name: conv3_block10_0_relu
          trainable: *id004
        inbound_nodes:
        - - - conv3_block10_0_bn
            - 0
            - 0
            - {}
        name: conv3_block10_0_relu
      - class_name: Conv2D
        config:
          activation: linear
          activity_regularizer: null
          bias_constraint: null
          bias_initializer:
            class_name: Zeros
            config: {}
          bias_regularizer: null
          data_format: channels_last
          dilation_rate: *id001
          filters: 128
          kernel_constraint: null
          kernel_initializer:
            class_name: VarianceScaling
            config: {distribution: uniform, mode: fan_avg, scale: 1.0, seed: null}
          kernel_regularizer: null
          kernel_size: !!python/tuple [1, 1]
          name: conv3_block10_1_conv
          padding: valid
          strides: *id005
          trainable: *id004
          use_bias: false
        inbound_nodes:
        - - - conv3_block10_0_relu
            - 0
            - 0
            - {}
        name: conv3_block10_1_conv
      - class_name: BatchNormalization
        config:
          axis: 3
          beta_constraint: null
          beta_initializer:
            class_name: Zeros
            config: {}
          beta_regularizer: null
          center: true
          epsilon: 1.001e-05
          gamma_constraint: null
          gamma_initializer:
            class_name: Ones
            config: {}
          gamma_regularizer: null
          momentum: 0.99
          moving_mean_initializer:
            class_name: Zeros
            config: {}
          moving_variance_initializer:
            class_name: Ones
            config: {}
          name: conv3_block10_1_bn
          scale: true
          trainable: *id004
        inbound_nodes:
        - - - conv3_block10_1_conv
            - 0
            - 0
            - {}
        name: conv3_block10_1_bn
      - class_name: Activation
        config:
          activation: relu
          name: conv3_block10_1_relu
          trainable: *id004
        inbound_nodes:
        - - - conv3_block10_1_bn
            - 0
            - 0
            - {}
        name: conv3_block10_1_relu
      - class_name: Conv2D
        config:
          activation: linear
          activity_regularizer: null
          bias_constraint: null
          bias_initializer:
            class_name: Zeros
            config: {}
          bias_regularizer: null
          data_format: channels_last
          dilation_rate: *id001
          filters: 32
          kernel_constraint: null
          kernel_initializer:
            class_name: VarianceScaling
            config: {distribution: uniform, mode: fan_avg, scale: 1.0, seed: null}
          kernel_regularizer: null
          kernel_size: !!python/tuple [3, 3]
          name: conv3_block10_2_conv
          padding: same
          strides: *id005
          trainable: *id004
          use_bias: false
        inbound_nodes:
        - - - conv3_block10_1_relu
            - 0
            - 0
            - {}
        name: conv3_block10_2_conv
      - class_name: Concatenate
        config:
          axis: 3
          name: conv3_block10_concat
          trainable: *id004
        inbound_nodes:
        - - - conv3_block9_concat
            - 0
            - 0
            - &id021 {}
          - - conv3_block10_2_conv
            - 0
            - 0
            - *id021
        name: conv3_block10_concat
      - class_name: BatchNormalization
        config:
          axis: 3
          beta_constraint: null
          beta_initializer:
            class_name: Zeros
            config: {}
          beta_regularizer: null
          center: true
          epsilon: 1.001e-05
          gamma_constraint: null
          gamma_initializer:
            class_name: Ones
            config: {}
          gamma_regularizer: null
          momentum: 0.99
          moving_mean_initializer:
            class_name: Zeros
            config: {}
          moving_variance_initializer:
            class_name: Ones
            config: {}
          name: conv3_block11_0_bn
          scale: true
          trainable: *id004
        inbound_nodes:
        - - - conv3_block10_concat
            - 0
            - 0
            - {}
        name: conv3_block11_0_bn
      - class_name: Activation
        config:
          activation: relu
          name: conv3_block11_0_relu
          trainable: *id004
        inbound_nodes:
        - - - conv3_block11_0_bn
            - 0
            - 0
            - {}
        name: conv3_block11_0_relu
      - class_name: Conv2D
        config:
          activation: linear
          activity_regularizer: null
          bias_constraint: null
          bias_initializer:
            class_name: Zeros
            config: {}
          bias_regularizer: null
          data_format: channels_last
          dilation_rate: *id001
          filters: 128
          kernel_constraint: null
          kernel_initializer:
            class_name: VarianceScaling
            config: {distribution: uniform, mode: fan_avg, scale: 1.0, seed: null}
          kernel_regularizer: null
          kernel_size: !!python/tuple [1, 1]
          name: conv3_block11_1_conv
          padding: valid
          strides: *id005
          trainable: *id004
          use_bias: false
        inbound_nodes:
        - - - conv3_block11_0_relu
            - 0
            - 0
            - {}
        name: conv3_block11_1_conv
      - class_name: BatchNormalization
        config:
          axis: 3
          beta_constraint: null
          beta_initializer:
            class_name: Zeros
            config: {}
          beta_regularizer: null
          center: true
          epsilon: 1.001e-05
          gamma_constraint: null
          gamma_initializer:
            class_name: Ones
            config: {}
          gamma_regularizer: null
          momentum: 0.99
          moving_mean_initializer:
            class_name: Zeros
            config: {}
          moving_variance_initializer:
            class_name: Ones
            config: {}
          name: conv3_block11_1_bn
          scale: true
          trainable: *id004
        inbound_nodes:
        - - - conv3_block11_1_conv
            - 0
            - 0
            - {}
        name: conv3_block11_1_bn
      - class_name: Activation
        config:
          activation: relu
          name: conv3_block11_1_relu
          trainable: *id004
        inbound_nodes:
        - - - conv3_block11_1_bn
            - 0
            - 0
            - {}
        name: conv3_block11_1_relu
      - class_name: Conv2D
        config:
          activation: linear
          activity_regularizer: null
          bias_constraint: null
          bias_initializer:
            class_name: Zeros
            config: {}
          bias_regularizer: null
          data_format: channels_last
          dilation_rate: *id001
          filters: 32
          kernel_constraint: null
          kernel_initializer:
            class_name: VarianceScaling
            config: {distribution: uniform, mode: fan_avg, scale: 1.0, seed: null}
          kernel_regularizer: null
          kernel_size: !!python/tuple [3, 3]
          name: conv3_block11_2_conv
          padding: same
          strides: *id005
          trainable: *id004
          use_bias: false
        inbound_nodes:
        - - - conv3_block11_1_relu
            - 0
            - 0
            - {}
        name: conv3_block11_2_conv
      - class_name: Concatenate
        config:
          axis: 3
          name: conv3_block11_concat
          trainable: *id004
        inbound_nodes:
        - - - conv3_block10_concat
            - 0
            - 0
            - &id022 {}
          - - conv3_block11_2_conv
            - 0
            - 0
            - *id022
        name: conv3_block11_concat
      - class_name: BatchNormalization
        config:
          axis: 3
          beta_constraint: null
          beta_initializer:
            class_name: Zeros
            config: {}
          beta_regularizer: null
          center: true
          epsilon: 1.001e-05
          gamma_constraint: null
          gamma_initializer:
            class_name: Ones
            config: {}
          gamma_regularizer: null
          momentum: 0.99
          moving_mean_initializer:
            class_name: Zeros
            config: {}
          moving_variance_initializer:
            class_name: Ones
            config: {}
          name: conv3_block12_0_bn
          scale: true
          trainable: *id004
        inbound_nodes:
        - - - conv3_block11_concat
            - 0
            - 0
            - {}
        name: conv3_block12_0_bn
      - class_name: Activation
        config:
          activation: relu
          name: conv3_block12_0_relu
          trainable: *id004
        inbound_nodes:
        - - - conv3_block12_0_bn
            - 0
            - 0
            - {}
        name: conv3_block12_0_relu
      - class_name: Conv2D
        config:
          activation: linear
          activity_regularizer: null
          bias_constraint: null
          bias_initializer:
            class_name: Zeros
            config: {}
          bias_regularizer: null
          data_format: channels_last
          dilation_rate: *id001
          filters: 128
          kernel_constraint: null
          kernel_initializer:
            class_name: VarianceScaling
            config: {distribution: uniform, mode: fan_avg, scale: 1.0, seed: null}
          kernel_regularizer: null
          kernel_size: !!python/tuple [1, 1]
          name: conv3_block12_1_conv
          padding: valid
          strides: *id005
          trainable: *id004
          use_bias: false
        inbound_nodes:
        - - - conv3_block12_0_relu
            - 0
            - 0
            - {}
        name: conv3_block12_1_conv
      - class_name: BatchNormalization
        config:
          axis: 3
          beta_constraint: null
          beta_initializer:
            class_name: Zeros
            config: {}
          beta_regularizer: null
          center: true
          epsilon: 1.001e-05
          gamma_constraint: null
          gamma_initializer:
            class_name: Ones
            config: {}
          gamma_regularizer: null
          momentum: 0.99
          moving_mean_initializer:
            class_name: Zeros
            config: {}
          moving_variance_initializer:
            class_name: Ones
            config: {}
          name: conv3_block12_1_bn
          scale: true
          trainable: *id004
        inbound_nodes:
        - - - conv3_block12_1_conv
            - 0
            - 0
            - {}
        name: conv3_block12_1_bn
      - class_name: Activation
        config:
          activation: relu
          name: conv3_block12_1_relu
          trainable: *id004
        inbound_nodes:
        - - - conv3_block12_1_bn
            - 0
            - 0
            - {}
        name: conv3_block12_1_relu
      - class_name: Conv2D
        config:
          activation: linear
          activity_regularizer: null
          bias_constraint: null
          bias_initializer:
            class_name: Zeros
            config: {}
          bias_regularizer: null
          data_format: channels_last
          dilation_rate: *id001
          filters: 32
          kernel_constraint: null
          kernel_initializer:
            class_name: VarianceScaling
            config: {distribution: uniform, mode: fan_avg, scale: 1.0, seed: null}
          kernel_regularizer: null
          kernel_size: !!python/tuple [3, 3]
          name: conv3_block12_2_conv
          padding: same
          strides: *id005
          trainable: *id004
          use_bias: false
        inbound_nodes:
        - - - conv3_block12_1_relu
            - 0
            - 0
            - {}
        name: conv3_block12_2_conv
      - class_name: Concatenate
        config:
          axis: 3
          name: conv3_block12_concat
          trainable: *id004
        inbound_nodes:
        - - - conv3_block11_concat
            - 0
            - 0
            - &id023 {}
          - - conv3_block12_2_conv
            - 0
            - 0
            - *id023
        name: conv3_block12_concat
      - class_name: BatchNormalization
        config:
          axis: 3
          beta_constraint: null
          beta_initializer:
            class_name: Zeros
            config: {}
          beta_regularizer: null
          center: true
          epsilon: 1.001e-05
          gamma_constraint: null
          gamma_initializer:
            class_name: Ones
            config: {}
          gamma_regularizer: null
          momentum: 0.99
          moving_mean_initializer:
            class_name: Zeros
            config: {}
          moving_variance_initializer:
            class_name: Ones
            config: {}
          name: pool3_bn
          scale: true
          trainable: *id004
        inbound_nodes:
        - - - conv3_block12_concat
            - 0
            - 0
            - {}
        name: pool3_bn
      - class_name: Activation
        config:
          activation: relu
          name: pool3_relu
          trainable: *id004
        inbound_nodes:
        - - - pool3_bn
            - 0
            - 0
            - {}
        name: pool3_relu
      - class_name: Conv2D
        config:
          activation: linear
          activity_regularizer: null
          bias_constraint: null
          bias_initializer:
            class_name: Zeros
            config: {}
          bias_regularizer: null
          data_format: channels_last
          dilation_rate: *id001
          filters: 256
          kernel_constraint: null
          kernel_initializer:
            class_name: VarianceScaling
            config: {distribution: uniform, mode: fan_avg, scale: 1.0, seed: null}
          kernel_regularizer: null
          kernel_size: !!python/tuple [1, 1]
          name: pool3_conv
          padding: valid
          strides: *id005
          trainable: *id004
          use_bias: false
        inbound_nodes:
        - - - pool3_relu
            - 0
            - 0
            - {}
        name: pool3_conv
      - class_name: AveragePooling2D
        config:
          data_format: channels_last
          name: pool3_pool
          padding: valid
          pool_size: !!python/tuple [2, 2]
          strides: !!python/tuple [2, 2]
          trainable: *id004
        inbound_nodes:
        - - - pool3_conv
            - 0
            - 0
            - {}
        name: pool3_pool
      - class_name: BatchNormalization
        config:
          axis: 3
          beta_constraint: null
          beta_initializer:
            class_name: Zeros
            config: {}
          beta_regularizer: null
          center: true
          epsilon: 1.001e-05
          gamma_constraint: null
          gamma_initializer:
            class_name: Ones
            config: {}
          gamma_regularizer: null
          momentum: 0.99
          moving_mean_initializer:
            class_name: Zeros
            config: {}
          moving_variance_initializer:
            class_name: Ones
            config: {}
          name: conv4_block1_0_bn
          scale: true
          trainable: *id004
        inbound_nodes:
        - - - pool3_pool
            - 0
            - 0
            - {}
        name: conv4_block1_0_bn
      - class_name: Activation
        config:
          activation: relu
          name: conv4_block1_0_relu
          trainable: *id004
        inbound_nodes:
        - - - conv4_block1_0_bn
            - 0
            - 0
            - {}
        name: conv4_block1_0_relu
      - class_name: Conv2D
        config:
          activation: linear
          activity_regularizer: null
          bias_constraint: null
          bias_initializer:
            class_name: Zeros
            config: {}
          bias_regularizer: null
          data_format: channels_last
          dilation_rate: *id001
          filters: 128
          kernel_constraint: null
          kernel_initializer:
            class_name: VarianceScaling
            config: {distribution: uniform, mode: fan_avg, scale: 1.0, seed: null}
          kernel_regularizer: null
          kernel_size: !!python/tuple [1, 1]
          name: conv4_block1_1_conv
          padding: valid
          strides: *id005
          trainable: *id004
          use_bias: false
        inbound_nodes:
        - - - conv4_block1_0_relu
            - 0
            - 0
            - {}
        name: conv4_block1_1_conv
      - class_name: BatchNormalization
        config:
          axis: 3
          beta_constraint: null
          beta_initializer:
            class_name: Zeros
            config: {}
          beta_regularizer: null
          center: true
          epsilon: 1.001e-05
          gamma_constraint: null
          gamma_initializer:
            class_name: Ones
            config: {}
          gamma_regularizer: null
          momentum: 0.99
          moving_mean_initializer:
            class_name: Zeros
            config: {}
          moving_variance_initializer:
            class_name: Ones
            config: {}
          name: conv4_block1_1_bn
          scale: true
          trainable: *id004
        inbound_nodes:
        - - - conv4_block1_1_conv
            - 0
            - 0
            - {}
        name: conv4_block1_1_bn
      - class_name: Activation
        config:
          activation: relu
          name: conv4_block1_1_relu
          trainable: *id004
        inbound_nodes:
        - - - conv4_block1_1_bn
            - 0
            - 0
            - {}
        name: conv4_block1_1_relu
      - class_name: Conv2D
        config:
          activation: linear
          activity_regularizer: null
          bias_constraint: null
          bias_initializer:
            class_name: Zeros
            config: {}
          bias_regularizer: null
          data_format: channels_last
          dilation_rate: *id001
          filters: 32
          kernel_constraint: null
          kernel_initializer:
            class_name: VarianceScaling
            config: {distribution: uniform, mode: fan_avg, scale: 1.0, seed: null}
          kernel_regularizer: null
          kernel_size: !!python/tuple [3, 3]
          name: conv4_block1_2_conv
          padding: same
          strides: *id005
          trainable: *id004
          use_bias: false
        inbound_nodes:
        - - - conv4_block1_1_relu
            - 0
            - 0
            - {}
        name: conv4_block1_2_conv
      - class_name: Concatenate
        config:
          axis: 3
          name: conv4_block1_concat
          trainable: *id004
        inbound_nodes:
        - - - pool3_pool
            - 0
            - 0
            - &id024 {}
          - - conv4_block1_2_conv
            - 0
            - 0
            - *id024
        name: conv4_block1_concat
      - class_name: BatchNormalization
        config:
          axis: 3
          beta_constraint: null
          beta_initializer:
            class_name: Zeros
            config: {}
          beta_regularizer: null
          center: true
          epsilon: 1.001e-05
          gamma_constraint: null
          gamma_initializer:
            class_name: Ones
            config: {}
          gamma_regularizer: null
          momentum: 0.99
          moving_mean_initializer:
            class_name: Zeros
            config: {}
          moving_variance_initializer:
            class_name: Ones
            config: {}
          name: conv4_block2_0_bn
          scale: true
          trainable: *id004
        inbound_nodes:
        - - - conv4_block1_concat
            - 0
            - 0
            - {}
        name: conv4_block2_0_bn
      - class_name: Activation
        config:
          activation: relu
          name: conv4_block2_0_relu
          trainable: *id004
        inbound_nodes:
        - - - conv4_block2_0_bn
            - 0
            - 0
            - {}
        name: conv4_block2_0_relu
      - class_name: Conv2D
        config:
          activation: linear
          activity_regularizer: null
          bias_constraint: null
          bias_initializer:
            class_name: Zeros
            config: {}
          bias_regularizer: null
          data_format: channels_last
          dilation_rate: *id001
          filters: 128
          kernel_constraint: null
          kernel_initializer:
            class_name: VarianceScaling
            config: {distribution: uniform, mode: fan_avg, scale: 1.0, seed: null}
          kernel_regularizer: null
          kernel_size: !!python/tuple [1, 1]
          name: conv4_block2_1_conv
          padding: valid
          strides: *id005
          trainable: *id004
          use_bias: false
        inbound_nodes:
        - - - conv4_block2_0_relu
            - 0
            - 0
            - {}
        name: conv4_block2_1_conv
      - class_name: BatchNormalization
        config:
          axis: 3
          beta_constraint: null
          beta_initializer:
            class_name: Zeros
            config: {}
          beta_regularizer: null
          center: true
          epsilon: 1.001e-05
          gamma_constraint: null
          gamma_initializer:
            class_name: Ones
            config: {}
          gamma_regularizer: null
          momentum: 0.99
          moving_mean_initializer:
            class_name: Zeros
            config: {}
          moving_variance_initializer:
            class_name: Ones
            config: {}
          name: conv4_block2_1_bn
          scale: true
          trainable: *id004
        inbound_nodes:
        - - - conv4_block2_1_conv
            - 0
            - 0
            - {}
        name: conv4_block2_1_bn
      - class_name: Activation
        config:
          activation: relu
          name: conv4_block2_1_relu
          trainable: *id004
        inbound_nodes:
        - - - conv4_block2_1_bn
            - 0
            - 0
            - {}
        name: conv4_block2_1_relu
      - class_name: Conv2D
        config:
          activation: linear
          activity_regularizer: null
          bias_constraint: null
          bias_initializer:
            class_name: Zeros
            config: {}
          bias_regularizer: null
          data_format: channels_last
          dilation_rate: *id001
          filters: 32
          kernel_constraint: null
          kernel_initializer:
            class_name: VarianceScaling
            config: {distribution: uniform, mode: fan_avg, scale: 1.0, seed: null}
          kernel_regularizer: null
          kernel_size: !!python/tuple [3, 3]
          name: conv4_block2_2_conv
          padding: same
          strides: *id005
          trainable: *id004
          use_bias: false
        inbound_nodes:
        - - - conv4_block2_1_relu
            - 0
            - 0
            - {}
        name: conv4_block2_2_conv
      - class_name: Concatenate
        config:
          axis: 3
          name: conv4_block2_concat
          trainable: *id004
        inbound_nodes:
        - - - conv4_block1_concat
            - 0
            - 0
            - &id025 {}
          - - conv4_block2_2_conv
            - 0
            - 0
            - *id025
        name: conv4_block2_concat
      - class_name: BatchNormalization
        config:
          axis: 3
          beta_constraint: null
          beta_initializer:
            class_name: Zeros
            config: {}
          beta_regularizer: null
          center: true
          epsilon: 1.001e-05
          gamma_constraint: null
          gamma_initializer:
            class_name: Ones
            config: {}
          gamma_regularizer: null
          momentum: 0.99
          moving_mean_initializer:
            class_name: Zeros
            config: {}
          moving_variance_initializer:
            class_name: Ones
            config: {}
          name: conv4_block3_0_bn
          scale: true
          trainable: *id004
        inbound_nodes:
        - - - conv4_block2_concat
            - 0
            - 0
            - {}
        name: conv4_block3_0_bn
      - class_name: Activation
        config:
          activation: relu
          name: conv4_block3_0_relu
          trainable: *id004
        inbound_nodes:
        - - - conv4_block3_0_bn
            - 0
            - 0
            - {}
        name: conv4_block3_0_relu
      - class_name: Conv2D
        config:
          activation: linear
          activity_regularizer: null
          bias_constraint: null
          bias_initializer:
            class_name: Zeros
            config: {}
          bias_regularizer: null
          data_format: channels_last
          dilation_rate: *id001
          filters: 128
          kernel_constraint: null
          kernel_initializer:
            class_name: VarianceScaling
            config: {distribution: uniform, mode: fan_avg, scale: 1.0, seed: null}
          kernel_regularizer: null
          kernel_size: !!python/tuple [1, 1]
          name: conv4_block3_1_conv
          padding: valid
          strides: *id005
          trainable: *id004
          use_bias: false
        inbound_nodes:
        - - - conv4_block3_0_relu
            - 0
            - 0
            - {}
        name: conv4_block3_1_conv
      - class_name: BatchNormalization
        config:
          axis: 3
          beta_constraint: null
          beta_initializer:
            class_name: Zeros
            config: {}
          beta_regularizer: null
          center: true
          epsilon: 1.001e-05
          gamma_constraint: null
          gamma_initializer:
            class_name: Ones
            config: {}
          gamma_regularizer: null
          momentum: 0.99
          moving_mean_initializer:
            class_name: Zeros
            config: {}
          moving_variance_initializer:
            class_name: Ones
            config: {}
          name: conv4_block3_1_bn
          scale: true
          trainable: *id004
        inbound_nodes:
        - - - conv4_block3_1_conv
            - 0
            - 0
            - {}
        name: conv4_block3_1_bn
      - class_name: Activation
        config:
          activation: relu
          name: conv4_block3_1_relu
          trainable: *id004
        inbound_nodes:
        - - - conv4_block3_1_bn
            - 0
            - 0
            - {}
        name: conv4_block3_1_relu
      - class_name: Conv2D
        config:
          activation: linear
          activity_regularizer: null
          bias_constraint: null
          bias_initializer:
            class_name: Zeros
            config: {}
          bias_regularizer: null
          data_format: channels_last
          dilation_rate: *id001
          filters: 32
          kernel_constraint: null
          kernel_initializer:
            class_name: VarianceScaling
            config: {distribution: uniform, mode: fan_avg, scale: 1.0, seed: null}
          kernel_regularizer: null
          kernel_size: !!python/tuple [3, 3]
          name: conv4_block3_2_conv
          padding: same
          strides: *id005
          trainable: *id004
          use_bias: false
        inbound_nodes:
        - - - conv4_block3_1_relu
            - 0
            - 0
            - {}
        name: conv4_block3_2_conv
      - class_name: Concatenate
        config:
          axis: 3
          name: conv4_block3_concat
          trainable: *id004
        inbound_nodes:
        - - - conv4_block2_concat
            - 0
            - 0
            - &id026 {}
          - - conv4_block3_2_conv
            - 0
            - 0
            - *id026
        name: conv4_block3_concat
      - class_name: BatchNormalization
        config:
          axis: 3
          beta_constraint: null
          beta_initializer:
            class_name: Zeros
            config: {}
          beta_regularizer: null
          center: true
          epsilon: 1.001e-05
          gamma_constraint: null
          gamma_initializer:
            class_name: Ones
            config: {}
          gamma_regularizer: null
          momentum: 0.99
          moving_mean_initializer:
            class_name: Zeros
            config: {}
          moving_variance_initializer:
            class_name: Ones
            config: {}
          name: conv4_block4_0_bn
          scale: true
          trainable: *id004
        inbound_nodes:
        - - - conv4_block3_concat
            - 0
            - 0
            - {}
        name: conv4_block4_0_bn
      - class_name: Activation
        config:
          activation: relu
          name: conv4_block4_0_relu
          trainable: *id004
        inbound_nodes:
        - - - conv4_block4_0_bn
            - 0
            - 0
            - {}
        name: conv4_block4_0_relu
      - class_name: Conv2D
        config:
          activation: linear
          activity_regularizer: null
          bias_constraint: null
          bias_initializer:
            class_name: Zeros
            config: {}
          bias_regularizer: null
          data_format: channels_last
          dilation_rate: *id001
          filters: 128
          kernel_constraint: null
          kernel_initializer:
            class_name: VarianceScaling
            config: {distribution: uniform, mode: fan_avg, scale: 1.0, seed: null}
          kernel_regularizer: null
          kernel_size: !!python/tuple [1, 1]
          name: conv4_block4_1_conv
          padding: valid
          strides: *id005
          trainable: *id004
          use_bias: false
        inbound_nodes:
        - - - conv4_block4_0_relu
            - 0
            - 0
            - {}
        name: conv4_block4_1_conv
      - class_name: BatchNormalization
        config:
          axis: 3
          beta_constraint: null
          beta_initializer:
            class_name: Zeros
            config: {}
          beta_regularizer: null
          center: true
          epsilon: 1.001e-05
          gamma_constraint: null
          gamma_initializer:
            class_name: Ones
            config: {}
          gamma_regularizer: null
          momentum: 0.99
          moving_mean_initializer:
            class_name: Zeros
            config: {}
          moving_variance_initializer:
            class_name: Ones
            config: {}
          name: conv4_block4_1_bn
          scale: true
          trainable: *id004
        inbound_nodes:
        - - - conv4_block4_1_conv
            - 0
            - 0
            - {}
        name: conv4_block4_1_bn
      - class_name: Activation
        config:
          activation: relu
          name: conv4_block4_1_relu
          trainable: *id004
        inbound_nodes:
        - - - conv4_block4_1_bn
            - 0
            - 0
            - {}
        name: conv4_block4_1_relu
      - class_name: Conv2D
        config:
          activation: linear
          activity_regularizer: null
          bias_constraint: null
          bias_initializer:
            class_name: Zeros
            config: {}
          bias_regularizer: null
          data_format: channels_last
          dilation_rate: *id001
          filters: 32
          kernel_constraint: null
          kernel_initializer:
            class_name: VarianceScaling
            config: {distribution: uniform, mode: fan_avg, scale: 1.0, seed: null}
          kernel_regularizer: null
          kernel_size: !!python/tuple [3, 3]
          name: conv4_block4_2_conv
          padding: same
          strides: *id005
          trainable: *id004
          use_bias: false
        inbound_nodes:
        - - - conv4_block4_1_relu
            - 0
            - 0
            - {}
        name: conv4_block4_2_conv
      - class_name: Concatenate
        config:
          axis: 3
          name: conv4_block4_concat
          trainable: *id004
        inbound_nodes:
        - - - conv4_block3_concat
            - 0
            - 0
            - &id027 {}
          - - conv4_block4_2_conv
            - 0
            - 0
            - *id027
        name: conv4_block4_concat
      - class_name: BatchNormalization
        config:
          axis: 3
          beta_constraint: null
          beta_initializer:
            class_name: Zeros
            config: {}
          beta_regularizer: null
          center: true
          epsilon: 1.001e-05
          gamma_constraint: null
          gamma_initializer:
            class_name: Ones
            config: {}
          gamma_regularizer: null
          momentum: 0.99
          moving_mean_initializer:
            class_name: Zeros
            config: {}
          moving_variance_initializer:
            class_name: Ones
            config: {}
          name: conv4_block5_0_bn
          scale: true
          trainable: *id004
        inbound_nodes:
        - - - conv4_block4_concat
            - 0
            - 0
            - {}
        name: conv4_block5_0_bn
      - class_name: Activation
        config:
          activation: relu
          name: conv4_block5_0_relu
          trainable: *id004
        inbound_nodes:
        - - - conv4_block5_0_bn
            - 0
            - 0
            - {}
        name: conv4_block5_0_relu
      - class_name: Conv2D
        config:
          activation: linear
          activity_regularizer: null
          bias_constraint: null
          bias_initializer:
            class_name: Zeros
            config: {}
          bias_regularizer: null
          data_format: channels_last
          dilation_rate: *id001
          filters: 128
          kernel_constraint: null
          kernel_initializer:
            class_name: VarianceScaling
            config: {distribution: uniform, mode: fan_avg, scale: 1.0, seed: null}
          kernel_regularizer: null
          kernel_size: !!python/tuple [1, 1]
          name: conv4_block5_1_conv
          padding: valid
          strides: *id005
          trainable: *id004
          use_bias: false
        inbound_nodes:
        - - - conv4_block5_0_relu
            - 0
            - 0
            - {}
        name: conv4_block5_1_conv
      - class_name: BatchNormalization
        config:
          axis: 3
          beta_constraint: null
          beta_initializer:
            class_name: Zeros
            config: {}
          beta_regularizer: null
          center: true
          epsilon: 1.001e-05
          gamma_constraint: null
          gamma_initializer:
            class_name: Ones
            config: {}
          gamma_regularizer: null
          momentum: 0.99
          moving_mean_initializer:
            class_name: Zeros
            config: {}
          moving_variance_initializer:
            class_name: Ones
            config: {}
          name: conv4_block5_1_bn
          scale: true
          trainable: *id004
        inbound_nodes:
        - - - conv4_block5_1_conv
            - 0
            - 0
            - {}
        name: conv4_block5_1_bn
      - class_name: Activation
        config:
          activation: relu
          name: conv4_block5_1_relu
          trainable: *id004
        inbound_nodes:
        - - - conv4_block5_1_bn
            - 0
            - 0
            - {}
        name: conv4_block5_1_relu
      - class_name: Conv2D
        config:
          activation: linear
          activity_regularizer: null
          bias_constraint: null
          bias_initializer:
            class_name: Zeros
            config: {}
          bias_regularizer: null
          data_format: channels_last
          dilation_rate: *id001
          filters: 32
          kernel_constraint: null
          kernel_initializer:
            class_name: VarianceScaling
            config: {distribution: uniform, mode: fan_avg, scale: 1.0, seed: null}
          kernel_regularizer: null
          kernel_size: !!python/tuple [3, 3]
          name: conv4_block5_2_conv
          padding: same
          strides: *id005
          trainable: *id004
          use_bias: false
        inbound_nodes:
        - - - conv4_block5_1_relu
            - 0
            - 0
            - {}
        name: conv4_block5_2_conv
      - class_name: Concatenate
        config:
          axis: 3
          name: conv4_block5_concat
          trainable: *id004
        inbound_nodes:
        - - - conv4_block4_concat
            - 0
            - 0
            - &id028 {}
          - - conv4_block5_2_conv
            - 0
            - 0
            - *id028
        name: conv4_block5_concat
      - class_name: BatchNormalization
        config:
          axis: 3
          beta_constraint: null
          beta_initializer:
            class_name: Zeros
            config: {}
          beta_regularizer: null
          center: true
          epsilon: 1.001e-05
          gamma_constraint: null
          gamma_initializer:
            class_name: Ones
            config: {}
          gamma_regularizer: null
          momentum: 0.99
          moving_mean_initializer:
            class_name: Zeros
            config: {}
          moving_variance_initializer:
            class_name: Ones
            config: {}
          name: conv4_block6_0_bn
          scale: true
          trainable: *id004
        inbound_nodes:
        - - - conv4_block5_concat
            - 0
            - 0
            - {}
        name: conv4_block6_0_bn
      - class_name: Activation
        config:
          activation: relu
          name: conv4_block6_0_relu
          trainable: *id004
        inbound_nodes:
        - - - conv4_block6_0_bn
            - 0
            - 0
            - {}
        name: conv4_block6_0_relu
      - class_name: Conv2D
        config:
          activation: linear
          activity_regularizer: null
          bias_constraint: null
          bias_initializer:
            class_name: Zeros
            config: {}
          bias_regularizer: null
          data_format: channels_last
          dilation_rate: *id001
          filters: 128
          kernel_constraint: null
          kernel_initializer:
            class_name: VarianceScaling
            config: {distribution: uniform, mode: fan_avg, scale: 1.0, seed: null}
          kernel_regularizer: null
          kernel_size: !!python/tuple [1, 1]
          name: conv4_block6_1_conv
          padding: valid
          strides: *id005
          trainable: *id004
          use_bias: false
        inbound_nodes:
        - - - conv4_block6_0_relu
            - 0
            - 0
            - {}
        name: conv4_block6_1_conv
      - class_name: BatchNormalization
        config:
          axis: 3
          beta_constraint: null
          beta_initializer:
            class_name: Zeros
            config: {}
          beta_regularizer: null
          center: true
          epsilon: 1.001e-05
          gamma_constraint: null
          gamma_initializer:
            class_name: Ones
            config: {}
          gamma_regularizer: null
          momentum: 0.99
          moving_mean_initializer:
            class_name: Zeros
            config: {}
          moving_variance_initializer:
            class_name: Ones
            config: {}
          name: conv4_block6_1_bn
          scale: true
          trainable: *id004
        inbound_nodes:
        - - - conv4_block6_1_conv
            - 0
            - 0
            - {}
        name: conv4_block6_1_bn
      - class_name: Activation
        config:
          activation: relu
          name: conv4_block6_1_relu
          trainable: *id004
        inbound_nodes:
        - - - conv4_block6_1_bn
            - 0
            - 0
            - {}
        name: conv4_block6_1_relu
      - class_name: Conv2D
        config:
          activation: linear
          activity_regularizer: null
          bias_constraint: null
          bias_initializer:
            class_name: Zeros
            config: {}
          bias_regularizer: null
          data_format: channels_last
          dilation_rate: *id001
          filters: 32
          kernel_constraint: null
          kernel_initializer:
            class_name: VarianceScaling
            config: {distribution: uniform, mode: fan_avg, scale: 1.0, seed: null}
          kernel_regularizer: null
          kernel_size: !!python/tuple [3, 3]
          name: conv4_block6_2_conv
          padding: same
          strides: *id005
          trainable: *id004
          use_bias: false
        inbound_nodes:
        - - - conv4_block6_1_relu
            - 0
            - 0
            - {}
        name: conv4_block6_2_conv
      - class_name: Concatenate
        config:
          axis: 3
          name: conv4_block6_concat
          trainable: *id004
        inbound_nodes:
        - - - conv4_block5_concat
            - 0
            - 0
            - &id029 {}
          - - conv4_block6_2_conv
            - 0
            - 0
            - *id029
        name: conv4_block6_concat
      - class_name: BatchNormalization
        config:
          axis: 3
          beta_constraint: null
          beta_initializer:
            class_name: Zeros
            config: {}
          beta_regularizer: null
          center: true
          epsilon: 1.001e-05
          gamma_constraint: null
          gamma_initializer:
            class_name: Ones
            config: {}
          gamma_regularizer: null
          momentum: 0.99
          moving_mean_initializer:
            class_name: Zeros
            config: {}
          moving_variance_initializer:
            class_name: Ones
            config: {}
          name: conv4_block7_0_bn
          scale: true
          trainable: *id004
        inbound_nodes:
        - - - conv4_block6_concat
            - 0
            - 0
            - {}
        name: conv4_block7_0_bn
      - class_name: Activation
        config:
          activation: relu
          name: conv4_block7_0_relu
          trainable: *id004
        inbound_nodes:
        - - - conv4_block7_0_bn
            - 0
            - 0
            - {}
        name: conv4_block7_0_relu
      - class_name: Conv2D
        config:
          activation: linear
          activity_regularizer: null
          bias_constraint: null
          bias_initializer:
            class_name: Zeros
            config: {}
          bias_regularizer: null
          data_format: channels_last
          dilation_rate: *id001
          filters: 128
          kernel_constraint: null
          kernel_initializer:
            class_name: VarianceScaling
            config: {distribution: uniform, mode: fan_avg, scale: 1.0, seed: null}
          kernel_regularizer: null
          kernel_size: !!python/tuple [1, 1]
          name: conv4_block7_1_conv
          padding: valid
          strides: *id005
          trainable: *id004
          use_bias: false
        inbound_nodes:
        - - - conv4_block7_0_relu
            - 0
            - 0
            - {}
        name: conv4_block7_1_conv
      - class_name: BatchNormalization
        config:
          axis: 3
          beta_constraint: null
          beta_initializer:
            class_name: Zeros
            config: {}
          beta_regularizer: null
          center: true
          epsilon: 1.001e-05
          gamma_constraint: null
          gamma_initializer:
            class_name: Ones
            config: {}
          gamma_regularizer: null
          momentum: 0.99
          moving_mean_initializer:
            class_name: Zeros
            config: {}
          moving_variance_initializer:
            class_name: Ones
            config: {}
          name: conv4_block7_1_bn
          scale: true
          trainable: *id004
        inbound_nodes:
        - - - conv4_block7_1_conv
            - 0
            - 0
            - {}
        name: conv4_block7_1_bn
      - class_name: Activation
        config:
          activation: relu
          name: conv4_block7_1_relu
          trainable: *id004
        inbound_nodes:
        - - - conv4_block7_1_bn
            - 0
            - 0
            - {}
        name: conv4_block7_1_relu
      - class_name: Conv2D
        config:
          activation: linear
          activity_regularizer: null
          bias_constraint: null
          bias_initializer:
            class_name: Zeros
            config: {}
          bias_regularizer: null
          data_format: channels_last
          dilation_rate: *id001
          filters: 32
          kernel_constraint: null
          kernel_initializer:
            class_name: VarianceScaling
            config: {distribution: uniform, mode: fan_avg, scale: 1.0, seed: null}
          kernel_regularizer: null
          kernel_size: !!python/tuple [3, 3]
          name: conv4_block7_2_conv
          padding: same
          strides: *id005
          trainable: *id004
          use_bias: false
        inbound_nodes:
        - - - conv4_block7_1_relu
            - 0
            - 0
            - {}
        name: conv4_block7_2_conv
      - class_name: Concatenate
        config:
          axis: 3
          name: conv4_block7_concat
          trainable: *id004
        inbound_nodes:
        - - - conv4_block6_concat
            - 0
            - 0
            - &id030 {}
          - - conv4_block7_2_conv
            - 0
            - 0
            - *id030
        name: conv4_block7_concat
      - class_name: BatchNormalization
        config:
          axis: 3
          beta_constraint: null
          beta_initializer:
            class_name: Zeros
            config: {}
          beta_regularizer: null
          center: true
          epsilon: 1.001e-05
          gamma_constraint: null
          gamma_initializer:
            class_name: Ones
            config: {}
          gamma_regularizer: null
          momentum: 0.99
          moving_mean_initializer:
            class_name: Zeros
            config: {}
          moving_variance_initializer:
            class_name: Ones
            config: {}
          name: conv4_block8_0_bn
          scale: true
          trainable: *id004
        inbound_nodes:
        - - - conv4_block7_concat
            - 0
            - 0
            - {}
        name: conv4_block8_0_bn
      - class_name: Activation
        config:
          activation: relu
          name: conv4_block8_0_relu
          trainable: *id004
        inbound_nodes:
        - - - conv4_block8_0_bn
            - 0
            - 0
            - {}
        name: conv4_block8_0_relu
      - class_name: Conv2D
        config:
          activation: linear
          activity_regularizer: null
          bias_constraint: null
          bias_initializer:
            class_name: Zeros
            config: {}
          bias_regularizer: null
          data_format: channels_last
          dilation_rate: *id001
          filters: 128
          kernel_constraint: null
          kernel_initializer:
            class_name: VarianceScaling
            config: {distribution: uniform, mode: fan_avg, scale: 1.0, seed: null}
          kernel_regularizer: null
          kernel_size: !!python/tuple [1, 1]
          name: conv4_block8_1_conv
          padding: valid
          strides: *id005
          trainable: *id004
          use_bias: false
        inbound_nodes:
        - - - conv4_block8_0_relu
            - 0
            - 0
            - {}
        name: conv4_block8_1_conv
      - class_name: BatchNormalization
        config:
          axis: 3
          beta_constraint: null
          beta_initializer:
            class_name: Zeros
            config: {}
          beta_regularizer: null
          center: true
          epsilon: 1.001e-05
          gamma_constraint: null
          gamma_initializer:
            class_name: Ones
            config: {}
          gamma_regularizer: null
          momentum: 0.99
          moving_mean_initializer:
            class_name: Zeros
            config: {}
          moving_variance_initializer:
            class_name: Ones
            config: {}
          name: conv4_block8_1_bn
          scale: true
          trainable: *id004
        inbound_nodes:
        - - - conv4_block8_1_conv
            - 0
            - 0
            - {}
        name: conv4_block8_1_bn
      - class_name: Activation
        config:
          activation: relu
          name: conv4_block8_1_relu
          trainable: *id004
        inbound_nodes:
        - - - conv4_block8_1_bn
            - 0
            - 0
            - {}
        name: conv4_block8_1_relu
      - class_name: Conv2D
        config:
          activation: linear
          activity_regularizer: null
          bias_constraint: null
          bias_initializer:
            class_name: Zeros
            config: {}
          bias_regularizer: null
          data_format: channels_last
          dilation_rate: *id001
          filters: 32
          kernel_constraint: null
          kernel_initializer:
            class_name: VarianceScaling
            config: {distribution: uniform, mode: fan_avg, scale: 1.0, seed: null}
          kernel_regularizer: null
          kernel_size: !!python/tuple [3, 3]
          name: conv4_block8_2_conv
          padding: same
          strides: *id005
          trainable: *id004
          use_bias: false
        inbound_nodes:
        - - - conv4_block8_1_relu
            - 0
            - 0
            - {}
        name: conv4_block8_2_conv
      - class_name: Concatenate
        config:
          axis: 3
          name: conv4_block8_concat
          trainable: *id004
        inbound_nodes:
        - - - conv4_block7_concat
            - 0
            - 0
            - &id031 {}
          - - conv4_block8_2_conv
            - 0
            - 0
            - *id031
        name: conv4_block8_concat
      - class_name: BatchNormalization
        config:
          axis: 3
          beta_constraint: null
          beta_initializer:
            class_name: Zeros
            config: {}
          beta_regularizer: null
          center: true
          epsilon: 1.001e-05
          gamma_constraint: null
          gamma_initializer:
            class_name: Ones
            config: {}
          gamma_regularizer: null
          momentum: 0.99
          moving_mean_initializer:
            class_name: Zeros
            config: {}
          moving_variance_initializer:
            class_name: Ones
            config: {}
          name: conv4_block9_0_bn
          scale: true
          trainable: *id004
        inbound_nodes:
        - - - conv4_block8_concat
            - 0
            - 0
            - {}
        name: conv4_block9_0_bn
      - class_name: Activation
        config:
          activation: relu
          name: conv4_block9_0_relu
          trainable: *id004
        inbound_nodes:
        - - - conv4_block9_0_bn
            - 0
            - 0
            - {}
        name: conv4_block9_0_relu
      - class_name: Conv2D
        config:
          activation: linear
          activity_regularizer: null
          bias_constraint: null
          bias_initializer:
            class_name: Zeros
            config: {}
          bias_regularizer: null
          data_format: channels_last
          dilation_rate: *id001
          filters: 128
          kernel_constraint: null
          kernel_initializer:
            class_name: VarianceScaling
            config: {distribution: uniform, mode: fan_avg, scale: 1.0, seed: null}
          kernel_regularizer: null
          kernel_size: !!python/tuple [1, 1]
          name: conv4_block9_1_conv
          padding: valid
          strides: *id005
          trainable: *id004
          use_bias: false
        inbound_nodes:
        - - - conv4_block9_0_relu
            - 0
            - 0
            - {}
        name: conv4_block9_1_conv
      - class_name: BatchNormalization
        config:
          axis: 3
          beta_constraint: null
          beta_initializer:
            class_name: Zeros
            config: {}
          beta_regularizer: null
          center: true
          epsilon: 1.001e-05
          gamma_constraint: null
          gamma_initializer:
            class_name: Ones
            config: {}
          gamma_regularizer: null
          momentum: 0.99
          moving_mean_initializer:
            class_name: Zeros
            config: {}
          moving_variance_initializer:
            class_name: Ones
            config: {}
          name: conv4_block9_1_bn
          scale: true
          trainable: *id004
        inbound_nodes:
        - - - conv4_block9_1_conv
            - 0
            - 0
            - {}
        name: conv4_block9_1_bn
      - class_name: Activation
        config:
          activation: relu
          name: conv4_block9_1_relu
          trainable: *id004
        inbound_nodes:
        - - - conv4_block9_1_bn
            - 0
            - 0
            - {}
        name: conv4_block9_1_relu
      - class_name: Conv2D
        config:
          activation: linear
          activity_regularizer: null
          bias_constraint: null
          bias_initializer:
            class_name: Zeros
            config: {}
          bias_regularizer: null
          data_format: channels_last
          dilation_rate: *id001
          filters: 32
          kernel_constraint: null
          kernel_initializer:
            class_name: VarianceScaling
            config: {distribution: uniform, mode: fan_avg, scale: 1.0, seed: null}
          kernel_regularizer: null
          kernel_size: !!python/tuple [3, 3]
          name: conv4_block9_2_conv
          padding: same
          strides: *id005
          trainable: *id004
          use_bias: false
        inbound_nodes:
        - - - conv4_block9_1_relu
            - 0
            - 0
            - {}
        name: conv4_block9_2_conv
      - class_name: Concatenate
        config:
          axis: 3
          name: conv4_block9_concat
          trainable: *id004
        inbound_nodes:
        - - - conv4_block8_concat
            - 0
            - 0
            - &id032 {}
          - - conv4_block9_2_conv
            - 0
            - 0
            - *id032
        name: conv4_block9_concat
      - class_name: BatchNormalization
        config:
          axis: 3
          beta_constraint: null
          beta_initializer:
            class_name: Zeros
            config: {}
          beta_regularizer: null
          center: true
          epsilon: 1.001e-05
          gamma_constraint: null
          gamma_initializer:
            class_name: Ones
            config: {}
          gamma_regularizer: null
          momentum: 0.99
          moving_mean_initializer:
            class_name: Zeros
            config: {}
          moving_variance_initializer:
            class_name: Ones
            config: {}
          name: conv4_block10_0_bn
          scale: true
          trainable: *id004
        inbound_nodes:
        - - - conv4_block9_concat
            - 0
            - 0
            - {}
        name: conv4_block10_0_bn
      - class_name: Activation
        config:
          activation: relu
          name: conv4_block10_0_relu
          trainable: *id004
        inbound_nodes:
        - - - conv4_block10_0_bn
            - 0
            - 0
            - {}
        name: conv4_block10_0_relu
      - class_name: Conv2D
        config:
          activation: linear
          activity_regularizer: null
          bias_constraint: null
          bias_initializer:
            class_name: Zeros
            config: {}
          bias_regularizer: null
          data_format: channels_last
          dilation_rate: *id001
          filters: 128
          kernel_constraint: null
          kernel_initializer:
            class_name: VarianceScaling
            config: {distribution: uniform, mode: fan_avg, scale: 1.0, seed: null}
          kernel_regularizer: null
          kernel_size: !!python/tuple [1, 1]
          name: conv4_block10_1_conv
          padding: valid
          strides: *id005
          trainable: *id004
          use_bias: false
        inbound_nodes:
        - - - conv4_block10_0_relu
            - 0
            - 0
            - {}
        name: conv4_block10_1_conv
      - class_name: BatchNormalization
        config:
          axis: 3
          beta_constraint: null
          beta_initializer:
            class_name: Zeros
            config: {}
          beta_regularizer: null
          center: true
          epsilon: 1.001e-05
          gamma_constraint: null
          gamma_initializer:
            class_name: Ones
            config: {}
          gamma_regularizer: null
          momentum: 0.99
          moving_mean_initializer:
            class_name: Zeros
            config: {}
          moving_variance_initializer:
            class_name: Ones
            config: {}
          name: conv4_block10_1_bn
          scale: true
          trainable: *id004
        inbound_nodes:
        - - - conv4_block10_1_conv
            - 0
            - 0
            - {}
        name: conv4_block10_1_bn
      - class_name: Activation
        config:
          activation: relu
          name: conv4_block10_1_relu
          trainable: *id004
        inbound_nodes:
        - - - conv4_block10_1_bn
            - 0
            - 0
            - {}
        name: conv4_block10_1_relu
      - class_name: Conv2D
        config:
          activation: linear
          activity_regularizer: null
          bias_constraint: null
          bias_initializer:
            class_name: Zeros
            config: {}
          bias_regularizer: null
          data_format: channels_last
          dilation_rate: *id001
          filters: 32
          kernel_constraint: null
          kernel_initializer:
            class_name: VarianceScaling
            config: {distribution: uniform, mode: fan_avg, scale: 1.0, seed: null}
          kernel_regularizer: null
          kernel_size: !!python/tuple [3, 3]
          name: conv4_block10_2_conv
          padding: same
          strides: *id005
          trainable: *id004
          use_bias: false
        inbound_nodes:
        - - - conv4_block10_1_relu
            - 0
            - 0
            - {}
        name: conv4_block10_2_conv
      - class_name: Concatenate
        config:
          axis: 3
          name: conv4_block10_concat
          trainable: *id004
        inbound_nodes:
        - - - conv4_block9_concat
            - 0
            - 0
            - &id033 {}
          - - conv4_block10_2_conv
            - 0
            - 0
            - *id033
        name: conv4_block10_concat
      - class_name: BatchNormalization
        config:
          axis: 3
          beta_constraint: null
          beta_initializer:
            class_name: Zeros
            config: {}
          beta_regularizer: null
          center: true
          epsilon: 1.001e-05
          gamma_constraint: null
          gamma_initializer:
            class_name: Ones
            config: {}
          gamma_regularizer: null
          momentum: 0.99
          moving_mean_initializer:
            class_name: Zeros
            config: {}
          moving_variance_initializer:
            class_name: Ones
            config: {}
          name: conv4_block11_0_bn
          scale: true
          trainable: *id004
        inbound_nodes:
        - - - conv4_block10_concat
            - 0
            - 0
            - {}
        name: conv4_block11_0_bn
      - class_name: Activation
        config:
          activation: relu
          name: conv4_block11_0_relu
          trainable: *id004
        inbound_nodes:
        - - - conv4_block11_0_bn
            - 0
            - 0
            - {}
        name: conv4_block11_0_relu
      - class_name: Conv2D
        config:
          activation: linear
          activity_regularizer: null
          bias_constraint: null
          bias_initializer:
            class_name: Zeros
            config: {}
          bias_regularizer: null
          data_format: channels_last
          dilation_rate: *id001
          filters: 128
          kernel_constraint: null
          kernel_initializer:
            class_name: VarianceScaling
            config: {distribution: uniform, mode: fan_avg, scale: 1.0, seed: null}
          kernel_regularizer: null
          kernel_size: !!python/tuple [1, 1]
          name: conv4_block11_1_conv
          padding: valid
          strides: *id005
          trainable: *id004
          use_bias: false
        inbound_nodes:
        - - - conv4_block11_0_relu
            - 0
            - 0
            - {}
        name: conv4_block11_1_conv
      - class_name: BatchNormalization
        config:
          axis: 3
          beta_constraint: null
          beta_initializer:
            class_name: Zeros
            config: {}
          beta_regularizer: null
          center: true
          epsilon: 1.001e-05
          gamma_constraint: null
          gamma_initializer:
            class_name: Ones
            config: {}
          gamma_regularizer: null
          momentum: 0.99
          moving_mean_initializer:
            class_name: Zeros
            config: {}
          moving_variance_initializer:
            class_name: Ones
            config: {}
          name: conv4_block11_1_bn
          scale: true
          trainable: *id004
        inbound_nodes:
        - - - conv4_block11_1_conv
            - 0
            - 0
            - {}
        name: conv4_block11_1_bn
      - class_name: Activation
        config:
          activation: relu
          name: conv4_block11_1_relu
          trainable: *id004
        inbound_nodes:
        - - - conv4_block11_1_bn
            - 0
            - 0
            - {}
        name: conv4_block11_1_relu
      - class_name: Conv2D
        config:
          activation: linear
          activity_regularizer: null
          bias_constraint: null
          bias_initializer:
            class_name: Zeros
            config: {}
          bias_regularizer: null
          data_format: channels_last
          dilation_rate: *id001
          filters: 32
          kernel_constraint: null
          kernel_initializer:
            class_name: VarianceScaling
            config: {distribution: uniform, mode: fan_avg, scale: 1.0, seed: null}
          kernel_regularizer: null
          kernel_size: !!python/tuple [3, 3]
          name: conv4_block11_2_conv
          padding: same
          strides: *id005
          trainable: *id004
          use_bias: false
        inbound_nodes:
        - - - conv4_block11_1_relu
            - 0
            - 0
            - {}
        name: conv4_block11_2_conv
      - class_name: Concatenate
        config:
          axis: 3
          name: conv4_block11_concat
          trainable: *id004
        inbound_nodes:
        - - - conv4_block10_concat
            - 0
            - 0
            - &id034 {}
          - - conv4_block11_2_conv
            - 0
            - 0
            - *id034
        name: conv4_block11_concat
      - class_name: BatchNormalization
        config:
          axis: 3
          beta_constraint: null
          beta_initializer:
            class_name: Zeros
            config: {}
          beta_regularizer: null
          center: true
          epsilon: 1.001e-05
          gamma_constraint: null
          gamma_initializer:
            class_name: Ones
            config: {}
          gamma_regularizer: null
          momentum: 0.99
          moving_mean_initializer:
            class_name: Zeros
            config: {}
          moving_variance_initializer:
            class_name: Ones
            config: {}
          name: conv4_block12_0_bn
          scale: true
          trainable: *id004
        inbound_nodes:
        - - - conv4_block11_concat
            - 0
            - 0
            - {}
        name: conv4_block12_0_bn
      - class_name: Activation
        config:
          activation: relu
          name: conv4_block12_0_relu
          trainable: *id004
        inbound_nodes:
        - - - conv4_block12_0_bn
            - 0
            - 0
            - {}
        name: conv4_block12_0_relu
      - class_name: Conv2D
        config:
          activation: linear
          activity_regularizer: null
          bias_constraint: null
          bias_initializer:
            class_name: Zeros
            config: {}
          bias_regularizer: null
          data_format: channels_last
          dilation_rate: *id001
          filters: 128
          kernel_constraint: null
          kernel_initializer:
            class_name: VarianceScaling
            config: {distribution: uniform, mode: fan_avg, scale: 1.0, seed: null}
          kernel_regularizer: null
          kernel_size: !!python/tuple [1, 1]
          name: conv4_block12_1_conv
          padding: valid
          strides: *id005
          trainable: *id004
          use_bias: false
        inbound_nodes:
        - - - conv4_block12_0_relu
            - 0
            - 0
            - {}
        name: conv4_block12_1_conv
      - class_name: BatchNormalization
        config:
          axis: 3
          beta_constraint: null
          beta_initializer:
            class_name: Zeros
            config: {}
          beta_regularizer: null
          center: true
          epsilon: 1.001e-05
          gamma_constraint: null
          gamma_initializer:
            class_name: Ones
            config: {}
          gamma_regularizer: null
          momentum: 0.99
          moving_mean_initializer:
            class_name: Zeros
            config: {}
          moving_variance_initializer:
            class_name: Ones
            config: {}
          name: conv4_block12_1_bn
          scale: true
          trainable: *id004
        inbound_nodes:
        - - - conv4_block12_1_conv
            - 0
            - 0
            - {}
        name: conv4_block12_1_bn
      - class_name: Activation
        config:
          activation: relu
          name: conv4_block12_1_relu
          trainable: *id004
        inbound_nodes:
        - - - conv4_block12_1_bn
            - 0
            - 0
            - {}
        name: conv4_block12_1_relu
      - class_name: Conv2D
        config:
          activation: linear
          activity_regularizer: null
          bias_constraint: null
          bias_initializer:
            class_name: Zeros
            config: {}
          bias_regularizer: null
          data_format: channels_last
          dilation_rate: *id001
          filters: 32
          kernel_constraint: null
          kernel_initializer:
            class_name: VarianceScaling
            config: {distribution: uniform, mode: fan_avg, scale: 1.0, seed: null}
          kernel_regularizer: null
          kernel_size: !!python/tuple [3, 3]
          name: conv4_block12_2_conv
          padding: same
          strides: *id005
          trainable: *id004
          use_bias: false
        inbound_nodes:
        - - - conv4_block12_1_relu
            - 0
            - 0
            - {}
        name: conv4_block12_2_conv
      - class_name: Concatenate
        config:
          axis: 3
          name: conv4_block12_concat
          trainable: *id004
        inbound_nodes:
        - - - conv4_block11_concat
            - 0
            - 0
            - &id035 {}
          - - conv4_block12_2_conv
            - 0
            - 0
            - *id035
        name: conv4_block12_concat
      - class_name: BatchNormalization
        config:
          axis: 3
          beta_constraint: null
          beta_initializer:
            class_name: Zeros
            config: {}
          beta_regularizer: null
          center: true
          epsilon: 1.001e-05
          gamma_constraint: null
          gamma_initializer:
            class_name: Ones
            config: {}
          gamma_regularizer: null
          momentum: 0.99
          moving_mean_initializer:
            class_name: Zeros
            config: {}
          moving_variance_initializer:
            class_name: Ones
            config: {}
          name: conv4_block13_0_bn
          scale: true
          trainable: *id004
        inbound_nodes:
        - - - conv4_block12_concat
            - 0
            - 0
            - {}
        name: conv4_block13_0_bn
      - class_name: Activation
        config:
          activation: relu
          name: conv4_block13_0_relu
          trainable: *id004
        inbound_nodes:
        - - - conv4_block13_0_bn
            - 0
            - 0
            - {}
        name: conv4_block13_0_relu
      - class_name: Conv2D
        config:
          activation: linear
          activity_regularizer: null
          bias_constraint: null
          bias_initializer:
            class_name: Zeros
            config: {}
          bias_regularizer: null
          data_format: channels_last
          dilation_rate: *id001
          filters: 128
          kernel_constraint: null
          kernel_initializer:
            class_name: VarianceScaling
            config: {distribution: uniform, mode: fan_avg, scale: 1.0, seed: null}
          kernel_regularizer: null
          kernel_size: !!python/tuple [1, 1]
          name: conv4_block13_1_conv
          padding: valid
          strides: *id005
          trainable: *id004
          use_bias: false
        inbound_nodes:
        - - - conv4_block13_0_relu
            - 0
            - 0
            - {}
        name: conv4_block13_1_conv
      - class_name: BatchNormalization
        config:
          axis: 3
          beta_constraint: null
          beta_initializer:
            class_name: Zeros
            config: {}
          beta_regularizer: null
          center: true
          epsilon: 1.001e-05
          gamma_constraint: null
          gamma_initializer:
            class_name: Ones
            config: {}
          gamma_regularizer: null
          momentum: 0.99
          moving_mean_initializer:
            class_name: Zeros
            config: {}
          moving_variance_initializer:
            class_name: Ones
            config: {}
          name: conv4_block13_1_bn
          scale: true
          trainable: *id004
        inbound_nodes:
        - - - conv4_block13_1_conv
            - 0
            - 0
            - {}
        name: conv4_block13_1_bn
      - class_name: Activation
        config:
          activation: relu
          name: conv4_block13_1_relu
          trainable: *id004
        inbound_nodes:
        - - - conv4_block13_1_bn
            - 0
            - 0
            - {}
        name: conv4_block13_1_relu
      - class_name: Conv2D
        config:
          activation: linear
          activity_regularizer: null
          bias_constraint: null
          bias_initializer:
            class_name: Zeros
            config: {}
          bias_regularizer: null
          data_format: channels_last
          dilation_rate: *id001
          filters: 32
          kernel_constraint: null
          kernel_initializer:
            class_name: VarianceScaling
            config: {distribution: uniform, mode: fan_avg, scale: 1.0, seed: null}
          kernel_regularizer: null
          kernel_size: !!python/tuple [3, 3]
          name: conv4_block13_2_conv
          padding: same
          strides: *id005
          trainable: *id004
          use_bias: false
        inbound_nodes:
        - - - conv4_block13_1_relu
            - 0
            - 0
            - {}
        name: conv4_block13_2_conv
      - class_name: Concatenate
        config:
          axis: 3
          name: conv4_block13_concat
          trainable: *id004
        inbound_nodes:
        - - - conv4_block12_concat
            - 0
            - 0
            - &id036 {}
          - - conv4_block13_2_conv
            - 0
            - 0
            - *id036
        name: conv4_block13_concat
      - class_name: BatchNormalization
        config:
          axis: 3
          beta_constraint: null
          beta_initializer:
            class_name: Zeros
            config: {}
          beta_regularizer: null
          center: true
          epsilon: 1.001e-05
          gamma_constraint: null
          gamma_initializer:
            class_name: Ones
            config: {}
          gamma_regularizer: null
          momentum: 0.99
          moving_mean_initializer:
            class_name: Zeros
            config: {}
          moving_variance_initializer:
            class_name: Ones
            config: {}
          name: conv4_block14_0_bn
          scale: true
          trainable: *id004
        inbound_nodes:
        - - - conv4_block13_concat
            - 0
            - 0
            - {}
        name: conv4_block14_0_bn
      - class_name: Activation
        config:
          activation: relu
          name: conv4_block14_0_relu
          trainable: *id004
        inbound_nodes:
        - - - conv4_block14_0_bn
            - 0
            - 0
            - {}
        name: conv4_block14_0_relu
      - class_name: Conv2D
        config:
          activation: linear
          activity_regularizer: null
          bias_constraint: null
          bias_initializer:
            class_name: Zeros
            config: {}
          bias_regularizer: null
          data_format: channels_last
          dilation_rate: *id001
          filters: 128
          kernel_constraint: null
          kernel_initializer:
            class_name: VarianceScaling
            config: {distribution: uniform, mode: fan_avg, scale: 1.0, seed: null}
          kernel_regularizer: null
          kernel_size: !!python/tuple [1, 1]
          name: conv4_block14_1_conv
          padding: valid
          strides: *id005
          trainable: *id004
          use_bias: false
        inbound_nodes:
        - - - conv4_block14_0_relu
            - 0
            - 0
            - {}
        name: conv4_block14_1_conv
      - class_name: BatchNormalization
        config:
          axis: 3
          beta_constraint: null
          beta_initializer:
            class_name: Zeros
            config: {}
          beta_regularizer: null
          center: true
          epsilon: 1.001e-05
          gamma_constraint: null
          gamma_initializer:
            class_name: Ones
            config: {}
          gamma_regularizer: null
          momentum: 0.99
          moving_mean_initializer:
            class_name: Zeros
            config: {}
          moving_variance_initializer:
            class_name: Ones
            config: {}
          name: conv4_block14_1_bn
          scale: true
          trainable: *id004
        inbound_nodes:
        - - - conv4_block14_1_conv
            - 0
            - 0
            - {}
        name: conv4_block14_1_bn
      - class_name: Activation
        config:
          activation: relu
          name: conv4_block14_1_relu
          trainable: *id004
        inbound_nodes:
        - - - conv4_block14_1_bn
            - 0
            - 0
            - {}
        name: conv4_block14_1_relu
      - class_name: Conv2D
        config:
          activation: linear
          activity_regularizer: null
          bias_constraint: null
…
          name: block8_6_conv
          padding: same
          strides: !!python/tuple [1, 1]
          trainable: *id004
          use_bias: true
        inbound_nodes:
        - - - block8_6_mixed
            - 0
            - 0
            - {}
        name: block8_6_conv
      - class_name: Lambda
        config:
          arguments: {scale: 0.2}
          function: !!python/tuple ['4wIAAAAAAAAAAgAAAAMAAABTAAAAcxQAAAB8AGQBGQB8AGQCGQB8ARQAFwBTACkDTukAAAAA6QEA

              AACpACkC2gZpbnB1dHPaBXNjYWxlcgMAAAByAwAAAPpyL29wdC9wYWNrYWdlcy9BSS9hbmFjb25k

              YTMtNS4xLjBfZ3B1LjIwMTgtMDgvbGliL3B5dGhvbjMuNi9zaXRlLXBhY2thZ2VzL2tlcmFzX2Fw

              cGxpY2F0aW9ucy9pbmNlcHRpb25fcmVzbmV0X3YyLnB52gg8bGFtYmRhPqoAAADzAAAAAA==

              ', null, null]
          function_type: lambda
          name: block8_6
          output_shape: !!python/tuple [null, null, 2080]
          output_shape_type: raw
          trainable: *id004
        inbound_nodes:
        - - - block8_5_ac
            - 0
            - 0
            - &id180 {}
          - - block8_6_conv
            - 0
            - 0
            - *id180
        name: block8_6
      - class_name: Activation
        config:
          activation: relu
          name: block8_6_ac
          trainable: *id004
        inbound_nodes:
        - - - block8_6
            - 0
            - 0
            - {}
        name: block8_6_ac
      - class_name: Conv2D
        config:
          activation: linear
          activity_regularizer: null
          bias_constraint: null
          bias_initializer:
            class_name: Zeros
            config: {}
          bias_regularizer: null
          data_format: channels_last
          dilation_rate: *id001
          filters: 192
          kernel_constraint: null
          kernel_initializer:
            class_name: VarianceScaling
            config: {distribution: uniform, mode: fan_avg, scale: 1.0, seed: null}
          kernel_regularizer: null
          kernel_size: !!python/tuple [1, 1]
          name: conv2d_191
          padding: same
          strides: !!python/tuple [1, 1]
          trainable: *id004
          use_bias: false
        inbound_nodes:
        - - - block8_6_ac
            - 0
            - 0
            - {}
        name: conv2d_191
      - class_name: BatchNormalization
        config:
          axis: 3
          beta_constraint: null
          beta_initializer:
            class_name: Zeros
            config: {}
          beta_regularizer: null
          center: true
          epsilon: 0.001
          gamma_constraint: null
          gamma_initializer:
            class_name: Ones
            config: {}
          gamma_regularizer: null
          momentum: 0.99
          moving_mean_initializer:
            class_name: Zeros
            config: {}
          moving_variance_initializer:
            class_name: Ones
            config: {}
          name: batch_normalization_189
          scale: false
          trainable: *id004
        inbound_nodes:
        - - - conv2d_191
            - 0
            - 0
            - {}
        name: batch_normalization_189
      - class_name: Activation
        config:
          activation: relu
          name: activation_189
          trainable: *id004
        inbound_nodes:
        - - - batch_normalization_189
            - 0
            - 0
            - {}
        name: activation_189
      - class_name: Conv2D
        config:
          activation: linear
          activity_regularizer: null
          bias_constraint: null
          bias_initializer:
            class_name: Zeros
            config: {}
          bias_regularizer: null
          data_format: channels_last
          dilation_rate: *id001
          filters: 224
          kernel_constraint: null
          kernel_initializer:
            class_name: VarianceScaling
            config: {distribution: uniform, mode: fan_avg, scale: 1.0, seed: null}
          kernel_regularizer: null
          kernel_size: !!python/tuple [1, 3]
          name: conv2d_192
          padding: same
          strides: !!python/tuple [1, 1]
          trainable: *id004
          use_bias: false
        inbound_nodes:
        - - - activation_189
            - 0
            - 0
            - {}
        name: conv2d_192
      - class_name: BatchNormalization
        config:
          axis: 3
          beta_constraint: null
          beta_initializer:
            class_name: Zeros
            config: {}
          beta_regularizer: null
          center: true
          epsilon: 0.001
          gamma_constraint: null
          gamma_initializer:
            class_name: Ones
            config: {}
          gamma_regularizer: null
          momentum: 0.99
          moving_mean_initializer:
            class_name: Zeros
            config: {}
          moving_variance_initializer:
            class_name: Ones
            config: {}
          name: batch_normalization_190
          scale: false
          trainable: *id004
        inbound_nodes:
        - - - conv2d_192
            - 0
            - 0
            - {}
        name: batch_normalization_190
      - class_name: Activation
        config:
          activation: relu
          name: activation_190
          trainable: *id004
        inbound_nodes:
        - - - batch_normalization_190
            - 0
            - 0
            - {}
        name: activation_190
      - class_name: Conv2D
        config:
          activation: linear
          activity_regularizer: null
          bias_constraint: null
          bias_initializer:
            class_name: Zeros
            config: {}
          bias_regularizer: null
          data_format: channels_last
          dilation_rate: *id001
          filters: 192
          kernel_constraint: null
          kernel_initializer:
            class_name: VarianceScaling
            config: {distribution: uniform, mode: fan_avg, scale: 1.0, seed: null}
          kernel_regularizer: null
          kernel_size: !!python/tuple [1, 1]
          name: conv2d_190
          padding: same
          strides: !!python/tuple [1, 1]
          trainable: *id004
          use_bias: false
        inbound_nodes:
        - - - block8_6_ac
            - 0
            - 0
            - {}
        name: conv2d_190
      - class_name: Conv2D
        config:
          activation: linear
          activity_regularizer: null
          bias_constraint: null
          bias_initializer:
            class_name: Zeros
            config: {}
          bias_regularizer: null
          data_format: channels_last
          dilation_rate: *id001
          filters: 256
          kernel_constraint: null
          kernel_initializer:
            class_name: VarianceScaling
            config: {distribution: uniform, mode: fan_avg, scale: 1.0, seed: null}
          kernel_regularizer: null
          kernel_size: !!python/tuple [3, 1]
          name: conv2d_193
          padding: same
          strides: !!python/tuple [1, 1]
          trainable: *id004
          use_bias: false
        inbound_nodes:
        - - - activation_190
            - 0
            - 0
            - {}
        name: conv2d_193
      - class_name: BatchNormalization
        config:
          axis: 3
          beta_constraint: null
          beta_initializer:
            class_name: Zeros
            config: {}
          beta_regularizer: null
          center: true
          epsilon: 0.001
          gamma_constraint: null
          gamma_initializer:
            class_name: Ones
            config: {}
          gamma_regularizer: null
          momentum: 0.99
          moving_mean_initializer:
            class_name: Zeros
            config: {}
          moving_variance_initializer:
            class_name: Ones
            config: {}
          name: batch_normalization_188
          scale: false
          trainable: *id004
        inbound_nodes:
        - - - conv2d_190
            - 0
            - 0
            - {}
        name: batch_normalization_188
      - class_name: BatchNormalization
        config:
          axis: 3
          beta_constraint: null
          beta_initializer:
            class_name: Zeros
            config: {}
          beta_regularizer: null
          center: true
          epsilon: 0.001
          gamma_constraint: null
          gamma_initializer:
            class_name: Ones
            config: {}
          gamma_regularizer: null
          momentum: 0.99
          moving_mean_initializer:
            class_name: Zeros
            config: {}
          moving_variance_initializer:
            class_name: Ones
            config: {}
          name: batch_normalization_191
          scale: false
          trainable: *id004
        inbound_nodes:
        - - - conv2d_193
            - 0
            - 0
            - {}
        name: batch_normalization_191
      - class_name: Activation
        config:
          activation: relu
          name: activation_188
          trainable: *id004
        inbound_nodes:
        - - - batch_normalization_188
            - 0
            - 0
            - {}
        name: activation_188
      - class_name: Activation
        config:
          activation: relu
          name: activation_191
          trainable: *id004
        inbound_nodes:
        - - - batch_normalization_191
            - 0
            - 0
            - {}
        name: activation_191
      - class_name: Concatenate
        config:
          axis: 3
          name: block8_7_mixed
          trainable: *id004
        inbound_nodes:
        - - - activation_188
            - 0
            - 0
            - &id181 {}
          - - activation_191
            - 0
            - 0
            - *id181
        name: block8_7_mixed
      - class_name: Conv2D
        config:
          activation: linear
          activity_regularizer: null
          bias_constraint: null
          bias_initializer:
            class_name: Zeros
            config: {}
          bias_regularizer: null
          data_format: channels_last
          dilation_rate: *id001
          filters: 2080
          kernel_constraint: null
          kernel_initializer:
            class_name: VarianceScaling
            config: {distribution: uniform, mode: fan_avg, scale: 1.0, seed: null}
          kernel_regularizer: null
          kernel_size: !!python/tuple [1, 1]
          name: block8_7_conv
          padding: same
          strides: !!python/tuple [1, 1]
          trainable: *id004
          use_bias: true
        inbound_nodes:
        - - - block8_7_mixed
            - 0
            - 0
            - {}
        name: block8_7_conv
      - class_name: Lambda
        config:
          arguments: {scale: 0.2}
          function: !!python/tuple ['4wIAAAAAAAAAAgAAAAMAAABTAAAAcxQAAAB8AGQBGQB8AGQCGQB8ARQAFwBTACkDTukAAAAA6QEA

              AACpACkC2gZpbnB1dHPaBXNjYWxlcgMAAAByAwAAAPpyL29wdC9wYWNrYWdlcy9BSS9hbmFjb25k

              YTMtNS4xLjBfZ3B1LjIwMTgtMDgvbGliL3B5dGhvbjMuNi9zaXRlLXBhY2thZ2VzL2tlcmFzX2Fw

              cGxpY2F0aW9ucy9pbmNlcHRpb25fcmVzbmV0X3YyLnB52gg8bGFtYmRhPqoAAADzAAAAAA==

              ', null, null]
          function_type: lambda
          name: block8_7
          output_shape: !!python/tuple [null, null, 2080]
          output_shape_type: raw
          trainable: *id004
        inbound_nodes:
        - - - block8_6_ac
            - 0
            - 0
            - &id182 {}
          - - block8_7_conv
            - 0
            - 0
            - *id182
        name: block8_7
      - class_name: Activation
        config:
          activation: relu
          name: block8_7_ac
          trainable: *id004
        inbound_nodes:
        - - - block8_7
            - 0
            - 0
            - {}
        name: block8_7_ac
      - class_name: Conv2D
        config:
          activation: linear
          activity_regularizer: null
          bias_constraint: null
          bias_initializer:
            class_name: Zeros
            config: {}
          bias_regularizer: null
          data_format: channels_last
          dilation_rate: *id001
          filters: 192
          kernel_constraint: null
          kernel_initializer:
            class_name: VarianceScaling
            config: {distribution: uniform, mode: fan_avg, scale: 1.0, seed: null}
          kernel_regularizer: null
          kernel_size: !!python/tuple [1, 1]
          name: conv2d_195
          padding: same
          strides: !!python/tuple [1, 1]
          trainable: *id004
          use_bias: false
        inbound_nodes:
        - - - block8_7_ac
            - 0
            - 0
            - {}
        name: conv2d_195
      - class_name: BatchNormalization
        config:
          axis: 3
          beta_constraint: null
          beta_initializer:
            class_name: Zeros
            config: {}
          beta_regularizer: null
          center: true
          epsilon: 0.001
          gamma_constraint: null
          gamma_initializer:
            class_name: Ones
            config: {}
          gamma_regularizer: null
          momentum: 0.99
          moving_mean_initializer:
            class_name: Zeros
            config: {}
          moving_variance_initializer:
            class_name: Ones
            config: {}
          name: batch_normalization_193
          scale: false
          trainable: *id004
        inbound_nodes:
        - - - conv2d_195
            - 0
            - 0
            - {}
        name: batch_normalization_193
      - class_name: Activation
        config:
          activation: relu
          name: activation_193
          trainable: *id004
        inbound_nodes:
        - - - batch_normalization_193
            - 0
            - 0
            - {}
        name: activation_193
      - class_name: Conv2D
        config:
          activation: linear
          activity_regularizer: null
          bias_constraint: null
          bias_initializer:
            class_name: Zeros
            config: {}
          bias_regularizer: null
          data_format: channels_last
          dilation_rate: *id001
          filters: 224
          kernel_constraint: null
          kernel_initializer:
            class_name: VarianceScaling
            config: {distribution: uniform, mode: fan_avg, scale: 1.0, seed: null}
          kernel_regularizer: null
          kernel_size: !!python/tuple [1, 3]
          name: conv2d_196
          padding: same
          strides: !!python/tuple [1, 1]
          trainable: *id004
          use_bias: false
        inbound_nodes:
        - - - activation_193
            - 0
            - 0
            - {}
        name: conv2d_196
      - class_name: BatchNormalization
        config:
          axis: 3
          beta_constraint: null
          beta_initializer:
            class_name: Zeros
            config: {}
          beta_regularizer: null
          center: true
          epsilon: 0.001
          gamma_constraint: null
          gamma_initializer:
            class_name: Ones
            config: {}
          gamma_regularizer: null
          momentum: 0.99
          moving_mean_initializer:
            class_name: Zeros
            config: {}
          moving_variance_initializer:
            class_name: Ones
            config: {}
          name: batch_normalization_194
          scale: false
          trainable: *id004
        inbound_nodes:
        - - - conv2d_196
            - 0
            - 0
            - {}
        name: batch_normalization_194
      - class_name: Activation
        config:
          activation: relu
          name: activation_194
          trainable: *id004
        inbound_nodes:
        - - - batch_normalization_194
            - 0
            - 0
            - {}
        name: activation_194
      - class_name: Conv2D
        config:
          activation: linear
          activity_regularizer: null
          bias_constraint: null
          bias_initializer:
            class_name: Zeros
            config: {}
          bias_regularizer: null
          data_format: channels_last
          dilation_rate: *id001
          filters: 192
          kernel_constraint: null
          kernel_initializer:
            class_name: VarianceScaling
            config: {distribution: uniform, mode: fan_avg, scale: 1.0, seed: null}
          kernel_regularizer: null
          kernel_size: !!python/tuple [1, 1]
          name: conv2d_194
          padding: same
          strides: !!python/tuple [1, 1]
          trainable: *id004
          use_bias: false
        inbound_nodes:
        - - - block8_7_ac
            - 0
            - 0
            - {}
        name: conv2d_194
      - class_name: Conv2D
        config:
          activation: linear
          activity_regularizer: null
          bias_constraint: null
          bias_initializer:
            class_name: Zeros
            config: {}
          bias_regularizer: null
          data_format: channels_last
          dilation_rate: *id001
          filters: 256
          kernel_constraint: null
          kernel_initializer:
            class_name: VarianceScaling
            config: {distribution: uniform, mode: fan_avg, scale: 1.0, seed: null}
          kernel_regularizer: null
          kernel_size: !!python/tuple [3, 1]
          name: conv2d_197
          padding: same
          strides: !!python/tuple [1, 1]
          trainable: *id004
          use_bias: false
        inbound_nodes:
        - - - activation_194
            - 0
            - 0
            - {}
        name: conv2d_197
      - class_name: BatchNormalization
        config:
          axis: 3
          beta_constraint: null
          beta_initializer:
            class_name: Zeros
            config: {}
          beta_regularizer: null
          center: true
          epsilon: 0.001
          gamma_constraint: null
          gamma_initializer:
            class_name: Ones
            config: {}
          gamma_regularizer: null
          momentum: 0.99
          moving_mean_initializer:
            class_name: Zeros
            config: {}
          moving_variance_initializer:
            class_name: Ones
            config: {}
          name: batch_normalization_192
          scale: false
          trainable: *id004
        inbound_nodes:
        - - - conv2d_194
            - 0
            - 0
            - {}
        name: batch_normalization_192
      - class_name: BatchNormalization
        config:
          axis: 3
          beta_constraint: null
          beta_initializer:
            class_name: Zeros
            config: {}
          beta_regularizer: null
          center: true
          epsilon: 0.001
          gamma_constraint: null
          gamma_initializer:
            class_name: Ones
            config: {}
          gamma_regularizer: null
          momentum: 0.99
          moving_mean_initializer:
            class_name: Zeros
            config: {}
          moving_variance_initializer:
            class_name: Ones
            config: {}
          name: batch_normalization_195
          scale: false
          trainable: *id004
        inbound_nodes:
        - - - conv2d_197
            - 0
            - 0
            - {}
        name: batch_normalization_195
      - class_name: Activation
        config:
          activation: relu
          name: activation_192
          trainable: *id004
        inbound_nodes:
        - - - batch_normalization_192
            - 0
            - 0
            - {}
        name: activation_192
      - class_name: Activation
        config:
          activation: relu
          name: activation_195
          trainable: *id004
        inbound_nodes:
        - - - batch_normalization_195
            - 0
            - 0
            - {}
        name: activation_195
      - class_name: Concatenate
        config:
          axis: 3
          name: block8_8_mixed
          trainable: *id004
        inbound_nodes:
        - - - activation_192
            - 0
            - 0
            - &id183 {}
          - - activation_195
            - 0
            - 0
            - *id183
        name: block8_8_mixed
      - class_name: Conv2D
        config:
          activation: linear
          activity_regularizer: null
          bias_constraint: null
          bias_initializer:
            class_name: Zeros
            config: {}
          bias_regularizer: null
          data_format: channels_last
          dilation_rate: *id001
          filters: 2080
          kernel_constraint: null
          kernel_initializer:
            class_name: VarianceScaling
            config: {distribution: uniform, mode: fan_avg, scale: 1.0, seed: null}
          kernel_regularizer: null
          kernel_size: !!python/tuple [1, 1]
          name: block8_8_conv
          padding: same
          strides: !!python/tuple [1, 1]
          trainable: *id004
          use_bias: true
        inbound_nodes:
        - - - block8_8_mixed
            - 0
            - 0
            - {}
        name: block8_8_conv
      - class_name: Lambda
        config:
          arguments: {scale: 0.2}
          function: !!python/tuple ['4wIAAAAAAAAAAgAAAAMAAABTAAAAcxQAAAB8AGQBGQB8AGQCGQB8ARQAFwBTACkDTukAAAAA6QEA

              AACpACkC2gZpbnB1dHPaBXNjYWxlcgMAAAByAwAAAPpyL29wdC9wYWNrYWdlcy9BSS9hbmFjb25k

              YTMtNS4xLjBfZ3B1LjIwMTgtMDgvbGliL3B5dGhvbjMuNi9zaXRlLXBhY2thZ2VzL2tlcmFzX2Fw

              cGxpY2F0aW9ucy9pbmNlcHRpb25fcmVzbmV0X3YyLnB52gg8bGFtYmRhPqoAAADzAAAAAA==

              ', null, null]
          function_type: lambda
          name: block8_8
          output_shape: !!python/tuple [null, null, 2080]
          output_shape_type: raw
          trainable: *id004
        inbound_nodes:
        - - - block8_7_ac
            - 0
            - 0
            - &id184 {}
          - - block8_8_conv
            - 0
            - 0
            - *id184
        name: block8_8
      - class_name: Activation
        config:
          activation: relu
          name: block8_8_ac
          trainable: *id004
        inbound_nodes:
        - - - block8_8
            - 0
            - 0
            - {}
        name: block8_8_ac
      - class_name: Conv2D
        config:
          activation: linear
          activity_regularizer: null
          bias_constraint: null
          bias_initializer:
            class_name: Zeros
            config: {}
          bias_regularizer: null
          data_format: channels_last
          dilation_rate: *id001
          filters: 192
          kernel_constraint: null
          kernel_initializer:
            class_name: VarianceScaling
            config: {distribution: uniform, mode: fan_avg, scale: 1.0, seed: null}
          kernel_regularizer: null
          kernel_size: !!python/tuple [1, 1]
          name: conv2d_199
          padding: same
          strides: !!python/tuple [1, 1]
          trainable: *id104
          use_bias: false
        inbound_nodes:
        - - - block8_8_ac
            - 0
            - 0
            - {}
        name: conv2d_199
      - class_name: BatchNormalization
        config:
          axis: 3
          beta_constraint: null
          beta_initializer:
            class_name: Zeros
            config: {}
          beta_regularizer: null
          center: true
          epsilon: 0.001
          gamma_constraint: null
          gamma_initializer:
            class_name: Ones
            config: {}
          gamma_regularizer: null
          momentum: 0.99
          moving_mean_initializer:
            class_name: Zeros
            config: {}
          moving_variance_initializer:
            class_name: Ones
            config: {}
          name: batch_normalization_197
          scale: false
          trainable: *id104
        inbound_nodes:
        - - - conv2d_199
            - 0
            - 0
            - {}
        name: batch_normalization_197
      - class_name: Activation
        config:
          activation: relu
          name: activation_197
          trainable: *id004
        inbound_nodes:
        - - - batch_normalization_197
            - 0
            - 0
            - {}
        name: activation_197
      - class_name: Conv2D
        config:
          activation: linear
          activity_regularizer: null
          bias_constraint: null
          bias_initializer:
            class_name: Zeros
            config: {}
          bias_regularizer: null
          data_format: channels_last
          dilation_rate: *id001
          filters: 224
          kernel_constraint: null
          kernel_initializer:
            class_name: VarianceScaling
            config: {distribution: uniform, mode: fan_avg, scale: 1.0, seed: null}
          kernel_regularizer: null
          kernel_size: !!python/tuple [1, 3]
          name: conv2d_200
          padding: same
          strides: !!python/tuple [1, 1]
          trainable: *id104
          use_bias: false
        inbound_nodes:
        - - - activation_197
            - 0
            - 0
            - {}
        name: conv2d_200
      - class_name: BatchNormalization
        config:
          axis: 3
          beta_constraint: null
          beta_initializer:
            class_name: Zeros
            config: {}
          beta_regularizer: null
          center: true
          epsilon: 0.001
          gamma_constraint: null
          gamma_initializer:
            class_name: Ones
            config: {}
          gamma_regularizer: null
          momentum: 0.99
          moving_mean_initializer:
            class_name: Zeros
            config: {}
          moving_variance_initializer:
            class_name: Ones
            config: {}
          name: batch_normalization_198
          scale: false
          trainable: *id104
        inbound_nodes:
        - - - conv2d_200
            - 0
            - 0
            - {}
        name: batch_normalization_198
      - class_name: Activation
        config:
          activation: relu
          name: activation_198
          trainable: *id004
        inbound_nodes:
        - - - batch_normalization_198
            - 0
            - 0
            - {}
        name: activation_198
      - class_name: Conv2D
        config:
          activation: linear
          activity_regularizer: null
          bias_constraint: null
          bias_initializer:
            class_name: Zeros
            config: {}
          bias_regularizer: null
          data_format: channels_last
          dilation_rate: *id001
          filters: 192
          kernel_constraint: null
          kernel_initializer:
            class_name: VarianceScaling
            config: {distribution: uniform, mode: fan_avg, scale: 1.0, seed: null}
          kernel_regularizer: null
          kernel_size: !!python/tuple [1, 1]
          name: conv2d_198
          padding: same
          strides: !!python/tuple [1, 1]
          trainable: *id104
          use_bias: false
        inbound_nodes:
        - - - block8_8_ac
            - 0
            - 0
            - {}
        name: conv2d_198
      - class_name: Conv2D
        config:
          activation: linear
          activity_regularizer: null
          bias_constraint: null
          bias_initializer:
            class_name: Zeros
            config: {}
          bias_regularizer: null
          data_format: channels_last
          dilation_rate: *id001
          filters: 256
          kernel_constraint: null
          kernel_initializer:
            class_name: VarianceScaling
            config: {distribution: uniform, mode: fan_avg, scale: 1.0, seed: null}
          kernel_regularizer: null
          kernel_size: !!python/tuple [3, 1]
          name: conv2d_201
          padding: same
          strides: !!python/tuple [1, 1]
          trainable: *id104
          use_bias: false
        inbound_nodes:
        - - - activation_198
            - 0
            - 0
            - {}
        name: conv2d_201
      - class_name: BatchNormalization
        config:
          axis: 3
          beta_constraint: null
          beta_initializer:
            class_name: Zeros
            config: {}
          beta_regularizer: null
          center: true
          epsilon: 0.001
          gamma_constraint: null
          gamma_initializer:
            class_name: Ones
            config: {}
          gamma_regularizer: null
          momentum: 0.99
          moving_mean_initializer:
            class_name: Zeros
            config: {}
          moving_variance_initializer:
            class_name: Ones
            config: {}
          name: batch_normalization_196
          scale: false
          trainable: *id104
        inbound_nodes:
        - - - conv2d_198
            - 0
            - 0
            - {}
        name: batch_normalization_196
      - class_name: BatchNormalization
        config:
          axis: 3
          beta_constraint: null
          beta_initializer:
            class_name: Zeros
            config: {}
          beta_regularizer: null
          center: true
          epsilon: 0.001
          gamma_constraint: null
          gamma_initializer:
            class_name: Ones
            config: {}
          gamma_regularizer: null
          momentum: 0.99
          moving_mean_initializer:
            class_name: Zeros
            config: {}
          moving_variance_initializer:
            class_name: Ones
            config: {}
          name: batch_normalization_199
          scale: false
          trainable: *id104
        inbound_nodes:
        - - - conv2d_201
            - 0
            - 0
            - {}
        name: batch_normalization_199
      - class_name: Activation
        config:
          activation: relu
          name: activation_196
          trainable: *id004
        inbound_nodes:
        - - - batch_normalization_196
            - 0
            - 0
            - {}
        name: activation_196
      - class_name: Activation
        config:
          activation: relu
          name: activation_199
          trainable: *id004
        inbound_nodes:
        - - - batch_normalization_199
            - 0
            - 0
            - {}
        name: activation_199
      - class_name: Concatenate
        config:
          axis: 3
          name: block8_9_mixed
          trainable: *id004
        inbound_nodes:
        - - - activation_196
            - 0
            - 0
            - &id185 {}
          - - activation_199
            - 0
            - 0
            - *id185
        name: block8_9_mixed
      - class_name: Conv2D
        config:
          activation: linear
          activity_regularizer: null
          bias_constraint: null
          bias_initializer:
            class_name: Zeros
            config: {}
          bias_regularizer: null
          data_format: channels_last
          dilation_rate: *id001
          filters: 2080
          kernel_constraint: null
          kernel_initializer:
            class_name: VarianceScaling
            config: {distribution: uniform, mode: fan_avg, scale: 1.0, seed: null}
          kernel_regularizer: null
          kernel_size: !!python/tuple [1, 1]
          name: block8_9_conv
          padding: same
          strides: !!python/tuple [1, 1]
          trainable: *id104
          use_bias: true
        inbound_nodes:
        - - - block8_9_mixed
            - 0
            - 0
            - {}
        name: block8_9_conv
      - class_name: Lambda
        config:
          arguments: {scale: 0.2}
          function: !!python/tuple ['4wIAAAAAAAAAAgAAAAMAAABTAAAAcxQAAAB8AGQBGQB8AGQCGQB8ARQAFwBTACkDTukAAAAA6QEA

              AACpACkC2gZpbnB1dHPaBXNjYWxlcgMAAAByAwAAAPpyL29wdC9wYWNrYWdlcy9BSS9hbmFjb25k

              YTMtNS4xLjBfZ3B1LjIwMTgtMDgvbGliL3B5dGhvbjMuNi9zaXRlLXBhY2thZ2VzL2tlcmFzX2Fw

              cGxpY2F0aW9ucy9pbmNlcHRpb25fcmVzbmV0X3YyLnB52gg8bGFtYmRhPqoAAADzAAAAAA==

              ', null, null]
          function_type: lambda
          name: block8_9
          output_shape: !!python/tuple [null, null, 2080]
          output_shape_type: raw
          trainable: *id004
        inbound_nodes:
        - - - block8_8_ac
            - 0
            - 0
            - &id186 {}
          - - block8_9_conv
            - 0
            - 0
            - *id186
        name: block8_9
      - class_name: Activation
        config:
          activation: relu
          name: block8_9_ac
          trainable: *id004
        inbound_nodes:
        - - - block8_9
            - 0
            - 0
            - {}
        name: block8_9_ac
      - class_name: Conv2D
        config:
          activation: linear
          activity_regularizer: null
          bias_constraint: null
          bias_initializer:
            class_name: Zeros
            config: {}
          bias_regularizer: null
          data_format: channels_last
          dilation_rate: *id001
          filters: 192
          kernel_constraint: null
          kernel_initializer:
            class_name: VarianceScaling
            config: {distribution: uniform, mode: fan_avg, scale: 1.0, seed: null}
          kernel_regularizer: null
          kernel_size: !!python/tuple [1, 1]
          name: conv2d_203
          padding: same
          strides: !!python/tuple [1, 1]
          trainable: *id104
          use_bias: false
        inbound_nodes:
        - - - block8_9_ac
            - 0
            - 0
            - {}
        name: conv2d_203
      - class_name: BatchNormalization
        config:
          axis: 3
          beta_constraint: null
          beta_initializer:
            class_name: Zeros
            config: {}
          beta_regularizer: null
          center: true
          epsilon: 0.001
          gamma_constraint: null
          gamma_initializer:
            class_name: Ones
            config: {}
          gamma_regularizer: null
          momentum: 0.99
          moving_mean_initializer:
            class_name: Zeros
            config: {}
          moving_variance_initializer:
            class_name: Ones
            config: {}
          name: batch_normalization_201
          scale: false
          trainable: *id104
        inbound_nodes:
        - - - conv2d_203
            - 0
            - 0
            - {}
        name: batch_normalization_201
      - class_name: Activation
        config:
          activation: relu
          name: activation_201
          trainable: *id004
        inbound_nodes:
        - - - batch_normalization_201
            - 0
            - 0
            - {}
        name: activation_201
      - class_name: Conv2D
        config:
          activation: linear
          activity_regularizer: null
          bias_constraint: null
          bias_initializer:
            class_name: Zeros
            config: {}
          bias_regularizer: null
          data_format: channels_last
          dilation_rate: *id001
          filters: 224
          kernel_constraint: null
          kernel_initializer:
            class_name: VarianceScaling
            config: {distribution: uniform, mode: fan_avg, scale: 1.0, seed: null}
          kernel_regularizer: null
          kernel_size: !!python/tuple [1, 3]
          name: conv2d_204
          padding: same
          strides: !!python/tuple [1, 1]
          trainable: *id104
          use_bias: false
        inbound_nodes:
        - - - activation_201
            - 0
            - 0
            - {}
        name: conv2d_204
      - class_name: BatchNormalization
        config:
          axis: 3
          beta_constraint: null
          beta_initializer:
            class_name: Zeros
            config: {}
          beta_regularizer: null
          center: true
          epsilon: 0.001
          gamma_constraint: null
          gamma_initializer:
            class_name: Ones
            config: {}
          gamma_regularizer: null
          momentum: 0.99
          moving_mean_initializer:
            class_name: Zeros
            config: {}
          moving_variance_initializer:
            class_name: Ones
            config: {}
          name: batch_normalization_202
          scale: false
          trainable: *id104
        inbound_nodes:
        - - - conv2d_204
            - 0
            - 0
            - {}
        name: batch_normalization_202
      - class_name: Activation
        config:
          activation: relu
          name: activation_202
          trainable: *id004
        inbound_nodes:
        - - - batch_normalization_202
            - 0
            - 0
            - {}
        name: activation_202
      - class_name: Conv2D
        config:
          activation: linear
          activity_regularizer: null
          bias_constraint: null
          bias_initializer:
            class_name: Zeros
            config: {}
          bias_regularizer: null
          data_format: channels_last
          dilation_rate: *id001
          filters: 192
          kernel_constraint: null
          kernel_initializer:
            class_name: VarianceScaling
            config: {distribution: uniform, mode: fan_avg, scale: 1.0, seed: null}
          kernel_regularizer: null
          kernel_size: !!python/tuple [1, 1]
          name: conv2d_202
          padding: same
          strides: !!python/tuple [1, 1]
          trainable: *id104
          use_bias: false
        inbound_nodes:
        - - - block8_9_ac
            - 0
            - 0
            - {}
        name: conv2d_202
      - class_name: Conv2D
        config:
          activation: linear
          activity_regularizer: null
          bias_constraint: null
          bias_initializer:
            class_name: Zeros
            config: {}
          bias_regularizer: null
          data_format: channels_last
          dilation_rate: *id001
          filters: 256
          kernel_constraint: null
          kernel_initializer:
            class_name: VarianceScaling
            config: {distribution: uniform, mode: fan_avg, scale: 1.0, seed: null}
          kernel_regularizer: null
          kernel_size: !!python/tuple [3, 1]
          name: conv2d_205
          padding: same
          strides: !!python/tuple [1, 1]
          trainable: *id104
          use_bias: false
        inbound_nodes:
        - - - activation_202
            - 0
            - 0
            - {}
        name: conv2d_205
      - class_name: BatchNormalization
        config:
          axis: 3
          beta_constraint: null
          beta_initializer:
            class_name: Zeros
            config: {}
          beta_regularizer: null
          center: true
          epsilon: 0.001
          gamma_constraint: null
          gamma_initializer:
            class_name: Ones
            config: {}
          gamma_regularizer: null
          momentum: 0.99
          moving_mean_initializer:
            class_name: Zeros
            config: {}
          moving_variance_initializer:
            class_name: Ones
            config: {}
          name: batch_normalization_200
          scale: false
          trainable: *id104
        inbound_nodes:
        - - - conv2d_202
            - 0
            - 0
            - {}
        name: batch_normalization_200
      - class_name: BatchNormalization
        config:
          axis: 3
          beta_constraint: null
          beta_initializer:
            class_name: Zeros
            config: {}
          beta_regularizer: null
          center: true
          epsilon: 0.001
          gamma_constraint: null
          gamma_initializer:
            class_name: Ones
            config: {}
          gamma_regularizer: null
          momentum: 0.99
          moving_mean_initializer:
            class_name: Zeros
            config: {}
          moving_variance_initializer:
            class_name: Ones
            config: {}
          name: batch_normalization_203
          scale: false
          trainable: *id104
        inbound_nodes:
        - - - conv2d_205
            - 0
            - 0
            - {}
        name: batch_normalization_203
      - class_name: Activation
        config:
          activation: relu
          name: activation_200
          trainable: *id004
        inbound_nodes:
        - - - batch_normalization_200
            - 0
            - 0
            - {}
        name: activation_200
      - class_name: Activation
        config:
          activation: relu
          name: activation_203
          trainable: *id004
        inbound_nodes:
        - - - batch_normalization_203
            - 0
            - 0
            - {}
        name: activation_203
      - class_name: Concatenate
        config:
          axis: 3
          name: block8_10_mixed
          trainable: *id004
        inbound_nodes:
        - - - activation_200
            - 0
            - 0
            - &id187 {}
          - - activation_203
            - 0
            - 0
            - *id187
        name: block8_10_mixed
      - class_name: Conv2D
        config:
          activation: linear
          activity_regularizer: null
          bias_constraint: null
          bias_initializer:
            class_name: Zeros
            config: {}
          bias_regularizer: null
          data_format: channels_last
          dilation_rate: *id001
          filters: 2080
          kernel_constraint: null
          kernel_initializer:
            class_name: VarianceScaling
            config: {distribution: uniform, mode: fan_avg, scale: 1.0, seed: null}
          kernel_regularizer: null
          kernel_size: !!python/tuple [1, 1]
          name: block8_10_conv
          padding: same
          strides: !!python/tuple [1, 1]
          trainable: *id104
          use_bias: true
        inbound_nodes:
        - - - block8_10_mixed
            - 0
            - 0
            - {}
        name: block8_10_conv
      - class_name: Lambda
        config:
          arguments: {scale: 1.0}
          function: !!python/tuple ['4wIAAAAAAAAAAgAAAAMAAABTAAAAcxQAAAB8AGQBGQB8AGQCGQB8ARQAFwBTACkDTukAAAAA6QEA

              AACpACkC2gZpbnB1dHPaBXNjYWxlcgMAAAByAwAAAPpyL29wdC9wYWNrYWdlcy9BSS9hbmFjb25k

              YTMtNS4xLjBfZ3B1LjIwMTgtMDgvbGliL3B5dGhvbjMuNi9zaXRlLXBhY2thZ2VzL2tlcmFzX2Fw

              cGxpY2F0aW9ucy9pbmNlcHRpb25fcmVzbmV0X3YyLnB52gg8bGFtYmRhPqoAAADzAAAAAA==

              ', null, null]
          function_type: lambda
          name: block8_10
          output_shape: !!python/tuple [null, null, 2080]
          output_shape_type: raw
          trainable: *id004
        inbound_nodes:
        - - - block8_9_ac
            - 0
            - 0
            - &id188 {}
          - - block8_10_conv
            - 0
            - 0
            - *id188
        name: block8_10
      - class_name: Conv2D
        config:
          activation: linear
          activity_regularizer: null
          bias_constraint: null
          bias_initializer:
            class_name: Zeros
            config: {}
          bias_regularizer: null
          data_format: channels_last
          dilation_rate: *id001
          filters: 1536
          kernel_constraint: null
          kernel_initializer:
            class_name: VarianceScaling
            config: {distribution: uniform, mode: fan_avg, scale: 1.0, seed: null}
          kernel_regularizer: null
          kernel_size: !!python/tuple [1, 1]
          name: conv_7b
          padding: same
          strides: !!python/tuple [1, 1]
          trainable: *id104
          use_bias: false
        inbound_nodes:
        - - - block8_10
            - 0
            - 0
            - {}
        name: conv_7b
      - class_name: BatchNormalization
        config:
          axis: 3
          beta_constraint: null
          beta_initializer:
            class_name: Zeros
            config: {}
          beta_regularizer: null
          center: true
          epsilon: 0.001
          gamma_constraint: null
          gamma_initializer:
            class_name: Ones
            config: {}
          gamma_regularizer: null
          momentum: 0.99
          moving_mean_initializer:
            class_name: Zeros
            config: {}
          moving_variance_initializer:
            class_name: Ones
            config: {}
          name: conv_7b_bn
          scale: false
          trainable: *id104
        inbound_nodes:
        - - - conv_7b
            - 0
            - 0
            - {}
        name: conv_7b_bn
      - class_name: Activation
        config:
          activation: relu
          name: conv_7b_ac
          trainable: *id004
        inbound_nodes:
        - - - conv_7b_bn
            - 0
            - 0
            - {}
        name: conv_7b_ac
      - class_name: GlobalMaxPooling2D
        config:
          data_format: channels_last
          name: global_max_pooling2d_1
          trainable: *id004
        inbound_nodes:
        - - - conv_7b_ac
            - 0
            - 0
            - {}
        name: global_max_pooling2d_1
      name: inception_resnet_v2__1
      output_layers:
      - [global_max_pooling2d_1, 0, 0]
    inbound_nodes:
    - - - conv2d_2__1
        - 0
        - 0
        - {}
    name: inception_resnet_v2__1
  - class_name: BatchNormalization
    config:
      axis: -1
      beta_constraint: null
      beta_initializer:
        class_name: Zeros
        config: {}
      beta_regularizer: null
      center: true
      epsilon: 0.001
      gamma_constraint: null
      gamma_initializer:
        class_name: Ones
        config: {}
      gamma_regularizer: null
      momentum: 0.99
      moving_mean_initializer:
        class_name: Zeros
        config: {}
      moving_variance_initializer:
        class_name: Ones
        config: {}
      name: batch_normalization_204
      scale: true
      trainable: true
    inbound_nodes:
    - - - densenet201__0
        - 1
        - 0
        - {}
    name: batch_normalization_204
  - class_name: BatchNormalization
    config:
      axis: -1
      beta_constraint: null
      beta_initializer:
        class_name: Zeros
        config: {}
      beta_regularizer: null
      center: true
      epsilon: 0.001
      gamma_constraint: null
      gamma_initializer:
        class_name: Ones
        config: {}
      gamma_regularizer: null
      momentum: 0.99
      moving_mean_initializer:
        class_name: Zeros
        config: {}
      moving_variance_initializer:
        class_name: Ones
        config: {}
      name: batch_normalization_205
      scale: true
      trainable: true
    inbound_nodes:
    - - - inception_resnet_v2__1
        - 1
        - 0
        - {}
    name: batch_normalization_205
  - class_name: Dropout
    config: {name: dropout_1, noise_shape: null, rate: 0.3, seed: null, trainable: true}
    inbound_nodes:
    - - - batch_normalization_204
        - 0
        - 0
        - {}
    name: dropout_1
  - class_name: Dropout
    config: {name: dropout_2, noise_shape: null, rate: 0.3, seed: null, trainable: true}
    inbound_nodes:
    - - - batch_normalization_205
        - 0
        - 0
        - {}
    name: dropout_2
  - class_name: Dense
    config:
      activation: linear
      activity_regularizer: null
      bias_constraint: null
      bias_initializer:
        class_name: Zeros
        config: {}
      bias_regularizer: null
      kernel_constraint: null
      kernel_initializer:
        class_name: VarianceScaling
        config: {distribution: uniform, mode: fan_avg, scale: 1.0, seed: null}
      kernel_regularizer: null
      name: dense_1
      trainable: true
      units: 160
      use_bias: true
    inbound_nodes:
    - - - dropout_1
        - 0
        - 0
        - {}
    name: dense_1
  - class_name: Dense
    config:
      activation: linear
      activity_regularizer: null
      bias_constraint: null
      bias_initializer:
        class_name: Zeros
        config: {}
      bias_regularizer: null
      kernel_constraint: null
      kernel_initializer:
        class_name: VarianceScaling
        config: {distribution: uniform, mode: fan_avg, scale: 1.0, seed: null}
      kernel_regularizer: null
      name: dense_2
      trainable: true
      units: 160
      use_bias: true
    inbound_nodes:
    - - - dropout_2
        - 0
        - 0
        - {}
    name: dense_2
  - class_name: Multiply
    config: {name: multiply_1, trainable: true}
    inbound_nodes:
    - - - dense_1
        - 0
        - 0
        - &id189 {}
      - - dense_2
        - 0
        - 0
        - *id189
    name: multiply_1
  - class_name: BatchNormalization
    config:
      axis: -1
      beta_constraint: null
      beta_initializer:
        class_name: Zeros
        config: {}
      beta_regularizer: null
      center: true
      epsilon: 0.001
      gamma_constraint: null
      gamma_initializer:
        class_name: Ones
        config: {}
      gamma_regularizer: null
      momentum: 0.99
      moving_mean_initializer:
        class_name: Zeros
        config: {}
      moving_variance_initializer:
        class_name: Ones
        config: {}
      name: batch_normalization_206
      scale: true
      trainable: true
    inbound_nodes:
    - - - multiply_1
        - 0
        - 0
        - {}
    name: batch_normalization_206
  - class_name: Activation
    config: {activation: relu, name: activation_204, trainable: true}
    inbound_nodes:
    - - - batch_normalization_206
        - 0
        - 0
        - {}
    name: activation_204
  - class_name: Dense
    config:
      activation: softmax
      activity_regularizer: null
      bias_constraint: null
      bias_initializer:
        class_name: Zeros
        config: {}
      bias_regularizer: null
      kernel_constraint: null
      kernel_initializer:
        class_name: VarianceScaling
        config: {distribution: uniform, mode: fan_avg, scale: 1.0, seed: null}
      kernel_regularizer: null
      name: dense_3
      trainable: true
      units: 2
      use_bias: true
    inbound_nodes:
    - - - activation_204
        - 0
        - 0
        - {}
    name: dense_3
  name: model_3
  output_layers:
  - [dense_3, 0, 0]
keras_version: 2.2.2
